prerequisite_task/test5/my_model.pth (torch, 33119 bytes, 47 tensors)

weight f4 [12, 3, 3, 3]
0	0x3d256784	0.040381923
1	0x3ca36c5a	0.019949127
2	0x3d8505c8	0.06495243
3	0xbd180dda	-0.037122585
4	0xbc3960ca	-0.01131458
5	0xbd66dea9	-0.05636469
6	0xbdc988a4	-0.09840515
7	0xbe2e8266	-0.1704193
8	0xbdebb0ce	-0.11508332
9	0x3d8321fa	0.06402965
10	0x3cccb73c	0.024989717
11	0x3e2c4a7f	0.16825293
12	0xbd825f46	-0.06365828
13	0xbe31b635	-0.17354663
14	0xbda6ac99	-0.08138389
15	0xbdc47723	-0.09593036
16	0x3ddbca4b	0.10731944
17	0xbcfa8518	-0.030581042
18	0x3da64b8c	0.08119878
19	0x3e158a5d	0.14603563
20	0x3bf8a061	0.007587478
21	0x3e616ad2	0.22013405
22	0x3db1375e	0.086531386
23	0x3e8b2469	0.27176216
24	0xbdd2034c	-0.10254535
25	0xbd4fad46	-0.050702356
26	0xbd80b5db	-0.06284686
27	0xbe2bb3c3	-0.16767792
28	0xbdc1ee8d	-0.09469328
29	0x3e925133	0.28577575
30	0x3d9a9585	0.0754805
31	0xbcb4897f	-0.02203822
32	0xbd5d5ca7	-0.05404344
33	0x3c3da6fb	0.011575456
34	0xbdf2d6ed	-0.118574
35	0xbe259423	-0.16169791
36	0x3e5d3cf6	0.21605286
37	0x3e1d11b3	0.15338783
38	0xbc5004c5	-0.01269645
39	0xbd993baa	-0.07482083
40	0xbd06ecc9	-0.03294066
41	0xbdf4148d	-0.11917982
42	0x3dd88e5c	0.10574028
43	0xbe9b8e12	-0.3038183
44	0xbd89d5e6	-0.06730251
45	0x3d758285	0.059938926
46	0x3d3eed9f	0.046613332
47	0xbe528189	-0.20557226
48	0x3e2c2a8a	0.16813102
49	0xbde86ab8	-0.1134848
50	0xbe5cc34b	-0.21558873
51	0x3c540d12	0.012942569
52	0x3e4317d0	0.19052052
53	0xbcc56079	-0.024093853
54	0xbd8cd171	-0.06875885
55	0x3c1f1831	0.0097103575
56	0xbe925767	-0.28582308
57	0xbdd5e21a	-0.10443516
58	0xbdd4b7be	-0.103866085
59	0xbc49ef0c	-0.01232506
60	0x3e06562d	0.13118811
61	0x3e360901	0.17776872
62	0x3edbb283	0.4290963
63	0x3b1392f5	0.0022518013
64	0x3e4f30d2	0.20233467
65	0xbc3fcd39	-0.011706644
66	0xbc47b425	-0.012188946
67	0xbe1e0dd7	-0.15434967
68	0x3e3eab63	0.18620066
69	0xbe3c28c4	-0.18374926
70	0xbe2c98ce	-0.16855165
71	0xbd73c1e1	-0.05951107
72	0x3cbbbda6	0.02291758
73	0x3e510d2c	0.20415181
74	0xbd8c934f	-0.068640344
75	0x3be088af	0.0068522315
76	0x3e82e589	0.25565746
77	0xbd14bbbf	-0.03631186
78	0x3bebaf23	0.007192509
79	0xbe4152af	-0.18879198
80	0xbd104b10	-0.035227835
81	0xbe39bce9	-0.1813847
82	0x3e1769c4	0.1478644
83	0xbd98513b	-0.074373685
84	0x3c78e8b7	0.015192202
85	0x3de264f8	0.110544145
86	0xbd91d35d	-0.071203925
87	0xbe270523	-0.16310553
88	0x3d18d44e	0.037311845
89	0x3c71ca5f	0.014757722
90	0x3d9ceef9	0.07662768
91	0x3e5bc492	0.21461704
92	0x3d9da3e8	0.07697278
93	0xbb524654	-0.0032085376
94	0x3e9d06fd	0.30669394
95	0x3c89ea6c	0.016835414
96	0xbd0d2ac7	-0.034464624
97	0x3da6d5c8	0.08146244
98	0xbe749ec4	-0.2388869
99	0xbe216292	-0.15760258
100	0xbe85ae24	-0.2610942
101	0x3cc98f6b	0.02460452
102	0xbd119d52	-0.035550423
103	0xbd9fed50	-0.07808936
104	0x3e8033c2	0.25039488
105	0x3dd8ef0a	0.10592468
106	0xbe30adc1	-0.17253782
107	0x3d1f6245	0.038912077
108	0x3e503a7e	0.20334813
109	0x3dcde9f9	0.10054392
110	0x3dce89e8	0.10084897
111	0xbd83ff06	-0.06445126
112	0x3e5b6e18	0.21428716
113	0xbdbea549	-0.093088694
114	0x3e5fb7e1	0.21847488
115	0x3c7623ac	0.015023153
116	0x3c63e707	0.013910062
117	0x3e1fd4f8	0.15608585
118	0x3df0bd7a	0.1175489
119	0x3d75ba72	0.05999226
120	0xbdbc739c	-0.09201738
121	0xbd7ee96f	-0.06223434
122	0xbe2cf68b	-0.16890924
123	0x3e4755a9	0.1946627
124	0xbe660c48	-0.22465622
125	0xbe9902ac	-0.2988485
126	0xbc461e12	-0.01209213
127	0x3d744aed	0.059641767
128	0xbe2fc039	-0.17163171
129	0xbe1ee061	-0.15515281
130	0xbd46abb6	-0.0485036
131	0xbe12d348	-0.1433841
132	0xbcc82110	-0.024429828
133	0xbd98315e	-0.07431291
134	0x3dd5d75f	0.104414694
135	0x3dfaecea	0.12252219
136	0xbd48580a	-0.048912086
137	0x3e2b684c	0.16739005
138	0x3d63ba34	0.0555975
139	0xbd50dc2d	-0.050991226
140	0x3d63a7ae	0.055579834
141	0xbdb7df15	-0.089780964
142	0xbe0300a0	-0.12793207
143	0x3d40f37f	0.047107216
144	0xbda68888	-0.0813151
145	0x3d24d083	0.040237915
146	0xbdd4bf40	-0.103880405
147	0xbd31b7a4	-0.043388024
148	0x3e6e3b3e	0.23264787
149	0xbe0f7db5	-0.14012797
150	0xbd8832c0	-0.06650305
151	0xbe8399eb	-0.25703368
152	0x3e87847c	0.26468265
153	0xbdbed130	-0.09317243
154	0xbe98f60a	-0.29875213
155	0x3e925f67	0.2858841
156	0xbd65c7c4	-0.056098714
157	0x3d3b16a2	0.04567588
158	0x3d8cfff4	0.06884757
159	0x3e3d4c8e	0.18486235
160	0x3def4c62	0.11684491
161	0xbc6f7058	-0.014614187
162	0xbd3ca26e	-0.046053343
163	0x3da5d696	0.0809757
164	0x3e024578	0.12721813
165	0x3e1e25df	0.15444134
166	0x3d947450	0.07248747
167	0xbe1be03d	-0.15222259
168	0x3e12bf57	0.14330803
169	0x3d626690	0.055273592
170	0xbd874c7b	-0.06606384
171	0xbe37bafc	-0.17942423
172	0xbda1f538	-0.079081
173	0xbd729a5e	-0.059229247
174	0xbe808c83	-0.25107202
175	0xbe1316b5	-0.14364131
176	0xbc7dcf52	-0.015491324
177	0xbd12523a	-0.03572295
178	0x3d3b448d	0.045719672
179	0xbb1747ca	-0.002308356
180	0xbc1feb76	-0.009760728
181	0x3d378694	0.044806078
182	0xbe2a54ff	-0.16633986
183	0xbd343e51	-0.044004742
184	0xbde1c892	-0.11024584
185	0x3e3738b4	0.17892724
186	0xbe591337	-0.21198736
187	0xbd6fed18	-0.05857572
188	0xbdca6422	-0.0988238
189	0x3e9004ac	0.28128564
190	0xbe395f49	-0.18102755
191	0x3e0369ca	0.12833324
192	0x3d95f199	0.07321472
193	0x39dba637	0.00041894775
194	0xbd7e3a12	-0.0620671
195	0xbe1a37f4	-0.15060407
196	0x3e8b35a1	0.27189353
197	0x3e91c851	0.28473142
198	0xbc3c7d95	-0.01150455
199	0x3d9b516f	0.075838916
200	0xbd736ef3	-0.05943198
201	0x3cb647a0	0.02225095
202	0x3e71be37	0.23607717
203	0x3d9dd34e	0.07706319
204	0xbd1e109d	-0.038590062
205	0x3c2403b4	0.0100106485
206	0xbe7b7d82	-0.24559596
207	0xbe06845b	-0.13136427
208	0x3e8179e8	0.2528832
209	0x3d80d021	0.062896974
210	0x3ddd0436	0.10791819
211	0xbe9509ec	-0.29109132
212	0x3e405031	0.1878059
213	0x3d2fff7b	0.042968255
214	0xbd86325d	-0.06552575
215	0xbde58e4c	-0.112087816
216	0xbeb8caaf	-0.36092135
217	0x3dd1b27a	0.1023912
218	0xbda92f10	-0.082609296
219	0xbc3889df	-0.01126334
220	0x3e97cc9c	0.29648292
221	0xbe2c65f6	-0.1683577
222	0xbc8cfb15	-0.017209569
223	0xbdcc2003	-0.09967043
224	0xbe83c102	-0.2573319
225	0xbdc9121c	-0.09817907
226	0xbdcaaf74	-0.09896746
227	0x3d1a3d05	0.03765585
228	0xbd86a556	-0.06574504
229	0xbceeb442	-0.029138688
230	0xbe7add87	-0.24498568
231	0x3d6869ee	0.056741647
232	0xbc771bb6	-0.01508229
233	0xbc4aaac1	-0.0123698125
234	0xbc489a16	-0.012243768
235	0x3dc0083b	0.0937657
236	0x3ded5100	0.11587715
237	0xbdcd640c	-0.10028848
238	0x3d90d320	0.07071519
239	0xbdd729bd	-0.10506008
240	0x3d3e270c	0.046423957
241	0xbe8db877	-0.27679798
242	0x3bb51712	0.005526432
243	0x3d663827	0.056205895
244	0x3e89a6b6	0.26885003
245	0xbc247a3e	-0.01003891
246	0x3d557c01	0.052120212
247	0xbdfa4447	-0.12220054
248	0x3ce41ea9	0.027846651
249	0xbe951c30	-0.29123068
250	0xbc907e50	-0.017638355
251	0xbe0c753e	-0.137166
252	0x3dfde693	0.12397494
253	0x3c61ea17	0.0137887215
254	0x3d6c45dc	0.05768381
255	0x3e0a7eb4	0.13524896

weight f4 [12]
0	0x3f800000	1.0
1	0x3f800000	1.0
2	0x3f800000	1.0
3	0x3f800000	1.0
4	0x3f800000	1.0
5	0x3f800000	1.0
6	0x3f800000	1.0
7	0x3f800000	1.0
8	0x3f800000	1.0
9	0x3f800000	1.0
10	0x3f800000	1.0
11	0x3f800000	1.0

bias f4 [12]
0	0x00000000	0.0
1	0x00000000	0.0
2	0x00000000	0.0
3	0x00000000	0.0
4	0x00000000	0.0
5	0x00000000	0.0
6	0x00000000	0.0
7	0x00000000	0.0
8	0x00000000	0.0
9	0x00000000	0.0
10	0x00000000	0.0
11	0x00000000	0.0

running_mean f4 [12]
0	0x00000000	0.0
1	0x00000000	0.0
2	0x00000000	0.0
3	0x00000000	0.0
4	0x00000000	0.0
5	0x00000000	0.0
6	0x00000000	0.0
7	0x00000000	0.0
8	0x00000000	0.0
9	0x00000000	0.0
10	0x00000000	0.0
11	0x00000000	0.0

running_var f4 [12]
0	0x3f800000	1.0
1	0x3f800000	1.0
2	0x3f800000	1.0
3	0x3f800000	1.0
4	0x3f800000	1.0
5	0x3f800000	1.0
6	0x3f800000	1.0
7	0x3f800000	1.0
8	0x3f800000	1.0
9	0x3f800000	1.0
10	0x3f800000	1.0
11	0x3f800000	1.0

weight f4 [4, 4, 1, 1]
0	0xbf326618	-0.6968703
1	0xbf07a517	-0.5298628
2	0xbee5636c	-0.44802415
3	0xbf957625	-1.167668
4	0xbd1793e1	-0.037006263
5	0x3f8615a4	1.0475354
6	0x3f917d63	1.136639
7	0x3f47e5e4	0.7808516
8	0x3f71e5d6	0.94491327
9	0xbfcc52da	-1.5962784
10	0xbf80f26c	-1.0073981
11	0xbf877b5c	-1.0584521
12	0xbeb319a0	-0.34980488
13	0x3ef409d1	0.4766374
14	0xbf6e89aa	-0.9317881
15	0xbec68177	-0.3877065

weight f4 [4]
0	0x3f800000	1.0
1	0x3f800000	1.0
2	0x3f800000	1.0
3	0x3f800000	1.0

bias f4 [4]
0	0x00000000	0.0
1	0x00000000	0.0
2	0x00000000	0.0
3	0x00000000	0.0

running_mean f4 [4]
0	0x00000000	0.0
1	0x00000000	0.0
2	0x00000000	0.0
3	0x00000000	0.0

running_var f4 [4]
0	0x3f800000	1.0
1	0x3f800000	1.0
2	0x3f800000	1.0
3	0x3f800000	1.0

weight f4 [4, 4, 3, 3]
0	0xbe6c9864	-0.23105007
1	0xbe6a972f	-0.22909234
2	0xbb8f6872	-0.0043764645
3	0xbd1a9923	-0.0377437
4	0xbe0064fa	-0.1253852
5	0xbe28678c	-0.1644575
6	0x3e44869a	0.19191971
7	0xbc268b9e	-0.010165123
8	0x3ec151fc	0.37757862
9	0xbe9f9adf	-0.31172845
10	0x3e660dc1	0.22466184
11	0x3e330b05	0.17484672
12	0x3e1f1df8	0.15538776
13	0x3d901bd9	0.070365615
14	0x3e17e9d6	0.14835295
15	0xbe22caae	-0.15897629
16	0x3d226786	0.03964951
17	0x3c35fd77	0.011107794
18	0xbc7d4111	-0.015457408
19	0xbea5c8a0	-0.32379627
20	0x3f268089	0.6503988
21	0xbd8ea0b3	-0.06964245
22	0x3c380c3b	0.011233385
23	0xbea703e6	-0.32620162
24	0x3f195169	0.5988985
25	0xbda5aa05	-0.08089069
26	0x3eacc9d6	0.3374774
27	0xbe96f099	-0.29480436
28	0x3b97b364	0.0046295393
29	0xbe6b9676	-0.23006615
30	0xbe9ac566	-0.30228728
31	0xbd86b8fd	-0.065782525
32	0xbecfdc66	-0.40597838
33	0xbe49f8bb	-0.1972379
34	0x3ec01291	0.37514165
35	0x3e3b7399	0.18305816
36	0xbd991c01	-0.074760444
37	0xbe3dff59	-0.18554439
38	0x3de2c1f5	0.110721506
39	0x3e10b627	0.14131986
40	0xbebc028e	-0.367207
41	0xbca63996	-0.020291131
42	0xbd925cfa	-0.0714664
43	0xbe1cf901	-0.15329362
44	0x3da05da2	0.07830359
45	0x3e05f689	0.13082327
46	0xbce99288	-0.028512254
47	0x3e013a82	0.12619975
48	0xbdca8096	-0.09887807
49	0xbe8f5117	-0.27991554
50	0xbd9ea7a0	-0.07746816
51	0xbe239678	-0.15975368
52	0xbd1e4ae9	-0.03864566
53	0x3f2a9ce0	0.6664562
54	0xbe20a9cd	-0.15689774
55	0x3f019f45	0.5063365
56	0x3ea4d0fb	0.3219069
57	0xbc152eaf	-0.0091053685
58	0x3e16004d	0.14648552
59	0xbe805dae	-0.25071472
60	0xbd8969bc	-0.0670962
61	0xbeeff728	-0.46868253
62	0x3d133b6f	0.035945352
63	0x3bd3d46d	0.006464532
64	0x3e096e47	0.13420974
65	0xbe89b968	-0.26899266
66	0x3eb777ed	0.35833684
67	0xbe18cb53	-0.14921312
68	0x3d8f5b64	0.06999853
69	0xbdd36497	-0.1032192
70	0x3d204742	0.039130457
71	0x3d6d2e81	0.057905678
72	0xbe0e3576	-0.13887581
73	0x3ebdefb9	0.37096956
74	0x3dc029db	0.09382983
75	0x3ba580b7	0.0050507444
76	0xbe088833	-0.13333206
77	0xbc2fa902	-0.010721447
78	0x3e3542d7	0.17701279
79	0x3eefe2e7	0.468528
80	0xbddceb53	-0.10787072
81	0xbe82752f	-0.2548003
82	0x3d5f4518	0.054509252
83	0xbe801417	-0.25015327
84	0x3e1860a8	0.14880621
85	0x3e111369	0.1416756
86	0xbc07f0f4	-0.008297194
87	0x3e5a2b1e	0.2130551
88	0xbea9557c	-0.33073032
89	0x3dd28fbc	0.102813214
90	0x3ba72aa8	0.0051015206
91	0x3df064ca	0.11737974
92	0xbf00bb70	-0.50286007
93	0xbf1927a5	-0.5982612
94	0xbeac1fb6	-0.33617944
95	0xbefac618	-0.4897926
96	0x3ca57ce8	0.020201162
97	0xbe12d928	-0.14340651
98	0x3cdc5224	0.026894636
99	0x3d46d3d0	0.048541844
100	0xbf0ccdc4	-0.55001473
101	0xbe28282b	-0.16421573
102	0x3de9a600	0.11408615
103	0xbcd03593	-0.025416171
104	0xbef4ff9b	-0.47851261
105	0x3d5d5b95	0.054042418
106	0x3e93a590	0.28837252
107	0x3ded89f1	0.11598576
108	0x3dca8313	0.09888282
109	0xbd128cc4	-0.035778776
110	0x3c9c65e6	0.019091558
111	0xbde6aa87	-0.11262994
112	0xbe39cee4	-0.18145329
113	0x3e0f8164	0.14014202
114	0x3d02f04f	0.031967457
115	0xbb71688b	-0.0036835994
116	0x3e40bd54	0.18822223
117	0xbe65645d	-0.22401567
118	0xbf26fecb	-0.65232533
119	0x3dc468bd	0.0959029
120	0xbe631520	-0.22176027
121	0xbe67c2aa	-0.22632852
122	0xbea6dbc6	-0.3258955
123	0x3e0b4204	0.13599402
124	0xbe69efd4	-0.22845393
125	0x3d0ffcee	0.035153322
126	0x3e9cef7b	0.3065146
127	0x3d04f5ec	0.032461092
128	0xbecd56b2	-0.40105206
129	0x3deb8b14	0.115011364
130	0xbbd65210	-0.0065405443
131	0xbf15098a	-0.5821768
132	0x3d0a7a41	0.033807997
133	0x3da19e90	0.078915715
134	0x3d38be1a	0.04510317
135	0x3e61d9d5	0.22055753
136	0xbe4d55b4	-0.20052224
137	0x3e4175eb	0.18892638
138	0x3cb0f4e3	0.021601146
139	0x3e1d277d	0.15347095
140	0x3ddffea8	0.10937244
141	0xbf1a1d98	-0.60201406
142	0xbafa7b89	-0.0019110303
143	0xbdf55296	-0.11978643

weight f4 [4]
0	0x3f800000	1.0
1	0x3f800000	1.0
2	0x3f800000	1.0
3	0x3f800000	1.0

bias f4 [4]
0	0x00000000	0.0
1	0x00000000	0.0
2	0x00000000	0.0
3	0x00000000	0.0

running_mean f4 [4]
0	0x00000000	0.0
1	0x00000000	0.0
2	0x00000000	0.0
3	0x00000000	0.0

running_var f4 [4]
0	0x3f800000	1.0
1	0x3f800000	1.0
2	0x3f800000	1.0
3	0x3f800000	1.0

weight f4 [4, 4, 3, 3]
0	0x3d1454df	0.036213752
1	0x3d309095	0.043106634
2	0x3e96fe3e	0.29490846
3	0xbd22cca1	-0.03974593
4	0x3d520742	0.051276453
5	0xbedf32d0	-0.43593454
6	0x3d2c7ff4	0.042114213
7	0xbe835208	-0.25648522
8	0xbd83fc1a	-0.06444569
9	0xbddfe310	-0.109319806
10	0xbd2c4fb8	-0.042068213
11	0x3ee61293	0.44936046
12	0x3dfe9698	0.12431067
13	0x3e45146c	0.19246072
14	0x3de6033f	0.11231088
15	0xbe242f0f	-0.16033576
16	0xbe52823f	-0.20557497
17	0xbeb02109	-0.34400204
18	0xbe404182	-0.18774989
19	0xbe9db960	-0.30805492
20	0x3dc49048	0.09597832
21	0x3e94de81	0.29076007
22	0x3b662c90	0.0035121776
23	0xbe728736	-0.23684391
24	0x3decea80	0.11568165
25	0xbe490b96	-0.19633326
26	0x3dc3f814	0.095688015
27	0xbe8f8188	-0.28028512
28	0x3e874fdf	0.26428124
29	0xbca4ef08	-0.02013351
30	0xbea98b97	-0.3311431
31	0xbe0946cf	-0.13405918
32	0x3e0c607d	0.13708682
33	0x3c6d5a98	0.014486931
34	0xbe01b5e8	-0.12667048
35	0xbcf38363	-0.029725736
36	0xbe5900e4	-0.21191746
37	0x3e239ad1	0.15977027
38	0x3e07d77b	0.13265793
39	0xbe47595e	-0.19467685
40	0x3e64a0c8	0.22326958
41	0x3e3e6b17	0.18595539
42	0xbeeca633	-0.4622055
43	0xbe850954	-0.2598368
44	0x3df7cff1	0.121002086
45	0xbddaa694	-0.106763035
46	0x3af29185	0.0018506503
47	0x3cbc5382	0.022989038
48	0x3f19d77c	0.6009443
49	0x3f04fb1f	0.5194568
50	0xbe6eb209	-0.23310103
51	0xbe9b4438	-0.30325484
52	0x3eba5daa	0.36399585
53	0xbe1f5238	-0.15558708
54	0xbe8f6782	-0.28008658
55	0xbcf2cd16	-0.029638808
56	0x3adb0efb	0.0016712839
57	0x3ea982bc	0.33107555
58	0x3db89c6f	0.09014212
59	0xbd08bd2b	-0.03338353
60	0xbdb0e9ae	-0.08638321
61	0x3e221344	0.15827662
62	0x3ec0d3ab	0.3766149
63	0xbcacf3b5	-0.021112302
64	0x3ed402b5	0.41408315
65	0xbe547770	-0.20748687
66	0x3d9289a5	0.0715516
67	0xbdfb7b00	-0.1227932
68	0xbd989968	-0.07451135
69	0xbd3575d2	-0.044301815
70	0xbe6b0cb8	-0.2295407
71	0x3e249789	0.16073431
72	0x3e59e721	0.21279575
73	0x3e965bc2	0.2936688
74	0xbd1ce431	-0.038303558
75	0x3dfd1949	0.123583384
76	0xbcf58dfc	-0.02997493
77	0x3e65514a	0.2239429
78	0xbd8d8eb8	-0.06911987
79	0xbeac1aba	-0.3361414
80	0x3f1a7782	0.60338604
81	0x3e4b3053	0.19842653
82	0x3e537cad	0.20653029
83	0x3c18539f	0.009297281
84	0x3e9e1f2d	0.3088316
85	0x3d2e38a9	0.042534504
86	0xbe7f636d	-0.24940272
87	0xbe16e52e	-0.14735863
88	0x3e0f63b7	0.14002882
89	0xbe678e77	-0.2261294
90	0xbc1f721a	-0.009731794
91	0x3e818679	0.25297907
92	0xbdb810f2	-0.08987607
93	0x3d53a14d	0.0516675
94	0xbc41224a	-0.01178796
95	0xbccc6dd3	-0.024954712
96	0x3dc7146a	0.097206905
97	0x3c9df182	0.019280199
98	0xbbab0817	-0.0052194702
99	0xbd24b64b	-0.04021291
100	0x3eb0a00a	0.344971
101	0xbe41b6e4	-0.18917423
102	0x3e26369a	0.16231766
103	0x3e171a18	0.14756048
104	0x3e76f893	0.24118261
105	0x3ea2fafc	0.3183211
106	0xbd6d6aa1	-0.057963017
107	0xbe3a9311	-0.18220164
108	0x3d9b209a	0.07574578
109	0x3b4baa8f	0.0031077003
110	0xbd60bc22	-0.054866917
111	0xbd0d7d6f	-0.03454345
112	0xbe43e73f	-0.19131182
113	0xbce9a87f	-0.028522728
114	0x3db7cf86	0.08975129
115	0x3e586108	0.21130764
116	0x3dc25ac5	0.09489969
117	0x3e9f4f48	0.31115174
118	0x3e73ac65	0.23796232
119	0xbe7b1c53	-0.24522524
120	0x3ea5742b	0.32315192
121	0x3d3d3420	0.04619229
122	0x3ec3c996	0.38239735
123	0x3d21bdd4	0.039487675
124	0x3e918803	0.2842408
125	0xbeb950bb	-0.36194405
126	0x3e38ecd8	0.18059099
127	0xbe961d88	-0.29319406
128	0xbe491f33	-0.19640808
129	0x3e35402f	0.17700265
130	0xbeae9643	-0.34099016
131	0xbe2d8ab9	-0.1694745
132	0x3df14032	0.117798224
133	0xbdf54d98	-0.119776905
134	0xbea54717	-0.322808
135	0xbde07cfa	-0.109613374
136	0x3e5e0695	0.21682198
137	0x3eb8626b	0.36012587
138	0xbda367df	-0.07978796
139	0x3c409a8e	0.011755599
140	0xbe93b16e	-0.28846306
141	0x3df6d32c	0.120519966
142	0x3d839b23	0.06426074
143	0xbe061047	-0.13092147

weight f4 [4]
0	0x3f800000	1.0
1	0x3f800000	1.0
2	0x3f800000	1.0
3	0x3f800000	1.0

bias f4 [4]
0	0x00000000	0.0
1	0x00000000	0.0
2	0x00000000	0.0
3	0x00000000	0.0

running_mean f4 [4]
0	0x00000000	0.0
1	0x00000000	0.0
2	0x00000000	0.0
3	0x00000000	0.0

running_var f4 [4]
0	0x3f800000	1.0
1	0x3f800000	1.0
2	0x3f800000	1.0
3	0x3f800000	1.0

weight f4 [4, 4, 3, 3]
0	0xbdecaf34	-0.11556855
1	0xbde84c73	-0.113427065
2	0xbdc179e9	-0.09447081
3	0x3e35d2cd	0.17756195
4	0xbdd7e374	-0.1054143
5	0xbda57f94	-0.08080974
6	0xbeb81a92	-0.35957772
7	0xbe953700	-0.29143524
8	0x3d369293	0.044573378
9	0xbb0a04ac	-0.0021059914
10	0x3e94e730	0.29082632
11	0xbe2c9cc1	-0.16856672
12	0xbcd385d4	-0.02582065
13	0xbd936858	-0.07197636
14	0x3e917e96	0.2841689
15	0x3edb16fa	0.42790967
16	0xbe210dbd	-0.15727897
17	0xbca27806	-0.019832622
18	0x3e911309	0.28334835
19	0xbede4e3b	-0.4341906
20	0x3e4f4ee4	0.20244938
21	0x3d9cd06d	0.076569416
22	0x3e9363fd	0.28787223
23	0x3eaa36c0	0.33244896
24	0x3e7a54f8	0.24446476
25	0x3e0061a2	0.12537244
26	0xbe0b3f78	-0.1359843
27	0xbd9ebc26	-0.0775073
28	0x3e650d18	0.22368276
29	0x3ee570ea	0.4481271
30	0xbeb77ddd	-0.35838214
31	0xbd585244	-0.05281283
32	0xbe42abaf	-0.19010805
33	0xbed47b51	-0.41500333
34	0x3f06f43a	0.5271641
35	0x3daf3d64	0.08556631
36	0x3f1333df	0.57501024
37	0xbc471f26	-0.012153422
38	0xbe99ace7	-0.30014727
39	0xbebb23fa	-0.36550885
40	0x3dfc34b8	0.12314743
41	0xbda6166b	-0.08109745
42	0x3e5dd972	0.2166498
43	0x3c894454	0.016756214
44	0x3e7e75e3	0.24849658
45	0x3e2e1e05	0.17003639
46	0xbe7d719b	-0.24750368
47	0xbe8c7639	-0.27433947
48	0x3e7b66e6	0.24550971
49	0x3e009b44	0.12559229
50	0x3e0cd36c	0.13752526
51	0xbda78674	-0.08179942
52	0xbe1116fc	-0.14168924
53	0xbea6f4a2	-0.32608515
54	0xbf0982f8	-0.5371547
55	0xbcea6d07	-0.028616441
56	0xbe2a4fdf	-0.16632031
57	0xbe2430c9	-0.16034235
58	0x3e31d511	0.17366435
59	0x3de843a1	0.11341024
60	0xbe674679	-0.22585477
61	0x3e2f8266	0.17139587
62	0x3d246699	0.040136907
63	0xbbbf816a	-0.005844285
64	0x3e33bd23	0.17552619
65	0x3f1b1646	0.6058086
66	0xbe9d4195	-0.30714098
67	0xbe908007	-0.28222677
68	0x3da6de25	0.081478395
69	0x3da6f184	0.08151534
70	0xbe2ad072	-0.16681078
71	0xbb92efb2	-0.0044841403
72	0x3dc1e7ec	0.09468064
73	0xbde51463	-0.11185529
74	0x3ecf8808	0.4053347
75	0x3dda74a1	0.106667764
76	0xbeaab134	-0.3333832
77	0x3e8a45fd	0.27006522
78	0xbea2330b	-0.31679568
79	0x3e6e7733	0.23287658
80	0xbd70637d	-0.05868863
81	0x3f08fb66	0.53508604
82	0x3e492ffa	0.19647208
83	0x3e44fa00	0.19235992
84	0x3e68ed84	0.22746855
85	0xbe057599	-0.13033141
86	0x3e8ad081	0.271122
87	0xbe9adf08	-0.30248284
88	0x3ec47789	0.38372448
89	0x3d118335	0.03552552
90	0x3e80d6d1	0.25163892
91	0x3e42e70c	0.1903345
92	0x3cd88137	0.026428802
93	0x3da76492	0.08173479
94	0x3ecbbeb2	0.39793926
95	0x3eaabea4	0.33348572
96	0xbe99ba86	-0.3002512
97	0x3d8cfc5f	0.068840735
98	0xbe0585e2	-0.13039353
99	0xbeb4d7ba	-0.35320836
100	0xbd3a6556	-0.045506798
101	0x3d60519b	0.054765325
102	0xbd01e117	-0.031708803
103	0x3cd434b8	0.025904045
104	0xbe4d8941	-0.2007189
105	0x3e99a993	0.30012187
106	0xbca32360	-0.019914329
107	0x3e422453	0.18959169
108	0x3eb7b052	0.3587671
109	0xbe22022c	-0.15821141
110	0x3d17d16e	0.037064962
111	0x3db22272	0.08697976
112	0xbd87dfd4	-0.06634489
113	0xbc7fab4d	-0.015604806
114	0xbdb064cf	-0.08612978
115	0xbe98a9e4	-0.29817116
116	0xbea79f41	-0.3273869
117	0xbe817e52	-0.25291687
118	0xbe841736	-0.2579896
119	0xbe86c8a6	-0.26324958
120	0x3eba4321	0.3637934
121	0x3ce435b6	0.027857643
122	0x3d1d09bd	0.038339365
123	0x3b7f2b0a	0.0038935565
124	0x3e87f140	0.26551247
125	0xbdb772b5	-0.089574255
126	0x3dde6f4c	0.10861072
127	0x3d0b8836	0.034065448
128	0x3dcfb7d6	0.10142486
129	0x3ca83122	0.02053124
130	0xbd4e31e3	-0.050340544
131	0x3eb3d008	0.35119653
132	0xbcbe448e	-0.023226049
133	0xbe2e1795	-0.17001183
134	0xbe072a88	-0.13199818
135	0xbebe0f67	-0.37121126
136	0x3c37df67	0.011222697
137	0x3e11d306	0.14240655
138	0x3e74fe97	0.23925243
139	0x3e73abbd	0.23795982
140	0xbdd3e9f9	-0.10347361
141	0xbe07ef2e	-0.13274834
142	0x3e376fdc	0.17913765
143	0xbe9cf4cf	-0.30655524

weight f4 [4]
0	0x3f800000	1.0
1	0x3f800000	1.0
2	0x3f800000	1.0
3	0x3f800000	1.0

bias f4 [4]
0	0x00000000	0.0
1	0x00000000	0.0
2	0x00000000	0.0
3	0x00000000	0.0

running_mean f4 [4]
0	0x00000000	0.0
1	0x00000000	0.0
2	0x00000000	0.0
3	0x00000000	0.0

running_var f4 [4]
0	0x3f800000	1.0
1	0x3f800000	1.0
2	0x3f800000	1.0
3	0x3f800000	1.0

weight f4 [4, 12, 1, 1]
0	0xbfbaa384	-1.4581151
1	0xbc5bdd94	-0.013419528
2	0x3f62e79b	0.8863465
3	0x3e8ccff7	0.27502415
4	0xbead69dd	-0.3386983
5	0xbf204651	-0.62607294
6	0xbe1d5b5f	-0.15366887
7	0xbf02544b	-0.5090987
8	0xbee7d40a	-0.4527896
9	0xbe6c2ce8	-0.23064005
10	0xbf277d2c	-0.6542537
11	0xbe8590f1	-0.26087144
12	0x3f890df3	1.0707382
13	0xbf49ebe0	-0.7887554
14	0xbf5b9d16	-0.8578657
15	0x3fb43151	1.407755
16	0xbe695908	-0.22787869
17	0x3ee841ec	0.45362794
18	0x3f3e1c18	0.7426162
19	0xbfb16775	-1.3859698
20	0x3ebabe04	0.36473095
21	0xbf9e5b1e	-1.2371557
22	0x3d2e9309	0.042620692
23	0x3e40e759	0.18838252
24	0xbf8f02a3	-1.117268
25	0xbe935355	-0.28774515
26	0xbef9d402	-0.48794562
27	0xbd4f3766	-0.05058994
28	0xbfb9d33e	-1.4517591
29	0x3ec2b05c	0.38025177
30	0x3e874e12	0.2642675
31	0x3f6dc9c7	0.9288601
32	0xbf38fb7b	-0.7225873
33	0x3f906e3b	1.128364
34	0xbe8f2437	-0.27957317
35	0xbea7fd57	-0.3281047
36	0x3dfabe1d	0.122432925
37	0xbf0ac950	-0.5421343
38	0xbe7a03e8	-0.24415553
39	0xbfb5ef8b	-1.4213728
40	0x3f35d3d4	0.7102635
41	0xbf603d93	-0.87593955
42	0x3f54d25f	0.831335
43	0xbfc3396f	-1.5251902
44	0xbe9ce310	-0.30641985
45	0x3ee203af	0.44143435
46	0x3e846fa5	0.25866428
47	0x3fd0ccf2	1.6312544

weight f4 [4]
0	0x3f800000	1.0
1	0x3f800000	1.0
2	0x3f800000	1.0
3	0x3f800000	1.0

bias f4 [4]
0	0x00000000	0.0
1	0x00000000	0.0
2	0x00000000	0.0
3	0x00000000	0.0

running_mean f4 [4]
0	0x00000000	0.0
1	0x00000000	0.0
2	0x00000000	0.0
3	0x00000000	0.0

running_var f4 [4]
0	0x3f800000	1.0
1	0x3f800000	1.0
2	0x3f800000	1.0
3	0x3f800000	1.0

weight f4 [4, 12, 1, 1]
0	0xbeb1562d	-0.3463606
1	0x3f0579d1	0.52139
2	0xbefb1f86	-0.49047488
3	0xbe529473	-0.20564441
4	0xbee61516	-0.44937962
5	0xbf3fe7fd	-0.7496336
6	0x3d56aaba	0.05240891
7	0xbf3baa86	-0.73307073
8	0xbeb7c3b4	-0.35891497
9	0xbf45b4dc	-0.77229095
10	0xbeb09ade	-0.34493154
11	0xbf901e9f	-1.1259345
12	0x3d8d5e1f	0.06902718
13	0x3ea17aa0	0.31538868
14	0x3f0b47fa	0.544067
15	0x3f76596b	0.9623019
16	0xbda8b1a7	-0.082370095
17	0xbf12c8d3	-0.57337683
18	0x3f07cc4d	0.53046113
19	0xbde54652	-0.11195053
20	0xbe842df5	-0.25816312
21	0xbf4ce867	-0.8004212
22	0xbeb05346	-0.34438533
23	0x3ed9b55c	0.4252118
24	0xbe64e52c	-0.22353047
25	0xbe9d51cd	-0.30726472
26	0x3f79ac7b	0.9752881
27	0xbf228f2b	-0.63499707
28	0x3f3c8156	0.7363485
29	0xbf12d0d2	-0.57349885
30	0x3fc93cf6	1.5721729
31	0xbf3ae1ca	-0.73000777
32	0xbde5d3e7	-0.11222058
33	0xbfa7f6e8	-1.3122225
34	0xbde1d5ef	-0.11027133
35	0xbe5c10a6	-0.21490726
36	0xbf198d0a	-0.59980834
37	0xbeda2d66	-0.4261276
38	0x3f80d34c	1.0064483
39	0x3ca2e6f5	0.01988552
40	0xbfb32df9	-1.3998405
41	0xbf487bf4	-0.7831414
42	0x3f837931	1.027136
43	0xbf83ebc7	-1.0306329
44	0x3f5a07e7	0.8516831
45	0x3d4b05f3	0.04956622
46	0x3dd90e44	0.10598424
47	0x3f55096f	0.8321752

weight f4 [4]
0	0x3f800000	1.0
1	0x3f800000	1.0
2	0x3f800000	1.0
3	0x3f800000	1.0

bias f4 [4]
0	0x00000000	0.0
1	0x00000000	0.0
2	0x00000000	0.0
3	0x00000000	0.0

running_mean f4 [4]
0	0x00000000	0.0
1	0x00000000	0.0
2	0x00000000	0.0
3	0x00000000	0.0

running_var f4 [4]
0	0x3f800000	1.0
1	0x3f800000	1.0
2	0x3f800000	1.0
3	0x3f800000	1.0

weight f4 [4, 12, 1, 1]
0	0x3f9b6187	1.2139138
1	0xbe798780	-0.24368095
2	0x3eda29d1	0.42610028
3	0x3dbd5ce0	0.0924623
4	0xbeeebfbc	-0.46630657
5	0x3fb2558e	1.3932359
6	0x3f4d3652	0.8016101
7	0x3f18794a	0.5956007
8	0x3de1496f	0.110003345
9	0xbddf51fb	-0.109043084
10	0x3e0547fb	0.1301574
11	0x3f010aa1	0.50406843
12	0x3efc3868	0.49261785
13	0xbf90fc6f	-1.1327037
14	0x3f699c24	0.91253877
15	0x3f2865e6	0.65780485
16	0x3e993a91	0.29927495
17	0x3e7dea90	0.2479651
18	0x3f2120d7	0.62940735
19	0x3f58ae35	0.8464082
20	0x3eb3a89b	0.35089573
21	0xbd0bd94d	-0.03414278
22	0xbe915b81	-0.28390124
23	0xbd8caa30	-0.06868398
24	0x3f266313	0.64994925
25	0xbcb912df	-0.022592006
26	0x3f030b11	0.5118876
27	0xbf43e1a0	-0.7651615
28	0x3f06ff6b	0.52733487
29	0x3eb0eb33	0.34554443
30	0xbf4f60d6	-0.81007135
31	0xbf00d695	-0.50327426
32	0xbe78f8d0	-0.24313664
33	0x3ef1ae35	0.47203222
34	0xbe8a3cb9	-0.26999453
35	0xbf349814	-0.7054455
36	0x3fab4738	1.3381109
37	0x3f7dacb8	0.9909167
38	0xbf17a227	-0.592318
39	0xbf718f2d	-0.94359094
40	0xbf250e47	-0.6447491
41	0xbf1ff0ff	-0.62477106
42	0xbfc46a1d	-1.5344883
43	0xbefee187	-0.4978144
44	0xbf53c497	-0.8272185
45	0x3f7cd85c	0.9876764
46	0x3eef7353	0.46767673
47	0xbeb65c6d	-0.3561739

weight f4 [4]
0	0x3f800000	1.0
1	0x3f800000	1.0
2	0x3f800000	1.0
3	0x3f800000	1.0

bias f4 [4]
0	0x00000000	0.0
1	0x00000000	0.0
2	0x00000000	0.0
3	0x00000000	0.0

running_mean f4 [4]
0	0x00000000	0.0
1	0x00000000	0.0
2	0x00000000	0.0
3	0x00000000	0.0

running_var f4 [4]
0	0x3f800000	1.0
1	0x3f800000	1.0
2	0x3f800000	1.0
3	0x3f800000	1.0

weight f4 [12, 12, 1, 1]
0	0x3f374f39	0.7160526
1	0xbdc3551f	-0.0953772
2	0x3ed35c5d	0.41281405
3	0x3ed42788	0.4143641
4	0xbbbd37f2	-0.0057744915
5	0x3d7a1186	0.061051868
6	0x3f59c793	0.8507015
7	0xbf69de26	-0.91354597
8	0x3f605e8a	0.87644255
9	0xbd65fb0b	-0.056147616
10	0x3f4ebce2	0.8075696
11	0xbece5ca9	-0.4030507
12	0xbec4cbb2	-0.38436657
13	0xbe62eafe	-0.22159955
14	0x3dc9b999	0.09849853
15	0xbf73486f	-0.950324
16	0xbdd348ac	-0.103165954
17	0xbce87476	-0.028375845
18	0xbd9d7778	-0.076888025
19	0xbeac84e0	-0.33695126
20	0xbe1b4110	-0.15161538
21	0x3ed38265	0.4131042
22	0xbd90014f	-0.070314996
23	0x3f20dbaa	0.6283518
24	0xbeb53e9e	-0.35399336
25	0x3e93c9ec	0.28864992
26	0xbec080be	-0.37598222
27	0x3ebbc62c	0.3667463
28	0x3f3d9990	0.7406244
29	0xbe8b04fa	-0.27152234
30	0xbf4db36c	-0.803519
31	0x3e622d42	0.22087577
32	0x3d7f3298	0.06230411
33	0xbf1b8824	-0.6075461
34	0xbbca6ca6	-0.0061775027
35	0x3ee115ea	0.43962032
36	0x3ee5c07e	0.44873422
37	0xbd613560	-0.054982543
38	0x3da88361	0.082281835
39	0x3ed6c738	0.41948867
40	0xbeeac5c1	-0.45854
41	0xbe06c9d4	-0.13162929
42	0x3ee320c7	0.44360945
43	0x3ef85c0e	0.48507732
44	0xbf647af6	-0.89250124
45	0xbebf53e2	-0.37368685
46	0xbf3e1eb8	-0.74265623
47	0x3e72366b	0.23653571
48	0xbf96b32b	-1.1773428
49	0xbddf61c5	-0.1090732
50	0x3cec94ce	0.02887955
51	0xbd0c8468	-0.03430596
52	0x3e6825fd	0.22670741
53	0xbdf83edc	-0.121213645
54	0x3eb1ff36	0.34765023
55	0x3e545ee8	0.20739329
56	0xbf18a6ae	-0.59629333
57	0xbc74b676	-0.01493608
58	0x3eb03d88	0.34421945
59	0x3ed8938c	0.4230007
60	0x3ed79a49	0.42109898
61	0x3e6cc0fa	0.2312049
62	0x3c2b03e6	0.010437941
63	0x3ee14cd1	0.4400392
64	0x3ebd40ce	0.36963505
65	0x3e2c06c5	0.16799457
66	0x3f40636d	0.7515171
67	0x3f04c56f	0.5186376
68	0x3e2648a3	0.16238646
69	0xbe4d86b8	-0.20070922
70	0xbf0e070b	-0.55479497
71	0x3ec686d7	0.3877475
72	0xbf2a497a	-0.66518366
73	0xbe86ca81	-0.26326373
74	0xbe534d35	-0.20634921
75	0xbe9399ae	-0.28828186
76	0x3f278cf3	0.65449446
77	0xbdf61048	-0.12014824
78	0x3f0fe776	0.56212556
79	0x3e25c388	0.1618787
80	0x3c2eb981	0.010664345
81	0x3c8eb427	0.017419888
82	0xbcd78f81	-0.026313545
83	0x3deb7df3	0.11498632
84	0x3f078750	0.52940845
85	0x3ef8a135	0.4856049
86	0xbde0fe0b	-0.10985955
87	0x3d364a87	0.04450467
88	0x3e34e4a8	0.1766535
89	0x3e2355b1	0.15950657
90	0xbf144209	-0.5791326
91	0xbe19fce1	-0.15037872
92	0xbe8ea35f	-0.27859017
93	0xbf0df311	-0.55449015
94	0x3ecb56e9	0.39714745
95	0x3f07c960	0.5304165
96	0xbe66ff4f	-0.2255833
97	0xbe9b7c86	-0.3036844
98	0x3f35c52c	0.71003985
99	0xbf1aa55c	-0.6040857
100	0x3f434880	0.762825
101	0xbec8e1c1	-0.39234737
102	0x3e810c04	0.2520448
103	0x3ead75f2	0.33879048
104	0x3e97c8c1	0.2964535
105	0xbe27662b	-0.16347568
106	0x3f0a69be	0.540676
107	0xbdc97445	-0.0983663
108	0x3ea24889	0.31695965
109	0xbcca7bf9	-0.024717318
110	0x3d74661d	0.059667695
111	0x3eac1036	0.33606118
112	0xbd19b415	-0.037525255
113	0xbd857e35	-0.06518213
114	0xbd873694	-0.06602207
115	0x3f2d25dd	0.676359
116	0x3ec6e840	0.38849068
117	0x3e736fc8	0.2377311
118	0x3f551c03	0.8324587
119	0xbe30c40a	-0.17262283
120	0x3f937dac	1.1522727
121	0x3ed7bc49	0.42135838
122	0x3e00af84	0.12566954
123	0x3d8f3cd3	0.06994023
124	0xbf012369	-0.50444657
125	0xbf6d9342	-0.9280282
126	0xbf043377	-0.5164103
127	0xbce7ab32	-0.028279874
128	0xbc273ebc	-0.010207828
129	0xbf00b4b7	-0.5027575
130	0x3f682f3e	0.90697086
131	0x3e0d0030	0.13769603
132	0xbd25d269	-0.040483866
133	0x3c739a5f	0.014868348
134	0xbeffd93e	-0.4997043
135	0xbf09c3b4	-0.53814244
136	0xbf1a1080	-0.60181427
137	0x3f3ce0df	0.73780626
138	0xbf06bee6	-0.5263504
139	0xbed76007	-0.4206545
140	0x3dcb27fd	0.099197365
141	0xbeca7102	-0.39539343
142	0xbe3d6554	-0.18495685
143	0xbdea9924	-0.114549905

weight f4 [12]
0	0x3f800000	1.0
1	0x3f800000	1.0
2	0x3f800000	1.0
3	0x3f800000	1.0
4	0x3f800000	1.0
5	0x3f800000	1.0
6	0x3f800000	1.0
7	0x3f800000	1.0
8	0x3f800000	1.0
9	0x3f800000	1.0
10	0x3f800000	1.0
11	0x3f800000	1.0

bias f4 [12]
0	0x00000000	0.0
1	0x00000000	0.0
2	0x00000000	0.0
3	0x00000000	0.0
4	0x00000000	0.0
5	0x00000000	0.0
6	0x00000000	0.0
7	0x00000000	0.0
8	0x00000000	0.0
9	0x00000000	0.0
10	0x00000000	0.0
11	0x00000000	0.0

running_mean f4 [12]
0	0x00000000	0.0
1	0x00000000	0.0
2	0x00000000	0.0
3	0x00000000	0.0
4	0x00000000	0.0
5	0x00000000	0.0
6	0x00000000	0.0
7	0x00000000	0.0
8	0x00000000	0.0
9	0x00000000	0.0
10	0x00000000	0.0
11	0x00000000	0.0

running_var f4 [12]
0	0x3f800000	1.0
1	0x3f800000	1.0
2	0x3f800000	1.0
3	0x3f800000	1.0
4	0x3f800000	1.0
5	0x3f800000	1.0
6	0x3f800000	1.0
7	0x3f800000	1.0
8	0x3f800000	1.0
9	0x3f800000	1.0
10	0x3f800000	1.0
11	0x3f800000	1.0

weight f4 [10, 12]
0	0xbababa72	-0.0014246239
1	0x3b226997	0.0024782175
2	0x3c8cb554	0.017176308
3	0x3bcb56e5	0.006205427
4	0xbb36b5f8	-0.0027879458
5	0x3be9380e	0.007117278
6	0xbc589102	-0.013218166
7	0xbccb448b	-0.024812957
8	0xbb37a2a2	-0.002802052
9	0x3b85d7d7	0.004084568
10	0x3b1198a7	0.0022216232
11	0xbbe8e623	-0.0071075126
12	0xbac3abc7	-0.0014928513
13	0xba958449	-0.0011407222
14	0x3aae6c69	0.0013307455
15	0xbbc41e8f	-0.005985088
16	0xbca6c37d	-0.020356888
17	0x3c83fec9	0.016112702
18	0xbc99c7e3	-0.018772071
19	0xbb8b1898	-0.004244875
20	0x3c39dca6	0.011344111
21	0x3c384eb3	0.011249232
22	0xbca588b0	-0.02020678
23	0x3c34d749	0.011037656
24	0x3c4d7961	0.012541146
25	0xbc063a1c	-0.008192565
26	0x3bbdc3dd	0.005791171
27	0xbbc4edf3	-0.006009811
28	0xbb958010	-0.0045623854
29	0xbbba25fb	-0.005680797
30	0x3b452164	0.0030079717
31	0x3c23a95e	0.009989111
32	0x3b444ab3	0.002995175
33	0x3c8ef6d7	0.017451687
34	0x3c84c55d	0.016207391
35	0xbb73b4b7	-0.0037186572
36	0xbc41b4c6	-0.011822885
37	0x3ca43ed3	0.020049488
38	0x3c1cdd34	0.009574223
39	0x3c7543d3	0.014969784
40	0xbaa49cb7	-0.0012558912
41	0xbb63ef25	-0.0034779992
42	0x3c664c4c	0.0140562765
43	0xbba2b774	-0.004965717
44	0xbbac16c5	-0.005251738
45	0xba9d730f	-0.001201244
46	0xbcef3daa	-0.029204208
47	0x3ae3de25	0.001738493
48	0x3c84a841	0.016193511
49	0xbc33ecd9	-0.010981762
50	0x3c248d04	0.010043386
51	0x3ce74a04	0.028233536
52	0xbbf0d778	-0.0073499046
53	0x3be1fddc	0.0068967175
54	0xbc6a06c3	-0.014283839
55	0xbbc96eb8	-0.006147232
56	0xbca39735	-0.019969562
57	0xbbc991a1	-0.0061513935
58	0x3c2d1fbe	0.01056665
59	0xbba977bc	-0.005171744
60	0x3bfed22c	0.0077765193
61	0x3b911336	0.004427339
62	0x3c91c6e6	0.017795037
63	0x3ba3a6e9	0.0049942625
64	0x3a822fc7	0.0009932452
65	0x3b939805	0.004504206
66	0xbb390337	-0.0028230676
67	0x3b12a74c	0.0022377549
68	0x3c1117d9	0.008855783
69	0xbbc1de14	-0.0059163664
70	0x3bb5ac04	0.0055441875
71	0x3c2870b0	0.010280773
72	0xbbde728c	-0.0067885574
73	0xbbe038f9	-0.006842729
74	0xbbaa1abe	-0.005191176
75	0xbc8b43cb	-0.0170001
76	0xbbead086	-0.007165971
77	0xbaf26a15	-0.001849475
78	0x3c3a2a05	0.011362557
79	0x3c56dff8	0.013114922
80	0x3b733183	0.0037108369
81	0x3abd5cad	0.0014447175
82	0xbbfa0373	-0.0076298057
83	0xba7698ef	-0.0009406944
84	0xbb9f6700	-0.0048645735
85	0x3b904120	0.0044022948
86	0x3c781c73	0.015143502
87	0xb9c9099b	-0.00038344864
88	0x3c7c5aaa	0.015402475
89	0x3baecf7b	0.005334792
90	0xbbe27e47	-0.006912026
91	0x3c816f1b	0.01580005
92	0x3ba83ed9	0.005134445
93	0x3b4bba9c	0.003108657
94	0x3b979c16	0.004626761
95	0xbbc0c142	-0.005882413
96	0xbc237f35	-0.009979059
97	0xbb8f7605	-0.0043780827
98	0x3bc023d7	0.0058636474
99	0x3c82c607	0.015963567
100	0x3c1ddc45	0.009635036
101	0x38f40327	0.00011635414
102	0x3c34387c	0.010999795
103	0xbbe4798a	-0.0069724964
104	0x3c22635f	0.009911387
105	0x3c6e73f8	0.014554016
106	0x3c07c968	0.008287765
107	0xbc3ebef2	-0.011642205
108	0x3cc3c7f7	0.023899062
109	0x3c2207c4	0.009889547
110	0xbcaa3446	-0.020776879
111	0x3abb4a97	0.0014289197
112	0xbccdca2c	-0.025120817
113	0xbc5bee3d	-0.0134235
114	0xbb9d54d7	-0.0048013735
115	0x3b878027	0.00413515
116	0x3c4aa133	0.012367534
117	0x3bda5200	0.006662607
118	0xbc6e7490	-0.014554158
119	0xb9ed864a	-0.00045304216

bias f4 [10]
0	0x00000000	0.0
1	0x00000000	0.0
2	0x00000000	0.0
3	0x00000000	0.0
4	0x00000000	0.0
5	0x00000000	0.0
6	0x00000000	0.0
7	0x00000000	0.0
8	0x00000000	0.0
9	0x00000000	0.0
