prerequisite_task/test5/trained.pth (torch, 32863 bytes, 47 tensors)

weight f4 [12, 3, 3, 3]
00000000: b9ca ca3d 4f42 eb3c 1300 f33d 7b2e 103c
00000010: bcbb 453d 8242 d6bc 7304 adbd 13a4 1fbe
00000020: caa2 11be c1b5 5f3d 1393 39bd a584 1b3e
00000030: f7db 6cbd dba4 23be 8a37 bbbd 6983 0ebe
00000040: 3fe6 7a3d 175d e7bd 642d c43d ca2b a73d
00000050: 1e25 ba3c 1100 7c3e 7c65 d43d 514d 943e
00000060: effc 04be fb91 bfbd 7d5e fabd 279d 58be
00000070: 4897 edbd d979 8c3e d9f0 263d 05a7 46bd
00000080: 7852 a4bd 8fb5 de3c e4e9 f7bd 7c8c 36be
00000090: 1abb 4f3e 36a6 2f3e ac72 9d3c f33a adbd
000000a0: 8fe7 d7bc 2762 dcbd 8522 0e3e eba6 90be
000000b0: d729 5fbd de20 263d d1ba 763d 4242 37be
000000c0: db98 133e 39bf f3bd 92c2 5bbe 37b5 b73c
000000d0: e7e2 453e 4eea d1bc 7f6e acbd 44f7 fd3c
000000e0: aecd 96be 9628 a6bd 1081 e7bd 1e38 b1bc
000000f0: 9e69 0f3e e299 9b3d 8b4f c53e bdb7 d23c
00000100: 16f7 803e ab03 2a3c 9d68 453d 5180 16be
00000110: d992 443e b1f5 0cbe 47e7 86be 7376 bbbd
00000120: 7bb5 4bbc a1ff 443e 1b0d 80bd dddc 173c
00000130: a2eb 4c3e 5615 4fbd 5c46 593d 729d 90be
00000140: 6796 07bd 4448 28be a8af 0b3e a362 7cbd
00000150: 5e46 293d 1a51 a43d 4bbb 83bd be1a 00be
00000160: 2304 d0bc ab7d 193d 5f69 ce3d 65d2 4e3e
00000170: 55f2 a33d 4b2f 663d 0e43 9b3e 452c 1c3d
00000180: 4be9 833d 3107 9b3d ab9c 2fbe d3fe 34be
00000190: de85 a1be 0cd7 39bd 41e9 01bd c6c2 09be
000001a0: 0313 423e 6a45 1b3e 32fb 65be 373c 083d
000001b0: 9d84 683e 7522 003e 34ab fd3d 91d7 04bd
000001c0: 3c7d 6a3e e3e6 80bd 9409 263e 66d9 08bd
000001d0: e95c 12bd f399 453e b3dd 213e 0c84 ce3d
000001e0: e673 19bd c51b cfbc 75b3 ecbd 6727 213e
000001f0: 68eb 83be ba52 aabe 68d1 e33c 2c61 cc3d
00000200: 0f23 08be 0097 cebd 0cee 89bc 30dc ccbd
00000210: 4153 82bd 100b f1bd ad91 623d d424 393e
00000220: 898e 093c f592 df3d ac80 f53d adea 723c
00000230: 02bf 673d 263d 8bbd 7240 fdbc 0c56 023d
00000240: 4632 c1bd bd13 253d bc9b 54be 859e 1ebd
00000250: 4dfd 7e3e cc07 36be 6526 88bd 4508 2ebe
00000260: d61d 783e 8d90 32be 12e0 b7be 004d 0d3e
00000270: 064b e2bd e74d 623c 2e2c 99bb 2c57 1c3e
00000280: 4efe 353e 2c07 49bd 50ed 95bd 703c 163e
00000290: 1ada 513e fd57 7a3e 082c 9e3d a778 20be
000002a0: a7cc 273e a996 c9bd 1bd7 0abe d240 84be
000002b0: ba50 b6bd 92cb 2dbd b5d4 07be ce0f 1abe
000002c0: 9e6d 47bd 1810 cf3d 4696 1fbd 4170 f1bc
000002d0: 52b7 d4bc fdd0 b43d d62a dbbd 5da9 063e
000002e0: d063 95bd 8776 343e ff69 843d 69f2 8dbc
000002f0: f91a efbc 518b 4e3e 21c4 91be f7dd 3a3d
00000300: 5075 88bb 8e14 a6bd 1463 12be d4be 59be
00000310: ed4f 543e 22d0 623e c428 04bd 654a 013d
00000320: 626b b4bd b348 2abb bfa8 573e 07fc 433d
00000330: c257 88bd 84ab 6fbc 7931 8bbe 7197 5cbd
00000340: 9849 9d3e af75 fa3d 5719 313e ac78 64be
00000350: a259 743e 8ad0 a43d 37ab 9dbc 5ffc a3bd
00000360: 970c b1be 9eb2 ec3d 6d19 78bd ee43 9a3b
00000370: 64e2 9b3e 48c5 11be 0f59 a73c 8af7 82bd
00000380: ccbb 60be c1c1 04be b4e5 08be 1a28 4c3c
00000390: 4123 c8bd c587 8fbd cd87 88be 3386 553d
000003a0: f11c b4bc ed44 84bc ac45 31bd 1a9d 6c3d
000003b0: bceb b33d 47bd 06be c00b e63c b093 05be
000003c0: 9018 353d acec 91be 2ec8 6dba a903 823d
000003d0: 18a0 903e 381b 953c 7ea7 973d d84d a7bd
000003e0: e961 793d 7391 92be f6ee af3c 08cc 08be
000003f0: c60a cd3d 96f2 94bb 5a44 523d cb96 f43d
0.099019475 0.028718142 0.118652485 0.008800144 0.04827474 -0.02615476 -0.08448114 -0.15589933
-0.14222255 0.054616693 -0.045306277 0.15187319 -0.057826962 -0.15980856 -0.091414526 -0.13917316
0.061254736 -0.11297052 0.0957897 0.08162649 0.022722777 0.246094 0.10370919 0.28965238
-0.12987112 -0.093540154 -0.122250535 -0.21153699 -0.1160112 0.27436712 0.040757034 -0.048499126
-0.08023542 0.027186183 -0.12105158 -0.17827028 0.20286217 0.17153248 0.019219719 -0.08458509
-0.026355533 -0.107609086 0.13880356 -0.28252348 -0.05448326 0.04055869 0.060236756 -0.17896369
0.14413778 -0.11901707 -0.21460941 0.022425277 0.19324838 -0.02562442 -0.08419513 0.031001695
-0.29453796 -0.0811321 -0.113039136 -0.021633204 0.14005134 0.0759771 0.3853725 0.025722379
0.25188512 0.010376851 0.04819547 -0.14697386 0.19196643 -0.13765599 -0.26348326 -0.09153452
-0.012433405 0.1923814 -0.062525 0.0092689665 0.20011762 -0.050557457 0.053045616 -0.2824512
-0.03310242 -0.16433817 0.13641226 -0.061617505 0.041326873 0.080232814 -0.06432208 -0.12510201
-0.025392598 0.037473362 0.10078692 0.20197447 0.080052055 0.056197446 0.30324596 0.038128156
0.064409815 0.07569731 -0.17149608 -0.17675333 -0.31547445 -0.0453711 -0.03171659 -0.13453206
0.18952565 0.15163198 -0.22459105 0.03326055 0.22706838 0.12513144 0.1238617 -0.032432143
0.22899336 -0.06294038 0.16214591 -0.033410452 -0.035733137 0.19297008 0.15807228 0.1008378
-0.037464045 -0.025281796 -0.11557666 0.15737687 -0.25765538 -0.3326624 0.027809814 0.099794716
-0.13294624 -0.10087395 -0.016837142 -0.10002935 -0.06363536 -0.11769688 0.05531471 0.18080455
0.008395799 0.10916702 0.11987433 0.014826459 0.056578644 -0.067987725 -0.030914519 0.031820342
-0.09433417 0.040302027 -0.20762533 -0.038725395 0.24901314 -0.17776412 -0.06647948 -0.16995342
0.24230132 -0.17437954 -0.3591314 0.13798904 -0.11049466 0.013812519 -0.004674456 0.15267628
0.17772791 -0.049079105 -0.073206544 0.14671493 0.20493355 0.24447627 0.07723242 -0.15671025
0.16386662 -0.09843189 -0.13558619 -0.25830704 -0.08902116 -0.042430468 -0.13264735 -0.15045092
-0.048688523 0.101104915 -0.03896167 -0.029472472 -0.02596632 0.08828924 -0.1070153 0.13150544
-0.07294428 0.1762334 0.0646553 -0.017327504 -0.029187666 0.20170332 -0.28469947 0.04562184
-0.0041643754 -0.08109389 -0.14295608 -0.21264201 0.20733614 0.22149709 -0.03226544 0.03156509
-0.08809544 -0.0025983274 0.21060465 0.047847774 -0.066573635 -0.014628295 -0.27186182 -0.053855363
0.3072021 0.122294776 0.17294823 -0.22311658 0.23862317 0.08047588 -0.01924668 -0.0800712
-0.34579918 0.11557506 -0.060571123 0.004707805 0.3044616 -0.14235413 0.020428209 -0.063948706
-0.21946639 -0.12964536 -0.13368875 0.012460733 -0.09772349 -0.07008318 -0.26666108 0.052129935
-0.021986457 -0.016146148 -0.043279335 0.05776701 0.08785197 -0.13158141 0.028081775 -0.1304462
0.044212878 -0.2850088 -0.00090706616 0.06348354 0.28247142 0.018201455 0.074049935 -0.081691444
0.06088439 -0.28626594 0.02147625 -0.13359082 0.100118205 -0.00454552 0.051334716 0.11942824

weight f4 [12]
00000000: 8994 8c3f bbbc 6e3f 5876 833f 8566 6e3f
00000010: 5b43 773f c4a6 873f 196a 703f d2bc 823f
00000020: 51a1 783f 5c48 733f d355 7e3f c801 7e3f
1.0982829 0.9325673 1.0270491 0.9312518 0.9658715 1.0597768 0.9391189 1.0213873
0.9712115 0.95032287 0.9934971 0.9922147

bias f4 [12]
00000000: 11d3 5e3e 23d4 27bd b97b 623b 3618 d93c
00000010: 1480 4a3d b8a2 d4bb e278 f63d ca54 793c
00000020: 3151 193d cb22 8ebd 8fdd 273c c3e0 b83e
0.21760203 -0.040973794 0.0034558608 0.026500802 0.04943855 -0.006489124 0.12034775 0.015217969
0.037430946 -0.0694023 0.010245695 0.3610898

running_mean f4 [12]
00000000: a760 3cbc 9dac 213e d8e8 403c 8a5b 39bd
00000010: 06f1 2dbd e48c fbbb 64fe 1b3d 3196 a3bd
00000020: e754 c73e 0daa f1bd 184e 4fbd 8527 d3bc
-0.011497653 0.15788503 0.011774264 -0.045253314 -0.042466186 -0.0076767076 0.038084403 -0.07987631
0.38931963 -0.11800013 -0.050611585 -0.02577568

running_var f4 [12]
00000000: 290c 1c3f c2a7 2f3f 907d a33d 783d 133e
00000010: e3b9 633f 208f 283e a56b 043e 373e 833e
00000020: 3e31 2e40 80fa 3c3f 4db8 893e df51 de3e
0.60956055 0.68615353 0.079829335 0.14378917 0.88955516 0.16460848 0.12931688 0.25633404
2.7217555 0.7381973 0.26898423 0.43421838

weight f4 [4, 4, 1, 1]
00000000: 8e4f 35bf a7a3 05bf 4a54 e3be d83b 95bf
00000010: 9959 44bd eaf2 893f da95 8c3f 443d 4b3f
00000020: a7e8 6c3f fba7 ccbf 6221 81bf 2800 89bf
00000030: 0bf8 ccbe 60fe fe3e f8bf 67bf c5c6 bfbe
-0.70824516 -0.5220284 -0.44400245 -1.1658888 -0.04793701 1.0777256 1.0983231 0.7939036
0.925425 -1.5988764 -1.0088313 -1.0703173 -0.40032992 0.49803448 -0.90527296 -0.37456337

weight f4 [4]
00000000: 77de 813f f8d8 803f 60b6 7c3f 0270 823f
1.0146016 1.0066214 0.9871578 1.0190432

bias f4 [4]
00000000: d285 253c b2ce 0cbd 0d15 8a3b 8ae8 d3b9
0.010102706 -0.034376808 0.004213935 -0.0004041831

running_mean f4 [4]
00000000: 9ea2 88bf 7572 883f e703 83bf 741c cfbe
-1.0674627 1.065993 -1.0235566 -0.40451396

running_var f4 [4]
00000000: f6a5 1e3f eca2 5f3f cb91 0440 0fd8 6e3e
0.61971986 0.87357974 2.0713985 0.23324607

weight f4 [4, 4, 3, 3]
00000000: 3f20 4cbe 55bf 49be ebe9 ae3c 49da 943b
00000010: a188 acbd ad56 06be 72bf 843e 3a81 4f3d
00000020: 8b7b d93e 8c52 a0be faae 4e3e dbcf 0c3e
00000030: 19bd 0f3e 63a9 6c3d 0a89 033e 2c71 30be
00000040: 3d6b fb3c 30b5 e6bc dd46 173d 3e95 8ebe
00000050: 043f 2f3f 8588 e8bc 5d85 5e3d 8fe5 95be
00000060: ac3e 253f e707 d5bc 8269 b63e 4d1e 7cbe
00000070: e558 363d 17f6 46be 40ad 7fbe fd6e e3bb
00000080: 5575 b4be 6800 14be b83c e23e 84b9 683e
00000090: 9ab2 2abd df5b 11be d68b 1d3e ea7c 3f3e
000000a0: 5ba6 a6be 8493 27bb 8203 26bc 8532 b9bd
000000b0: 4591 003e 237c 143e caf8 86bd 0577 843c
000000c0: 2fc0 c3bd db66 9fbe fb90 e0bd 4b35 4dbe
000000d0: bd83 a3bd e746 333f 37e3 4dbe 38bc ed3e
000000e0: 709b 4a3e e11e 843b 07bf 023e a4e6 9bbe
000000f0: 4fb6 d2bc 948a edbe 39e9 9e3d 022a eb3c
00000100: e4f5 2f3e f323 7bbe 419a b43e 4404 16be
00000110: 0948 d03d fc63 a7bd 6b36 853d 3376 1c3e
00000120: fca1 01be f86a bc3e 58bb b73d cb80 df3c
00000130: 19a0 f2bd 43d1 5c3b 56ec 463e a03a f83e
00000140: dfff b3bd 610c 4fbe 392d fc3d d666 2ebe
00000150: d362 403e 8e7e 493e 77d6 8e3d bb1a 783e
00000160: 3d32 8ebe 4544 1e3e 77a0 83bc f057 c63d
00000170: 7dad 02bf 4011 1ebf 0acd b2be 64b7 fabe
00000180: 9b6a f3bb 5e78 1ebe ca07 ef3b 46f7 053d
00000190: a251 0bbf a086 20be 9c81 b53d 0b8f 0ebd
000001a0: 8d4e f0be 70d9 dc3c 40c7 8e3e 78ad e33d
000001b0: bcd7 ec3d c963 80b9 831b 8b3d f5ce d8bd
000001c0: 3b15 15be 3614 3e3e 84e5 0f3d 2f88 d53c
000001d0: b7bf 663e abea 88be 8bfc 1dbf 9780 b23d
000001e0: 9d17 86be 63f1 64be cbb8 a2be b5a3 c73d
000001f0: 48ab 81be f989 db3b 775e 693e dfcd c13c
00000200: f5bd cdbe 2b15 f53c d0d2 1bbd 9ee6 15bf
00000210: b27f 22bd db9b 013d 7a07 d03b c9d5 3e3e
00000220: d299 54be a569 253e 41af 9ebc 8cef eb3d
00000230: c52b ba3d ba71 26bf 21fd 83bd d5e7 25be
-0.19934176 -0.19701894 0.021351775 0.004542623 -0.084244974 -0.13119002 0.2592731 0.05066035
0.42477068 -0.31312978 0.20183936 0.13751166 0.14036979 0.057778727 0.12845245 -0.17230672
0.030690784 -0.028162569 0.036932815 -0.27848238 0.6845553 -0.02838541 0.054326404 -0.29276702
0.64548755 -0.026004745 0.3562737 -0.24620934 0.04451837 -0.19429813 -0.24968433 -0.006940721
-0.35245767 -0.1445328 0.4418695 0.22727019 -0.041674234 -0.14195202 0.15385374 0.18699995
-0.32548794 -0.0025570104 -0.010132672 -0.09042839 0.12555416 0.1450048 -0.065904215 0.016170034
-0.095581405 -0.3113316 -0.10965153 -0.20039861 -0.079841115 0.70030063 -0.20106207 0.46432662
0.19785857 0.0040320014 0.12768184 -0.30449402 -0.025721697 -0.4639479 0.077593274 0.028706554
0.17183644 -0.24525432 0.35273936 -0.14650065 0.101699896 -0.081733674 0.0650452 0.15279464
-0.12659448 0.3680036 0.0897128 0.027283093 -0.118469425 0.0033694066 0.19426093 0.48482227
-0.08789038 -0.20219566 0.12313313 -0.17031416 0.18787698 0.19677183 0.069745 0.24228947
-0.27772704 0.1545573 -0.016067727 0.096847415 -0.5104597 -0.6174507 -0.34922057 -0.4896804
-0.00742848 -0.15475604 0.0072946297 0.03270652 -0.54421437 -0.15676355 0.08862612 -0.034804385
-0.4693493 0.026959151 0.2788639 0.11117071 0.115645856 -0.00024488408 0.06792357 -0.10586349
-0.1455888 0.18562397 0.035130993 0.026065914 0.22534071 -0.26741537 -0.61713475 0.08715933
-0.2618989 -0.22357707 -0.3178161 0.097480215 -0.2532599 0.006699797 0.22789942 0.023657737
-0.40183988 0.02991732 -0.038042843 -0.5855502 -0.03967256 0.031642776 0.0063485475 0.1863624
-0.20761803 0.16153581 -0.019370677 0.11520299 0.090903796 -0.6501728 -0.06444765 -0.16201718

weight f4 [4]
00000000: 402a 823f 3a59 823f 46fc 883f abaa a23f
1.0169144 1.018348 1.0701988 1.2708334

bias f4 [4]
00000000: 35bc 44bc 7363 6b3c fa93 c83d 8fa4 5f3e
-0.012007763 0.014366972 0.09793849 0.21840118

running_mean f4 [4]
00000000: 20cc b93e 49ed e63c 6fdd 12bf 9fef 8ebf
0.36288548 0.028189318 -0.5736913 -1.1166877

running_var f4 [4]
00000000: 5961 0b3f 5c9d 853e fb7e 953f 28fa c43f
0.54445416 0.26096618 1.1679376 1.5388842

weight f4 [4, 4, 3, 3]
00000000: b51f cabc d19e 1fbd 84d4 473e c231 08bd
00000010: 7ace 4c3d ef5d e0be 2af7 7e3d a03d 76be
00000020: 3b54 66bd cc17 0cbe 6945 9abd 1f39 c13e
00000030: 5b39 be3d ed02 193e 44a8 973d 133c c7bd
00000040: 7bc3 1bbe cef2 9ebe 5163 62be 3f64 afbe
00000050: 4d12 703d a14a 853e bbb7 f5bc 671c 86be
00000060: f10d 893d 7aa6 7dbe 4d55 593d 0e1e acbe
00000070: 7091 533e 1b40 80bd dac5 d5be 84e4 60be
00000080: aeb4 783d 243c c0bd 2416 72be bc25 08be
00000090: 3b74 37be b702 3b3e 55db 1c3e db4b 24be
000000a0: cb57 803e cae9 593e 422b d7be c745 66be
000000b0: 70fa 213e e28b 9abd a4bc a13c e051 493d
000000c0: 8145 223f 748a 093f 1a10 67be 1add 8dbe
000000d0: 6328 c83e 94e5 0bbe 79bf 9cbe 1518 68bd
000000e0: 4838 e0bc a9cf 983e d947 6a3d b2d5 89bd
000000f0: 7340 f9bd dc1a fc3d 5bfd af3e e0e6 08bd
00000100: a577 d03e 1de5 60be 59b2 703d 5877 08be
00000110: 3efd acbd d1ac 6abd 53b3 7abe 555d 1c3e
00000120: 714e 3f3e f8e7 8a3e 305d 63bd 692a bb3d
00000130: 99c9 6fbd 4e50 5a3e ec68 d0bd 29e3 b7be
00000140: 1085 183f 13dc 5f3e 9cd4 683e d09b 343c
00000150: 302c af3e 629f 893d a7fc 81be 4cc6 02be
00000160: 5e50 213e 027c 68be 6713 82bd 8293 4c3e
00000170: 3739 15be 63fa 20ba 911f 88bd 473e a9bd
00000180: 41ed 433d 823e 16bd 1b3b 7ebd 61a6 9ebd
00000190: 5dd1 a13e b338 6dbe e104 073e 2762 ec3d
000001a0: cb22 483e 323d 983e 4f9d bdbd 47ed 65be
000001b0: 170d 183d 42e8 26bd 6808 b5bd 309b 87bd
000001c0: 0b63 64be 4eee 53bd 09f3 593d 4e17 333e
000001d0: 0c72 823d 0ad9 a53e 16ce 813e a1c9 68be
000001e0: 4c9a a83e c65d 3f3d ac07 cc3e d0fb 683d
000001f0: a7b1 993e 830d b4be 6103 433e c897 90be
00000200: 5a78 3bbe d68a 403e 43be a7be 7c90 1bbe
00000210: 5c37 fb3d 1e69 e1bd 94e5 9fbe 540e fdbd
00000220: a8e5 523e 53fa b23e 080f cabd 4650 62bb
00000230: 23d4 9bbe d675 c83d f4f9 343d 315b 1abe
-0.024673322 -0.03896982 0.19514662 -0.033250578 0.0500016 -0.43821666 0.062247433 -0.24046946
-0.056232672 -0.13680953 -0.0753277 0.37738892 0.092882834 0.14942522 0.07405141 -0.09728255
-0.15211289 -0.3104462 -0.22108199 -0.3425617 0.058611203 0.260335 -0.029994836 -0.26193544
0.06692112 -0.24770537 0.053059865 -0.3361668 0.20660949 -0.06262227 -0.4175251 -0.21962172
0.060719185 -0.09386471 -0.23641258 -0.13295645 -0.17915432 0.18262754 0.15318044 -0.16044562
0.2506698 0.2128059 -0.4202519 -0.22487555 0.1581819 -0.07546212 0.019743271 0.049150348
0.63387305 0.5372689 -0.22564736 -0.2770775 0.39093313 -0.13661796 -0.30614832 -0.05666359
-0.027370587 0.29845932 0.057197426 -0.06730212 -0.12170496 0.123098105 0.34372982 -0.033423305
0.40716282 -0.219624 0.058763836 -0.13326776 -0.084467396 -0.057293717 -0.2448247 0.15269978
0.18682267 0.27130103 -0.055508792 0.091389485 -0.058541868 0.21319696 -0.10176262 -0.35915497
0.5957804 0.21861295 0.22737354 0.011023477 0.342134 0.06719853 -0.2538807 -0.12770957
0.15753314 -0.22703555 -0.06351357 0.19978145 -0.14572607 -0.0006140826 -0.06646646 -0.082638316
0.047833685 -0.036680706 -0.062068086 -0.07746578 0.31605044 -0.2316616 0.13185455 0.115421586
0.19544522 0.29734188 -0.0925852 -0.22453795 0.03712186 -0.040748842 -0.08839494 -0.066213965
-0.22303407 -0.051740937 0.053210292 0.17489359 0.06369409 0.3239215 0.25352544 -0.22733165
0.3293022 0.04672029 0.39849603 0.056880772 0.3001835 -0.3516656 0.19044258 -0.282408
-0.18307629 0.18802962 -0.32762346 -0.15191835 0.12266418 -0.11006378 -0.31229842 -0.123562485
0.2059542 0.34956607 -0.09866148 -0.003453271 -0.30435285 0.097881004 0.044183686 -0.1507385

weight f4 [4]
00000000: 7b5f 9f3f 5367 8b3f 83e0 8a3f 8a40 8d3f
1.2451013 1.0890907 1.0849766 1.1035321

bias f4 [4]
00000000: 71f9 943e 6861 1e3d cbdf c33d 24a6 ac3d
0.2909656 0.038667113 0.095641695 0.08430126

running_mean f4 [4]
00000000: e915 9dbf 7b90 a83e 6a39 183f 3ea1 68bd
-1.2272311 0.3292273 0.59462607 -0.056794398

running_var f4 [4]
00000000: 603e 303f c8ce 283f 5f16 f63e eb82 013f
0.68845177 0.65940523 0.48063943 0.5059039

weight f4 [4, 4, 3, 3]
00000000: 5fdf 40bd 0690 40bd 7b5b 08bd 76cd 783e
00000010: 3d67 19bd a2c7 7bbc 50c9 93be 1cf4 64be
00000020: ebd9 da3d eff4 263d b9a7 a33e eb3a 08be
00000030: f32d 993b 6771 17bd a453 9b3e 92f8 e23e
00000040: 7ddd f9bd a895 273c d65e 9f3e ec22 cdbe
00000050: 651c 643e eaae d63d dd2d a23e acf7 b73e
00000060: 946a 8b3e c164 1b3e cb90 cabd 8ded a1bc
00000070: 66ff 8b3e 36c8 fc3e 891d 9abe f25f d4bb
00000080: 1633 16be 8d7e b5be 7d5d 123f f057 083e
00000090: 7215 1d3f a537 033d 3524 7ebe cff1 a0be
000000a0: 8a41 2d3e 4404 ecbc 3a82 833e 3e01 853d
000000b0: 3eef 983e 7ec7 3f3e f447 49be c714 5fbe
000000c0: d9f7 863e 3d0f 2a3e 0edb 413e 45eb 67bd
000000d0: 3d76 e3bd 851b 90be 9d1a f3be 9500 4c3c
000000e0: d0c8 00be 6e08 b5bd 1f88 5b3e 5297 1d3e
000000f0: 571f 19be a4bd 623e 1e1c b53d fd1e a13d
00000100: 2243 813e 5c15 2e3f 9ea5 63be 7bb4 51be
00000110: 36e4 1d3e 7dab 233e 87df b7bd 7260 8c3d
00000120: 0ff8 043e fd9e a4bd f5e9 ce3e 2281 1b3e
00000130: b715 98be 9b88 8b3e 7247 81be 52f0 8b3e
00000140: bd25 c6bc 54de eb3e 24ca 1d3e 3fad 193e
00000150: e3b2 313e 4978 32be ce61 573e 244c 97be
00000160: 5619 a83e cb01 2abc e314 a33e b21a 803e
00000170: 6f8a cd3d 2018 2f3e eebf e33e 35b5 c43e
00000180: b029 35be 0128 1e3e 174f 1dbd ca8b 77be
00000190: b195 523d 1c56 1f3e 572b 9c3d bd66 003e
000001a0: 194c bcbd 9419 d43e 8766 d03d 2e4b a03e
000001b0: 637e a83e fd3f 3dbe 64ee 573c 4179 613d
000001c0: ca18 c3bd 78dc 28bd 25af d8bd 7fb5 a0be
000001d0: 41e7 adbe 22da 8abe 8c92 8abe 2550 8bbe
000001e0: c4fb a83e d3a0 9a39 bf7e 813c 9b5c b0bc
000001f0: ae0c 7c3e 9275 d3bd 8e93 c63d 8b59 ae3c
00000200: a867 b53d 8a1a 423c a6ba 76bd f45a af3e
00000210: f9d4 a5bc 2398 2cbe 8f88 04be 3f0e d2be
00000220: 9242 fabc 0eec d03d b57f 4b3e 313f 483e
00000230: d47c 14be dfc2 24be 7d00 193e 63b7 abbe
-0.047088023 -0.04701235 -0.033290368 0.24297127 -0.03745197 -0.01536742 -0.28864527 -0.22358745
0.10686096 0.04076093 0.319639 -0.13303725 0.004674667 -0.036973383 0.3033725 0.4433027
-0.12200449 0.010228552 0.31127042 -0.40065706 0.22276457 0.10482581 0.31675616 0.35931146
0.2722975 0.15175153 -0.09890898 -0.019766593 0.2734329 0.493715 -0.3010066 -0.006481164
-0.14667925 -0.35448113 0.571739 0.13314795 0.6136085 0.03203549 -0.248185 -0.31434485
0.16919532 -0.028810628 0.25685292 0.064943776 0.29870027 0.18728444 -0.19656354 -0.2178527
0.26360968 0.16607375 0.18931219 -0.056620855 -0.111065365 -0.28145996 -0.47481242 0.012451311
-0.12576604 -0.088394985 0.21438645 0.15389755 -0.14953361 0.22142655 0.088432536 0.07867239
0.2524653 0.6800134 -0.22231147 -0.20479004 0.15419087 0.15983386 -0.08978181 0.06854333
0.12985252 -0.08038137 0.4041287 0.15185979 -0.29704067 0.2725266 -0.2524982 0.27331787
-0.024187917 0.4606806 0.15409142 0.15007494 0.17353396 -0.17428698 0.21033403 -0.29550278
0.3283183 -0.010376404 0.31851873 0.25020367 0.1003617 0.17099047 0.44482368 0.384195
-0.17691684 0.15444948 -0.038405504 -0.24174419 0.051412288 0.15560192 0.07625454 0.12539192
-0.09194202 0.41425765 0.101758055 0.31307358 0.32908925 -0.18481441 0.013179395 0.055047277
-0.095262125 -0.04122588 -0.10580281 -0.3138847 -0.33965495 -0.27119547 -0.2706493 -0.27209583
0.33004582 0.00029492992 0.015807508 -0.021528533 0.24614212 -0.10325159 0.096961126 0.021282932
0.088576615 0.011847148 -0.060236596 0.3424908 -0.020243155 -0.1685491 -0.12942718 -0.41026494
-0.030549321 0.10201274 0.19872935 0.19555356 -0.14500743 -0.16089962 0.14941593 -0.3353835

weight f4 [4]
00000000: 8f27 8c3f f74c 8d3f 1243 b93f bd9e 853f
1.0949572 1.1039113 1.4473593 1.0439068

bias f4 [4]
00000000: d8e2 983d 268c d93d f837 a03e 2fe3 863d
0.07465142 0.10622434 0.312927 0.065863006

running_mean f4 [4]
00000000: 12c0 3040 8a21 ed3f 64ff 9740 e272 b6bf
2.761723 1.852586 4.7499256 -1.425381

running_var f4 [4]
00000000: fa2c 1e40 1a73 1640 7d34 aa40 1a2c fb3f
2.4714952 2.3507752 5.3189073 1.9622834

weight f4 [4, 12, 1, 1]
00000000: d1b1 babf 8bb6 e0bb 4bd0 613f b6b6 8e3e
00000010: e922 afbe a340 21bf 897d 11be 308b 03bf
00000020: 3cf6 e0be 568e 78be 69fc 27bf a519 85be
00000030: f1fb 883f e281 47bf e90d 59bf 7e77 b43f
00000040: 9d3d 4cbe 4999 ff3e a32b 453f cdeb afbf
00000050: 85a3 bf3e bc71 9dbf 3c57 973d 544f 2c3e
00000060: 3552 92bf 8885 95be 4e91 fbbe 402c 61bd
00000070: ad25 b9bf 570c c63e e5e9 8a3e 7a50 6f3f
00000080: 4818 38bf 32ea 8b3f c2e0 93be 1bc1 aebe
00000090: 4712 c43d b5e9 08bf 7c78 74be facb b4bf
000000a0: e047 3e3f e7f9 5dbf d4f7 553f 3205 c3bf
000000b0: e943 9dbe 02da dc3e 2819 893e 3e30 d13f
-1.4585515 -0.0068576983 0.88208455 0.27873772 -0.34206322 -0.6298925 -0.14208044 -0.5138426
-0.43937862 -0.24273047 -0.6561952 -0.25996128 1.0701886 -0.7793256 -0.8478685 1.4098966
-0.19945379 0.49921635 0.7701971 -1.3743836 0.37429443 -1.2300334 0.073896855 0.16827136
-1.1431338 -0.2920344 -0.49134296 -0.05497384 -1.4464623 0.3868129 0.27131572 0.9348217
-0.7191205 1.0930846 -0.28882414 -0.34131703 0.095737986 -0.5348161 -0.23874086 -1.4124749
0.7432842 -0.86709446 0.8358128 -1.523596 -0.30715874 0.43135077 0.26777005 1.6342847

weight f4 [4]
00000000: e620 813f eb53 853f a400 6e3f 15fe 813f
1.0088165 1.0416235 0.9296973 1.0155665

bias f4 [4]
00000000: b24c d03c 2526 1ebc 8d15 cbbc 2eda 853c
0.025427196 -0.009652649 -0.02479055 0.016339388

running_mean f4 [4]
00000000: 9865 cbbf f89d 403e 4bac 7ebf f24b 13bd
-1.5890379 0.1881026 -0.9948165 -0.0359611

running_var f4 [4]
00000000: 9c00 0440 5f0e 4840 227d 1e40 1593 0840
2.0625372 3.1258771 2.4763875 2.1339772

weight f4 [4, 12, 1, 1]
00000000: 288b 97be bffe 053f 3655 fbbe 037a 52be
00000010: 9f30 f1be 52bb 43bf f47e bb3c 210b 37bf
00000020: c099 b5be d256 42bf 3b4d b2be 652e 92bf
00000030: fd46 d4bd 889f 513e 79ac fe3e 2add 683f
00000040: f1d2 12be afd2 15bf c17e 053f 3b08 1dbe
00000050: 54a1 a9be fa56 5dbf 4ed9 c1be 10c9 d63e
00000060: 02e8 76be 7569 99be a24b 813f 22d0 25bf
00000070: fa97 373f 039c 10bf 948d c73f f398 38bf
00000080: 2f1b babd 2c1e a7bf 433d f7bd 11d5 85be
00000090: e859 25bf 9d57 e6be d73a 7e3f e282 d23a
000000a0: b52b b5bf 3433 4cbf a36b 803f e048 85bf
000000b0: f376 4f3f 1f78 3c3d f321 b73d 180c 523f
-0.29598355 0.52341837 -0.49088448 -0.20554356 -0.47107407 -0.76457703 0.022887684 -0.71501356
-0.35468864 -0.7591373 -0.34824547 -1.1420408 -0.103651024 0.20471013 0.4974096 0.9096247
-0.1433828 -0.585246 0.52146536 -0.15335171 -0.33130896 -0.8646084 -0.37861103 0.41950274
-0.24111941 -0.2996327 1.0101206 -0.6477071 0.7171627 -0.56488055 1.5590081 -0.7210838
-0.09087216 -1.3056083 -0.120722316 -0.2613912 -0.6459031 -0.4498872 0.9930853 0.0016060735
-1.4153963 -0.7976563 1.0032848 -1.0412865 0.8104088 0.046012994 0.08942022 0.82049704

weight f4 [4]
00000000: c897 813f 6998 7f3f e2aa 7c3f 71f6 7b3f
1.0124445 0.99841934 0.98698246 0.98422915

bias f4 [4]
00000000: 2316 a53b 2922 363e f726 453d ca56 193d
0.0050380393 0.17786469 0.048132863 0.037436284

running_mean f4 [4]
00000000: 94e0 07c0 9348 b03d cf35 b3be f944 30be
-2.1230822 0.086075924 -0.3500199 -0.17213811

running_var f4 [4]
00000000: 4c36 3740 95fe 443f 711f 4a40 f876 3c40
2.862689 0.7695096 3.158169 2.9447613

weight f4 [4, 12, 1, 1]
00000000: a000 9b3f 2865 7ebe fffd dc3e 2cf3 c03d
00000010: f2a4 eabe 74e3 b23f 6b0f 4f3f 3dfc 153f
00000020: c7b0 df3d f515 e0bd 8d87 053e 8a87 ff3e
00000030: 26df f83e 3f59 91bf 2127 6d3f 4ee8 273f
00000040: fdf4 a13e d05b 863e 9894 273f 9a6b 4d3f
00000050: 59d7 b43e 0b38 27bd e0ea 8ebe 848a 8bbd
00000060: 2629 1e3f c3f7 dfbc c424 fc3e 0e90 48bf
00000070: 2f69 f73e c347 a73e 003d 4dbf 8c6f 14bf
00000080: 2e92 68be abd8 de3e dbd4 9abe bd09 3cbf
00000090: 1431 aa3f a099 7c3f 9ad0 17bf 9d13 72bf
000000a0: bb8c 24bf e7b8 21bf 8749 c4bf 32df 02bf
000000b0: cee6 53bf 4cf3 7c3f 65cb ef3e e88c bbbe
1.2109566 -0.24843276 0.43162534 0.09421381 -0.45828968 1.3975663 0.808829 0.5858801
0.109223895 -0.10941688 0.1303999 0.49908096 0.4860775 -1.1355361 0.9263783 0.65588844
0.31632224 0.26241922 0.6546111 0.8024231 0.35320547 -0.04082493 -0.2791357 -0.06813529
0.6178154 -0.027339822 0.492468 -0.7834481 0.48322436 0.32671937 -0.80171204 -0.5798271
-0.22712013 0.4352468 -0.3024052 -0.7345236 1.3296227 0.98671913 -0.59302676 -0.9456118
-0.6427724 -0.63172764 -1.5334939 -0.5112182 -0.82774055 0.9880874 0.46834865 -0.3663094

weight f4 [4]
00000000: 9bd6 7a3f b1d9 783f 1f0f 843f bf74 843f
0.9798371 0.9720717 1.0317115 1.0348128

bias f4 [4]
00000000: d219 173c f076 943a f170 183d 4521 163d
0.009222465 0.001132695 0.037217084 0.036652822

running_mean f4 [4]
00000000: 9c08 fc3f a82d 9d3f 5d86 0abf 6ce4 75bf
1.9690127 1.2279558 -0.5411127 -0.9605167

running_var f4 [4]
00000000: eda9 e03f 93ad a33f 9cbe 9e3f 0ff9 6940
1.7551857 1.2787346 1.2401919 3.6558263

weight f4 [12, 12, 1, 1]
00000000: 9205 363f a2c6 e9bd 2b35 e43e e91d d63e
00000010: 39a5 81bc 74e6 8d3d 34de 553f c7f7 65bf
00000020: f6f8 5d3f 1d1f 31bd 28fe 513f e62f dbbe
00000030: 3e2f debe a65e 62be 842a ae3d 019c 6ebf
00000040: 5139 06be 39a8 6ebd 60c5 aabd 211a b2be
00000050: 4896 2bbe 59fb d53e 30f2 43bd 4a26 1b3f
00000060: 765b c7be 8130 4c3e 17fa b9be 975c bf3e
00000070: b202 2d3f db9f bdbe 5197 51bf 4df2 2c3e
00000080: 1458 c8bc e793 18bf 2f0e 7abd 4296 003f
00000090: 8603 123f a328 3bbd 71cd 253c 5ad7 ad3e
000000a0: 65ed 08bf 686b 41be 8ed6 a93e 876b 0e3f
000000b0: c14f 5abf b9ff b0be c1bf 3ebf 0940 8b3d
000000c0: 25ec 95bf 47d0 01be 930a c2bc 231f d9bd
000000d0: f53e 4d3e 01dd 99be 779d 833e 45b8 2a3e
000000e0: 0cbd 24bf d9b9 9ebb 136d 703e 5229 df3e
000000f0: 6d33 d53e a568 7b3e 8465 f93c 9e0b e13e
00000100: 2812 b83e a02e 193e 1167 453f 34a4 043f
00000110: d221 363e 4c87 4ebe 1fb5 0ebf 6126 b33e
00000120: 7048 27bf 8bce 83be 9bf4 47be aef9 b3be
00000130: b270 1e3f 5040 0abe d25b 163f 2648 393e
00000140: 3e2a f13c 70de 313c a44a 32bd c7c0 c3bb
00000150: 9ab7 ec3e d813 f83e 2827 e6bd 29a9 ae3d
00000160: 70f2 2e3e 2c41 0d3e 92b0 14bf 484d 19be
00000170: f8d8 93be 3e6a 10bf 806f c73e 4219 153f
00000180: f4eb 26be fd80 9abe 0daa 403f f530 15bf
00000190: 3bcb 3d3f fe5d b9be 918f 803e 87ed bb3e
000001a0: a7fc 9d3e 46c1 e4bd a9c6 103f a933 ecbd
000001b0: 7086 a63e 5b54 f1bc 1036 943d 7691 a53e
000001c0: 08bd 1cbd 02a0 67bd bd50 96bd 20a3 2c3f
000001d0: 5690 c33e 2847 803e be7f 543f 1d2e 43be
000001e0: 31bf 9c3f 3b3b c13e 9377 0e3e 084b 79b9
000001f0: 4f75 04bf 3694 63bf 4d53 04bf 3e78 03bd
00000200: ec10 37bd cf60 febe f08e 5f3f f763 8b3d
00000210: 9518 7dbd 4b91 a33c 176a ffbe a97a 0bbf
00000220: ed4b 1abf d644 363f 26e1 06bf 1f03 e1be
00000230: 9670 da3d 223a cdbe 0e4b 49be 5e5f efbd
0.7110225 -0.11414839 0.44571814 0.41819695 -0.015825855 0.06928721 0.8354218 -0.89831203
0.8670801 -0.043242563 0.82028437 -0.4280998 -0.43395418 -0.22106418 0.08504203 -0.93206793
-0.13107802 -0.0582659 -0.083384275 -0.3478556 -0.16756546 0.41793326 -0.04783839 0.606053
-0.38936967 0.19940378 -0.36323616 0.37375328 0.6758224 -0.37036023 -0.81871516 0.16889305
-0.024456061 -0.5960068 -0.061048683 0.50229275 0.57036626 -0.04569305 0.010119782 0.33953363
-0.53487235 -0.18888628 0.33171505 0.55632824 -0.85277945 -0.345701 -0.74511343 0.06799323
-1.171269 -0.12677108 -0.023686683 -0.10601642 0.20043547 -0.30051425 0.25706074 0.16671856
-0.6435096 -0.004843932 0.23479109 0.43586212 0.41640797 0.24551637 0.030443914 0.43954176
0.35951352 0.14959192 0.7711039 0.51813054 0.17786339 -0.20168799 -0.5574512 0.34990218
-0.65344906 -0.25743517 -0.19526903 -0.35151428 0.6189071 -0.13501096 0.58733857 0.18093929
0.029439088 0.010856256 -0.043528214 -0.0059739086 0.46233827 0.4845264 -0.11237937 0.085283585
0.1708467 0.13794392 -0.58081925 -0.14970887 -0.28876472 -0.5641211 0.38952255 0.58241665
-0.16300946 -0.30176535 0.75259477 -0.5827783 0.7413823 -0.36204523 0.25109532 0.36704656
0.3085682 -0.111696765 0.5655313 -0.11533291 0.32524443 -0.02945917 0.07236874 0.3233754
-0.03826621 -0.05654908 -0.07339618 0.6743641 0.38196057 0.25054288 0.8300742 -0.1906056
1.2245847 0.37740502 0.13912801 -0.00023774442 -0.517415 -0.88898027 -0.51689607 -0.032097094
-0.044693872 -0.49683234 0.8732748 0.06806176 -0.06179102 0.019966742 -0.49885628 -0.5448404
-0.60272104 0.71198785 -0.526873 -0.43947694 0.10666005 -0.40083414 -0.19657537 -0.11688112

weight f4 [12]
00000000: c9f2 933f b029 933f 5e5a a83f 3680 9b3f
00000010: 8d19 a43f daa3 873f ee87 913f 5a77 833f
00000020: c81e 8a3f 4d7d 8f3f 2cd9 ac3f e46a 853f
1.1558467 1.1497097 1.3152578 1.2148502 1.2820297 1.0596879 1.1369607 1.0270798
1.0790644 1.1210114 1.3503776 1.0423245

bias f4 [12]
00000000: 2a20 073e 33ac 143e 8fe2 713e bed8 e23d
00000010: 2bf4 c23e 6ac8 033d 2f44 3b3e 90ca cb3c
00000020: 68d6 a13c 0162 a83d dd0d 783e b54f 853d
0.13195863 0.14518814 0.23621581 0.110764965 0.3807691 0.03217355 0.18287729 0.024876863
0.019755557 0.08221818 0.24224038 0.065093435

running_mean f4 [12]
00000000: 4c81 733f fabb e5be a0ca 46be 7e96 35be
00000010: 5bcb f4be bffe 9c3f a82c c8bd 59bf b83e
00000020: e834 f43e db44 653f 8b9b 1a3e 067b 75bf
0.95119166 -0.44869977 -0.19413233 -0.1773319 -0.47811398 1.2265242 -0.097741425 0.36083487
0.47696614 0.8955819 0.15098397 -0.95890844

running_var f4 [12]
00000000: 918b c93f f0cf d43e e253 203f 7592 103f
00000010: 7bd7 313f 6248 073f dce6 bc3e e2fd dc3e
00000020: a654 3f3f 7f7d 6f3f a887 bc3f 2a8d 8d3f
1.5745717 0.41564894 0.62627995 0.56473476 0.6946942 0.5284482 0.36894882 0.43162447
0.7473854 0.93550867 1.4728899 1.1058705

weight f4 [10, 12]
00000000: 6039 5bbe 8bd9 a2be 52c1 fa3c a99b fc3e
00000010: d87a babe 7d20 17be 9545 abbe c3d5 d0bd
00000020: a494 cc3d 80a2 9b3e be15 1a3f 56f5 b3be
00000030: 33c6 ed3e 12ba 2cbe c2a4 babe 2c6f 4ebe
00000040: f56f ecbe 16e3 7e3e 9bfa 233d 7e24 f33c
00000050: 3366 473e 882e db3d 6075 0f3f 87f1 2e3d
00000060: 30a6 9ebe b0f6 a33c 6b53 0e3f e901 403e
00000070: fa0c 763e 045c 24be 3096 81be 9cac 493d
00000080: 057a 89be 8f8d 02be 3859 adbd 763c 073d
00000090: 5548 ac3d ad65 173e a9fa 6dbe fcff 7fbd
000000a0: cabe 623e 2bc9 9d3c e4ec 993e e5e1 67bd
000000b0: 59f4 0cbd 2c22 973c 4676 c5be 2d0c d73d
000000c0: bad7 71be 21bd 1a3e c66a 043f 8ef5 cbbb
000000d0: 6c5e c13e 5904 bbbd 384f dbbd 4ed9 593c
000000e0: 31d3 9cbe 0cf0 bcbe 8837 dfbe 11a8 4c3e
000000f0: 3a12 6d3d 8852 d43d 3282 11bd 87ce 69bd
00000100: 493d 783e b05f 383d 170b b33e 288a b8bd
00000110: dcb1 f23b 4b9c 1dbc f5af e7be 1b9a a73c
00000120: 3dc3 03be fc1c da3e 1e2a 59bc da23 e9be
00000130: aa87 e23e 813b 5a3e a5a7 e93d ca7e a93e
00000140: e4b8 35be 1dcb bdbe e22e 0ebf a278 823d
00000150: f5e5 bd3a 4d28 2a3e c3e8 ed3c f439 71be
00000160: 98aa 833e a10d ce3d 9016 cc3d 06cd 0d3e
00000170: 8c30 3a3c 57ab 683d 0223 81be 292b 80bd
00000180: 6f84 0bbd f4b7 d4be 6c4f 17bd 1a68 0d3f
00000190: b4c8 17bf a434 b2be b5ac 98be 3740 b8be
000001a0: 54ae 5d3e a5a9 263e 672c 0a3f 284e 66bc
000001b0: 0197 ad3e 03bd d2bd 2f73 c9be c9a6 30be
000001c0: a364 cfbe 0878 0b3e 340b 8a3d 731f 383d
000001d0: 30f3 903e 13d4 8b3e ad69 e13e a7a4 46bd
-0.21408606 -0.31806597 0.03060976 0.4933751 -0.36421847 -0.14758487 -0.33451524 -0.10197022
0.099892884 0.30397415 0.60189426 -0.35148114 0.46440277 -0.16867855 -0.36453825 -0.20159596
-0.46179166 0.24891314 0.040033918 0.029680487 0.1947258 0.107022345 0.56038475 0.042710807
-0.30986166 0.02001509 0.55596036 0.18750729 0.24028388 -0.16050726 -0.25309896 0.04923688
-0.26850906 -0.12749313 -0.08464283 0.033016644 0.08412234 0.1478488 -0.2324015 -0.062499985
0.22143093 0.019260963 0.30063546 -0.056611914 -0.034412716 0.018448912 -0.38566798 0.10500369
-0.2361745 0.1511121 0.51725423 -0.0062243408 0.3776735 -0.091316886 -0.10708469 0.013296438
-0.30629876 -0.3690189 -0.43597054 0.19985987 0.05787871 0.10367304 -0.035524555 -0.057081725
0.24242128 0.04501313 0.34969398 -0.09010726 0.0074064564 -0.009619783 -0.45251432 0.020459225
-0.12867446 0.42600238 -0.01325467 -0.45535165 0.44244128 0.21311761 0.11408929 0.33104545
-0.17746311 -0.37069026 -0.5554029 0.06370665 0.0014488088 0.16616936 0.029041653 -0.23557264
0.2571609 0.10061193 0.09965241 0.13847741 0.011364114 0.056804027 -0.2522202 -0.06258232
-0.034061845 -0.41546595 -0.036940977 0.5523697 -0.59290624 -0.34805787 -0.29819265 -0.35986492
0.21648532 0.16275652 0.53974 -0.01405672 0.3390427 -0.102899574 -0.3934569 -0.17251123
-0.40506467 0.13620007 0.06740418 0.044951867 0.28310537 0.27310237 0.44025937 -0.04849687

bias f4 [10]
00000000: ef15 49be 90af 2ebe a245 3a3d 16d5 2c3e
00000010: a8e5 eb3d d150 153e ba31 27bc 8e8d c93a
00000020: 0aed 2c3d e03f 11be
-0.19637273 -0.1705916 0.045476563 0.16878161 0.11518413 0.1458161 -0.010204727 0.001537727
0.042218246 -0.14184523
