prerequisite_task/test/my_model.pth (torch, 32223 bytes, 47 tensors)

weight f4 [12, 3, 3, 3]
-0.04638653 -0.06508905 0.15478317 -0.026998831 -0.19011639 0.021021158 -0.16648841 0.09027885
-0.06229576 0.07009403 0.18906774 0.026857037 -0.075604714 0.16161376 0.097451255 0.08062647
-0.16034845 0.07152927 0.29127148 -0.08466895 -0.026484225 -0.05015585 0.054817323 0.115966894
0.07835031 0.018590039 -0.04203914 -0.06416455 -0.21556538 -0.13313426 -0.27779287 0.17902885
-0.115083545 -0.0696667 -0.26818573 -0.19018118 -0.2642016 0.05822061 0.2838007 -0.1428947
0.1577248 0.030646384 -0.16747135 0.274636 0.042698573 0.08089102 -0.0031323493 -0.116933316
0.009912004 -0.17499983 0.029774457 0.07404249 0.06493302 0.12767217 0.21011078 0.07724296
-0.086351916 -0.16813691 0.04038234 -0.24001402 -0.0699703 -0.06782413 -0.032002546 -0.1638305
-0.01682441 -0.025327912 0.00045461912 -0.13169678 -0.09929469 0.014439644 0.018382808 0.1369202
0.06408162 0.09590782 -0.17506406 0.16026662 -0.05981863 0.09733441 -0.031480003 0.054598074
-0.21371675 -0.007937216 0.08127243 -0.0280282 -0.0063036187 -0.11208462 -0.08871165 -0.17808391
-0.17705712 -0.13061531 0.18859364 0.13853395 0.08265723 -0.039388485 0.15135667 -0.18867491
-0.14851429 0.12041723 0.060216483 0.0017381314 -0.1485005 0.061015375 -0.11742805 -0.04005718
0.14018911 0.12403331 0.22243747 0.07829583 -0.2659871 0.0979494 0.050434556 -0.0071440185
-0.30764204 0.07463602 -0.23363334 -0.08600151 -0.008145533 0.02477685 0.08266682 -0.25285226
-0.051948056 -0.025725625 -0.0045290357 -0.05033864 -0.08149628 0.011401819 0.10222504 0.3005314
-0.028575229 0.07182098 0.03175303 -0.25432616 0.097668216 -0.094053075 -0.1764861 0.27911323
0.1831498 -0.0076301857 -0.124978244 -0.0056852377 -0.09005818 -0.11659842 -0.017698368 -0.060838047
0.1351639 0.34290922 -0.0045237266 0.0109757185 -0.34685007 -0.066005304 -0.1315642 -0.04414827
0.13780403 -0.03586522 -0.015432671 -0.050750636 0.26352406 -0.26907134 0.21141075 0.0809734
0.13330455 0.0750554 0.1856534 0.06185993 -0.11651724 0.046339232 0.47212395 -0.15096505
0.032099303 -0.08972004 0.06285097 -0.066393495 -0.16177112 0.095362835 0.24180812 0.15727934
-0.1298043 0.05005224 -0.03773077 -0.25829214 -0.19155149 -0.0057910713 -0.28072408 -0.09501698
-0.058085512 -0.30956334 -0.13719864 0.3082242 0.22270258 0.07388108 0.032391254 0.18939123
-0.040511224 -0.027832758 -0.07212906 0.12424894 0.37385952 -0.12762775 0.021786867 -0.0071811583
0.115632504 -0.094825 0.12142371 0.03866164 -0.08975777 -0.24738659 -0.005630295 -0.08332842
0.02286087 -0.036333226 0.20212959 0.1853309 0.12594888 -0.17739807 0.082942836 0.007389137
0.02181922 0.052091755 -0.1705441 -0.16955687 -0.018303871 0.054006796 -0.18254626 -0.042290673
0.26090986 -0.067944795 -0.19411002 -0.05193391 0.19988656 0.00012516466 -0.027965652 -0.016472533
0.14236759 -0.058433525 0.10340915 -0.09003983 0.108665265 -0.17522356 -0.11120556 -0.15382603
0.036930263 -0.01613682 0.010398826 -0.07334426 0.21374317 -0.148934 0.21769287 0.016453775
0.17536293 0.08090416 -0.11574064 -0.10981284 -0.15460862 0.20728402 -0.21985592 0.039212342
00000000: cdff 3dbd 684d 85bd 7b7f 1e3e a72c ddbc
00000010: dfad 42be 9034 ac3c f07b 2abe 1ee4 b83d
00000020: d729 7fbd 758d 8f3d f99a 413e 4a03 dc3c
00000030: a5d6 9abd 147e 253e 8694 c73d 7e1f a53d
00000040: 6232 24be f07d 923d 8921 953e ea66 adbd
00000050: 72f5 d8bc 3870 4dbd 2188 603d 0d80 ed3d
00000060: 2176 a03d 234a 983c 3c31 2cbd b468 83bd
00000070: 2cbd 5cbe 5954 08be de3a 8ebe 5753 373e
00000080: ecb0 ebbd 6aad 8ebd a44f 89be dbbe 42be
00000090: 6f45 87be bc78 6e3d 534e 913e fd52 12be
000000a0: 9c82 213e 200e fb3c 9c7d 2bbe 179d 8c3e
000000b0: b3e4 2e3d 31aa a53d 1a48 4dbb bc7a efbd
000000c0: f565 223c 2833 33be 90e9 f33c 97a3 973d
000000d0: 9afb 843d 7ebc 023e 4827 573e 8f31 9e3d
000000e0: 46d9 b0bd 152c 2cbe f467 253d 3cc6 75be
000000f0: 974c 8fbd 61e7 8abd 1a15 03bd 2fc3 27be
00000100: 58d3 89bc 7b7c cfbc f259 ee39 85db 06be
00000110: 045b cbbd 4294 6c3c 8b97 963c cf34 0c3e
00000120: 393d 833d 526b c43d fe43 33be ef1c 243e
00000130: 6104 75bd 4357 c73d 2df1 00bd 3ba2 5f3d
00000140: 90d8 5abe 190b 02bc 2972 a63d 659b e5bc
00000150: 968e cebb 9f8c e5bd 74ae b5bd a15b 36be
00000160: 764e 35be 05c0 05be b11e 413e d8db 0d3e
00000170: 3248 a93d d255 21bd 3efd 1a3e ff33 41be
00000180: 2114 18be 4f9d f63d 8fa5 763d 03d2 e33a
00000190: 8410 18be 42eb 793d 1e7e f0bd ff12 24bd
000001a0: bc8d 0f3e 2d05 fe3d a6c6 633e 9059 a03d
000001b0: 762f 88be b299 c83d 7794 4e3d 5f18 eabb
000001c0: 4283 9dbe c5da 983d 943d 6fbe 8f21 b0bd
000001d0: d774 05bc d2f8 ca3c 394d a93d da75 81be
000001e0: 7cc7 54bd 8cbe d2bc 4e68 94bb e42f 4ebd
000001f0: 86e7 a6bd b2ce 3a3c 5d5b d13d 40df 993e
00000200: 9916 eabc e116 933d 770f 023d 0a37 82be
00000210: 4606 c83d e69e c0bd c6b8 34be eee7 8e3e
00000220: 9f8b 3b3e a306 fabb 98f4 ffbd 3b4b babb
00000230: 6c70 b8bd 27cb eebd 2bfc 90bc 5131 79bd
00000240: 6868 0a3e cc91 af3e c53b 94bb 80d3 333c
00000250: 5596 b1be ca2d 87bd c4b8 06be d1d4 34bd
00000260: 801c 0d3e 69e7 12bd 50d9 7cbc e6df 4fbd
00000270: a0ec 863e b8c3 89be 0f7c 583e 62d5 a53d
00000280: fd80 083e a5b6 993d ed1b 3e3e d760 7d3d
00000290: 97a0 eebd 35ce 3d3d 3bba f13e 9596 1abe
000002a0: 8f7a 033d 24bf b7bd 02b8 803d 50f9 87bd
000002b0: 54a7 25be 974d c33d 8c9c 773e d60d 213e
000002c0: 6beb 04be 9403 4d3d 948b 1abd de3e 84be
000002d0: 1326 44be 07c3 bdbb 11bb 8fbe 4398 c2bd
000002e0: 13eb 6dbd 167f 9ebe cd7d 0cbe 90cf 9d3e
000002f0: 250c 643e f74e 973d b1ac 043d c6ef 413e
00000300: 19ef 25bd 8601 e4bc 67b8 93bd 3a76 fe3d
00000310: 846a bf3e d9b0 02be 5f7a b23c ec4f ebbb
00000320: bcd0 ec3d 9c33 c2bd feac f83d ab5b 1e3d
00000330: ecd2 b7bd e952 7dbe 567e b8bb 17a8 aabd
00000340: b846 bb3c 26d2 14bd 0ffb 4e3e 62c7 3d3e
00000350: bef8 003e d7a7 35be efdd a93d 9320 f23b
00000360: 39be b23c 2a5e 553d 1da3 2ebe 51a0 2dbe
00000370: 00f2 95bc 3b36 5d3d 68ed 3abe fc38 2dbd
00000380: fa95 853e a426 8bbd c7c4 46be a7b8 54bd
00000390: 10af 4c3e a23e 0339 3918 e5bc 68f1 86bc
000003a0: cfc8 113e fe57 6fbd 2dc8 d33d cd66 b8bd
000003b0: e58b de3d ce6d 33be bebf e3bd 9284 1dbe
000003c0: 3044 173d 5d31 84bc d65f 2a3c 8435 96bd
000003d0: 7ddf 5a3e 2882 18be e1ea 5e3e 11ca 863c
000003e0: 5792 333e 15b1 a53d 6e09 edbd 8ee5 e0bd
000003f0: b951 1ebe 4342 543e e921 61be 1f9d 203d

weight f4 [12]
1.0 1.0 1.0 1.0 1.0 1.0 1.0 1.0
1.0 1.0 1.0 1.0
00000000: 0000 803f 0000 803f 0000 803f 0000 803f
00000010: 0000 803f 0000 803f 0000 803f 0000 803f
00000020: 0000 803f 0000 803f 0000 803f 0000 803f

bias f4 [12]
0.0 0.0 0.0 0.0 0.0 0.0 0.0 0.0
0.0 0.0 0.0 0.0
00000000: 0000 0000 0000 0000 0000 0000 0000 0000
00000010: 0000 0000 0000 0000 0000 0000 0000 0000
00000020: 0000 0000 0000 0000 0000 0000 0000 0000

running_mean f4 [12]
0.0 0.0 0.0 0.0 0.0 0.0 0.0 0.0
0.0 0.0 0.0 0.0
00000000: 0000 0000 0000 0000 0000 0000 0000 0000
00000010: 0000 0000 0000 0000 0000 0000 0000 0000
00000020: 0000 0000 0000 0000 0000 0000 0000 0000

running_var f4 [12]
1.0 1.0 1.0 1.0 1.0 1.0 1.0 1.0
1.0 1.0 1.0 1.0
00000000: 0000 803f 0000 803f 0000 803f 0000 803f
00000010: 0000 803f 0000 803f 0000 803f 0000 803f
00000020: 0000 803f 0000 803f 0000 803f 0000 803f

weight f4 [3, 3, 1, 1]
0.20793161 1.0996286 -1.0573837 0.8464624 -0.8681213 1.1762254 -0.6231414 -0.34170586
0.12884471
00000000: 06ec 543e a1c0 8c3f 5958 87bf c3b1 583f
00000010: 333d 5ebf 8e8e 963f 3286 1fbf 12f4 aebe
00000020: deef 033e

weight f4 [3]
1.0 1.0 1.0
00000000: 0000 803f 0000 803f 0000 803f

bias f4 [3]
0.0 0.0 0.0
00000000: 0000 0000 0000 0000 0000 0000

running_mean f4 [3]
0.0 0.0 0.0
00000000: 0000 0000 0000 0000 0000 0000

running_var f4 [3]
1.0 1.0 1.0
00000000: 0000 803f 0000 803f 0000 803f

weight f4 [3, 3, 3, 3]
-0.5107575 -0.11144212 0.22286984 -0.011239359 0.21769391 0.067640536 -0.06463135 -0.32128006
0.14730974 -0.15487559 0.08854615 0.16059056 -0.28145498 -0.08850168 -0.2625806 0.23551571
0.28701067 0.3043824 0.084598504 0.09549152 -0.058718454 0.16402304 -0.4070312 0.26787734
-0.11064742 -0.2923905 0.07850882 -0.010428662 0.40244663 -0.00042255325 0.113956094 -0.12141026
0.017657185 0.123803906 0.11491981 0.041782517 -0.22416373 0.28042683 -0.40136966 0.5679434
0.2671927 -0.44956607 0.48061994 0.073235236 0.048158914 0.2814649 -0.13740917 -0.09747624
-0.057106 0.40640596 0.0034390413 0.46167138 0.008152204 -0.1045995 0.08468892 0.10054602
0.18772921 -0.3301061 -0.149688 0.17470841 0.12253387 0.13491535 0.34981158 0.08846252
-0.024282139 -0.20268184 -0.16335694 -0.13432294 0.52390677 0.03937071 0.21941055 -0.08550065
-0.24319656 -0.38292503 -0.20200129 0.275107 0.022680152 -0.35939595 0.027227568 0.2263719
0.25695878
00000000: 01c1 02bf c43b e4bd fe37 643e 4a25 38bc
00000010: 27eb 5e3e 1f87 8a3d 715d 84bd d27e a4be
00000020: 5dd8 163e b597 1ebe af57 b53d da71 243e
00000030: de1a 90be 5e40 b5bd f770 86be 082b 713e
00000040: 10f3 923e 03d8 9b3e fb41 ad3d 0f91 c33d
00000050: c382 70bd a8f5 273e 6566 d0be 3827 893e
00000060: 1d9b e2bd 35b4 95be 3bc9 a03d fbdc 2abc
00000070: 7c0d ce3e 238a ddb9 d061 e93d f1a5 f8bd
00000080: cda5 903c e78c fd3d 145b eb3d 2524 2b3d
00000090: 2d8b 65be 1b94 8f3e 5380 cdbe bd64 113f
000000a0: 7bcd 883e 862d e6be d113 f63e 5bfc 953d
000000b0: 4842 453d 2b1c 903e fdb4 0cbe 9fa1 c7bd
000000c0: fbe7 69bd 7114 d03e 8a61 613b 3160 ec3e
000000d0: d290 053c 4338 d6bd 6271 ad3d 12eb cd3d
000000e0: 163c 403e ab03 a9be d047 19be c3e6 323e
000000f0: 0af3 fa3d 4027 0a3e 811a b33e d62b b53d
00000100: 56eb c6bc d48b 4fbe 0b47 27be f48b 09be
00000110: c11e 063f 2e43 213d 29ad 603e f71a afbd
00000120: 8508 79be c00e c4be 6dd9 4ebe d3da 8c3e
00000130: bacb b93c bf02 b8be 590c df3c 09ce 673e
00000140: 1a90 833e

weight f4 [3]
1.0 1.0 1.0
00000000: 0000 803f 0000 803f 0000 803f

bias f4 [3]
0.0 0.0 0.0
00000000: 0000 0000 0000 0000 0000 0000

running_mean f4 [3]
0.0 0.0 0.0
00000000: 0000 0000 0000 0000 0000 0000

running_var f4 [3]
1.0 1.0 1.0
00000000: 0000 803f 0000 803f 0000 803f

weight f4 [3, 3, 3, 3]
-0.086973846 0.12588039 0.16251828 -0.16322385 0.23942958 -0.0424176 -0.13987134 -0.03983918
-0.04438573 0.14703764 -0.1730484 0.40693188 0.26937386 0.14847806 -0.0064310175 -0.1547943
-0.056658052 0.3272502 0.25364017 -0.37952477 0.3520229 -0.3986471 0.2903753 -0.107758604
0.13236715 -0.037879962 0.0737127 -0.12824866 -0.41788995 0.039056014 -0.2504758 -0.37748605
-0.13485253 -0.1589327 -0.020460047 -0.12405238 0.16361377 -0.261366 -0.36734685 -0.50162476
-0.043756217 0.09021579 0.13977349 0.07951808 -0.08395785 -0.0067640906 -0.21286777 0.4554719
0.065430604 0.1480467 0.17755048 -0.24183574 -0.0045149457 -0.2592347 0.1280218 0.009337144
-0.39465576 0.55204445 -0.04028839 -0.2988797 -0.30977178 -0.12778874 -0.33922428 -0.1603723
0.31409034 0.27292654 0.6365145 -0.18770285 -0.039249398 -0.02876753 0.4520564 0.40211633
-0.2998143 -0.4078655 -0.025903596 -0.378566 0.19392587 -0.24933189 0.21636158 -0.21272948
0.29484347
00000000: 581f b2bd cae6 003e 316b 263e 2724 27be
00000010: 072d 753e 14be 2dbd 6f3a 0fbe 682e 23bd
00000020: d0cd 35bd 0991 163e 9a33 31be 6059 d03e
00000030: 5feb 893e a20a 183e 49bb d2bb 6682 1ebe
00000040: 4612 68bd 578d a73e 20dd 813e 1251 c2be
00000050: 583c b43e 791b ccbe 12ac 943e 8bb0 dcbd
00000060: 418b 073e 0528 1bbd aff6 963d 9e53 03be
00000070: acf5 d5be 33f9 1f3d 5d3e 80be da45 c1be
00000080: c816 0abe 41bf 22be d49b a7bc 2d0f febd
00000090: 5e8a 273e c4d1 85be e314 bcbe 7b6a 00bf
000000a0: b839 33bd 0ec3 b83d c820 0f3e 60da a23d
000000b0: 18f2 abbd 4ea5 ddbb 02fa 59be 9d33 e93e
000000c0: 7b00 863d 8e99 173e cbcf 353e caa3 77be
000000d0: 1cf2 93bb 69ba 84be 2618 033e d2fa 183c
000000e0: 5210 cabe c952 0d3f 7005 25bd c306 99be
000000f0: 689a 9ebe 0ddb 02be ceae adbe a338 24be
00000100: 73d0 a03e 07bd 8b3e 9df2 223f 2d35 40be
00000110: fac3 20bd e2a9 ebbc f073 e73e 31e2 cd3e
00000120: 4381 99be bfd3 d0be c733 d4bc 67d3 c1be
00000130: 8194 463e dc50 7fbe e48d 5d3e c2d5 59be
00000140: b9f5 963e

weight f4 [3]
1.0 1.0 1.0
00000000: 0000 803f 0000 803f 0000 803f

bias f4 [3]
0.0 0.0 0.0
00000000: 0000 0000 0000 0000 0000 0000

running_mean f4 [3]
0.0 0.0 0.0
00000000: 0000 0000 0000 0000 0000 0000

running_var f4 [3]
1.0 1.0 1.0
00000000: 0000 803f 0000 803f 0000 803f

weight f4 [3, 3, 3, 3]
0.42367426 -0.09201301 0.31764588 -0.14087763 0.25871354 -0.10702157 -0.028042605 0.03450539
0.02413852 -0.05367318 -0.08389065 0.08000388 0.18535244 -0.30270943 0.492652 -0.49126792
0.10597844 0.34559137 0.4504699 -0.00897652 0.21348092 -0.015508192 0.18905334 -0.075195715
-0.3489922 0.39190942 0.07604892 0.20152296 -0.38238594 0.6165158 -0.07902167 -0.38087144
-0.39337713 0.11348091 0.24322014 -0.0071355803 0.41133934 -0.010663424 0.09869067 0.04484406
-0.33693096 -0.0642028 -0.17905867 -0.3280143 0.071646325 -0.43956444 0.37892792 -0.22478957
0.1762556 -0.15123788 -0.2097716 0.05285645 -0.48968112 -0.014334374 0.503329 -0.2962691
0.15311384 -0.09461596 -0.07266234 0.05197095 0.33621335 0.0959759 -0.18195142 0.0769871
-0.066193014 -0.27103975 -0.092709675 0.26419878 0.42230368 0.27586782 -0.07344697 0.07200335
0.010528525 0.17932555 0.038679175 0.21172214 -0.2931051 0.20121393 0.10530978 0.198479
-0.05281961
00000000: d5eb d83e 5171 bcbd 7ba2 a23e 3a42 10be
00000010: 1a76 843e 202e dbbd 9bb9 e5bc 8655 0d3d
00000020: 25be c53c 69d8 5bbd dcce abbd 13d9 a33d
00000030: 08cd 3d3e bbfc 9abe e23c fc3e 7887 fbbe
00000040: 390b d93d 5af1 b03e fea3 e63e 4112 13bc
00000050: be9a 5a3e 1216 7ebc 3397 413e 3600 9abd
00000060: 1baf b2be 5aa8 c83e 89bf 9b3d 095c 4e3e
00000070: 17c8 c3be fbd3 1d3f 1dd6 a1bd 9501 c3be
00000080: ba68 c9be ae68 e83d b30e 793e 96d1 e9bb
00000090: 129b d23e a4b5 2ebc 561e ca3d 68ae 373d
000000a0: 3782 acbe c27c 83bd 285b 37be 7ef1 a7be
000000b0: 4fbb 923d 970e e1be d702 c23e 3d2f 66be
000000c0: 597c 343e 1ade 1abe 5ece 56be 0180 583d
000000d0: 7cb7 fabe b9da 6abc 2bda 003f 95b0 97be
000000e0: e0c9 1c3e 03c6 c1bd fecf 94bd 7edf 543d
000000f0: 2824 ac3e 038f c43d 7951 3abe 6aab 9d3d
00000100: 3490 87bd b9c5 8abe 92de bdbd 1045 873e
00000110: 3038 d83e 8c3e 8d3e 5d6b 96bd 7e76 933d
00000120: d67f 2c3c 1ea1 373e 0e6e 1e3d b0cd 583e
00000130: df11 96be 060b 4e3e a7ac d73d 143e 4b3e
00000140: 6059 58bd

weight f4 [3]
1.0 1.0 1.0
00000000: 0000 803f 0000 803f 0000 803f

bias f4 [3]
0.0 0.0 0.0
00000000: 0000 0000 0000 0000 0000 0000

running_mean f4 [3]
0.0 0.0 0.0
00000000: 0000 0000 0000 0000 0000 0000

running_var f4 [3]
1.0 1.0 1.0
00000000: 0000 803f 0000 803f 0000 803f

weight f4 [3, 12, 1, 1]
0.3987863 1.2934023 1.5612584 0.97990674 -0.25658545 0.6375855 -1.0279586 -0.5723418
0.2542511 0.83659095 -0.32698488 -0.61845446 -1.8206084 0.042253688 -0.43859893 -0.06687696
0.5497997 0.16315536 1.0217544 -0.26463336 -0.39477283 1.5010355 -0.32777047 0.5332505
-0.7021148 -0.4606729 -0.6433847 0.76618195 -0.07930647 -0.4761414 0.8010008 -0.8036937
1.3190335 1.1692146 0.5208456 0.75536865
00000000: b82d cc3e 358e a53f 51d7 c73f 2bdb 7a3f
00000010: 2b5f 83be ce38 233f 2694 83bf fe84 12bf
00000020: 332d 823e d32a 563f 906a a7be 0853 1ebf
00000030: b209 e9bf 3412 2d3d 0a90 e0be caf6 88bd
00000040: acbf 0c3f 3312 273e d9c8 823f 067e 87be
00000050: aa1f cabe ee21 c03f 88d1 a7be 1b83 083f
00000060: ccbd 33bf 51dd ebbe dcb4 24bf 8024 443f
00000070: 6e6b a2bd cec8 f3be 630e 4d3f dfbe 4dbf
00000080: 17d6 a83f d3a8 953f 2356 053f d75f 413f

weight f4 [3]
1.0 1.0 1.0
00000000: 0000 803f 0000 803f 0000 803f

bias f4 [3]
0.0 0.0 0.0
00000000: 0000 0000 0000 0000 0000 0000

running_mean f4 [3]
0.0 0.0 0.0
00000000: 0000 0000 0000 0000 0000 0000

running_var f4 [3]
1.0 1.0 1.0
00000000: 0000 803f 0000 803f 0000 803f

weight f4 [3, 12, 1, 1]
-0.8439812 -1.8462999 -0.6547532 -0.18400171 0.090643905 0.9375737 0.5836184 -0.8008734
1.5579634 -0.32883558 0.31076953 1.0990579 1.0652211 -0.9566764 1.6447355 -0.59864056
2.7883449 1.0883695 0.7341613 0.89932656 1.079357 -0.22516267 0.5470638 0.6297384
-0.10805433 0.58829784 -0.62304354 -0.19511561 0.43633386 0.119760096 0.51410824 -0.080119446
-0.73149526 -0.22265834 -0.9980358 0.55397755
00000000: 270f 58bf 8e53 ecbf e89d 27bf f26a 3cbe
00000010: 83a3 b93d d404 703f 0468 153f 0a06 4dbf
00000020: 586b c73f 235d a8be 2f1d 9f3e eead 8c3f
00000030: 2a59 883f bfe8 74bf b186 d23f 8240 19bf
00000040: 3e74 3240 b14f 8b3f fff1 3b3f 443a 663f
00000050: 5f28 8a3f 0b91 66be 600c 0c3f 8936 213f
00000060: 974b ddbd b09a 163f c87f 1fbf 63cc 47be
00000070: 2767 df3e c844 f53d 999c 033f aa15 a4bd
00000080: 4643 3bbf 8c00 64be 467f 7fbf 79d1 0d3f

weight f4 [3]
1.0 1.0 1.0
00000000: 0000 803f 0000 803f 0000 803f

bias f4 [3]
0.0 0.0 0.0
00000000: 0000 0000 0000 0000 0000 0000

running_mean f4 [3]
0.0 0.0 0.0
00000000: 0000 0000 0000 0000 0000 0000

running_var f4 [3]
1.0 1.0 1.0
00000000: 0000 803f 0000 803f 0000 803f

weight f4 [3, 12, 1, 1]
0.5458358 -0.121306464 0.21874432 1.2346641 1.049084 0.90295905 -0.6461916 -0.91439915
0.25384474 0.062918216 -0.31482404 -0.65182126 -0.91611004 0.4297669 1.267074 1.0548104
-0.84172285 1.4627 -0.346437 -0.43346953 1.853682 0.036850687 -1.2203239 -0.38492018
-2.1463804 -0.109858446 0.14884563 1.519294 2.1718514 0.67162657 -0.2029937 0.15667246
0.5287753 -0.06077958 -0.25607586 -0.050694946
00000000: e5bb 0b3f 866f f8bd 83fe 5f3e 7909 9e3f
00000010: 6248 863f 5328 673f d06c 25bf 1016 6abf
00000020: f0f7 813e 44db 803d 9e30 a1be c2dd 26bf
00000030: 3086 6abf 680a dc3e 7b2f a23f 0704 873f
00000040: 267b 57bf c139 bb3f 3160 b1be b8ef ddbe
00000050: 7445 ed3f bff0 163d 9333 9cbf 4214 c5be
00000060: 4c5e 09c0 77fd e0bd fd6a 183e 3a78 c23f
00000070: 9dff 0a40 b8ef 2b3f 95dd 4fbe bf6e 203e
00000080: d15d 073f 02f4 78bd 601c 83be 81a5 4fbd

weight f4 [3]
1.0 1.0 1.0
00000000: 0000 803f 0000 803f 0000 803f

bias f4 [3]
0.0 0.0 0.0
00000000: 0000 0000 0000 0000 0000 0000

running_mean f4 [3]
0.0 0.0 0.0
00000000: 0000 0000 0000 0000 0000 0000

running_var f4 [3]
1.0 1.0 1.0
00000000: 0000 803f 0000 803f 0000 803f

weight f4 [3, 12, 1, 1]
-1.3755406 -1.1997883 -0.7329488 -0.0014297467 0.12345691 -1.2773843 1.1561873 -0.6262776
0.79123265 -0.65256107 0.5047562 -0.6114205 -0.09908331 1.6700315 2.0010006 -0.093851216
0.24703221 0.85134286 0.6701839 1.0455223 -0.9465957 0.19766909 1.5605977 0.59096056
-1.3069308 0.3018989 1.6607056 0.279347 -0.32045323 -0.46823758 0.61491024 0.2918876
0.123929225 0.14225289 -0.52185255 0.39764646
00000000: b711 b0bf aa92 99bf 88a2 3bbf 5766 bbba
00000010: fad6 fc3d 5481 a3bf f2fd 933f bb53 20bf
00000020: 398e 4a3f 3e0e 27bf b437 013f 0e86 1cbf
00000030: 31ec cabd 98c3 d53f 6510 0040 1135 c0bd
00000040: 03f6 7c3e 9bf1 593f 2c91 2b3f add3 853f
00000050: 1954 72bf c469 4a3e aac1 c73f 3149 173f
00000060: 8249 a7bf 7e92 9a3e 0092 d43f 9206 8f3e
00000070: 7212 a4be d6bc efbe c26a 1d3f 4b72 953e
00000080: 9bce fd3d beaa 113e 2198 05bf 5198 cb3e

weight f4 [3]
1.0 1.0 1.0
00000000: 0000 803f 0000 803f 0000 803f

bias f4 [3]
0.0 0.0 0.0
00000000: 0000 0000 0000 0000 0000 0000

running_mean f4 [3]
0.0 0.0 0.0
00000000: 0000 0000 0000 0000 0000 0000

running_var f4 [3]
1.0 1.0 1.0
00000000: 0000 803f 0000 803f 0000 803f

weight f4 [10, 12]
0.023036335 -0.014297291 0.007220779 -0.005828207 0.0287658 -0.0016787613 0.008864258 -0.0022518104
-0.002061567 0.0015362687 0.0066198967 -0.001531095 -0.0067306426 0.004364267 -0.009058127 0.010361741
0.0077375895 7.7497156e-05 0.0043593673 0.002020508 0.004948004 -0.006495682 -0.007645043 0.0077377204
0.006786128 -0.008267708 -0.0014425421 -0.0041151512 0.00038601714 0.0030907681 0.001940167 0.0020243397
0.00043482432 -0.004248428 -0.005968641 0.011400237 0.011751138 0.00071527204 0.005311304 0.00094309554
0.007718524 -0.004536534 0.0045192777 -0.014867405 0.003019592 -0.0105552245 0.002633391 0.016087681
0.002804481 -0.0054097623 -0.017581346 -0.0024996004 -0.010896582 -0.0012762453 -0.0016684136 0.0051504904
-0.012111326 0.0008915671 0.0023073899 0.017918235 0.018992009 -0.01658585 -0.00039009104 0.010668952
-0.0079793865 -0.014172912 -0.005975445 -0.004181616 -0.020579424 -0.0039688186 0.00030758203 0.015194871
0.0050498224 -0.0018759045 -0.0019533942 -0.0024007394 0.0011324692 0.010859805 -0.0012314697 -0.008828646
0.010791984 -0.007244207 -0.0138479285 0.0008411273 0.0143903745 -0.00227894 0.004290488 0.004264473
-0.004324484 -0.009813114 0.015851129 0.0019195294 0.010018903 0.005609174 0.015014695 0.009324454
-0.018258246 0.0069406466 -0.0033596652 0.012887663 0.00873611 0.023010356 -0.0027201802 -0.0075642113
0.0073800236 -0.0012784731 0.0038869926 -0.0013870472 0.0026214793 0.0023014836 0.0035260746 0.0034964266
-0.019838754 -0.01183343 -0.0036591252 -0.009506923 0.021282801 -0.011299999 -0.00022288789 0.010817549
00000000: b2b6 bc3c 2f3f 6abc 499c ec3b 8bfa bebb
00000010: 41a6 eb3c e209 dcba 653b 113c 1c93 13bb
00000020: 5b1b 07bb a05c c93a b8eb d83b 06af c8ba
00000030: b98c dcbb 2002 8f3b 8a68 14bc 4bc4 293c
00000040: 9b8b fd3b f885 a238 06d9 8e3b 806a 043b
00000050: de22 a23b bbd9 d4bb 4583 fabb b48c fd3b
00000060: 2b5e de3b 4875 07bc ae13 bdba 64d8 86bb
00000070: 5862 ca39 7c8e 4a3b 344d fe3a c9aa 043b
00000080: 22f9 e339 6636 8bbb 9794 c3bb 0fc8 3a3c
00000090: d887 403c 1881 3b3a 720a ae3b 123a 773a
000000a0: aceb fc3b 35a7 94bb 7316 943b 6b96 73bc
000000b0: 59e4 453b d2ef 2cbc f894 2c3b 50ca 833c
000000c0: 62cb 373b 6044 b1bb c106 90bc 56d0 23bb
000000d0: 9487 32bc b047 a7ba acae daba 72c5 a83b
000000e0: 956e 46bc 0eb8 693a 9437 173b 43c9 923c
000000f0: 2195 9b3c 0cdf 87bc 2285 ccb9 d4cc 2e3c
00000100: f9bb 02bc 8035 68bc aacd c3bb f005 89bb
00000110: 2e96 a8bc dd0c 82bb f642 a139 e9f3 783c
00000120: fb78 a53b e9e0 f5ba 8404 00bb b955 1dbb
00000130: 5c6f 943a 53ed 313c 4469 a1ba 06a6 10bc
00000140: ddd0 303c d060 edbb 6ce2 62bc 197f 5c3a
00000150: 9bc5 6b3c 455a 15bb 3997 8c3b febc 8b3b
00000160: 67b4 8dbb 2fc7 20bc 3ada 813c b898 fb3a
00000170: 5326 243c 29cd b73b 3200 763c 98c5 183c
00000180: 5192 95bc 5d6e e33b d42d 5cbb c726 533c
00000190: e721 0f3c 3780 bc3c 0d45 32bb 34dd f7bb
000001a0: 20d4 f13b 7092 a7ba eabc 7e3b 95cd b5ba
000001b0: 20cd 2b3b 7dd4 163b b715 673b 4e24 653b
000001c0: e284 a2bc 01e1 41bc efcd 6fbb edc2 1bbc
000001d0: 4559 ae3c a223 39bc 03b7 69b9 173c 313c

bias f4 [10]
0.0 0.0 0.0 0.0 0.0 0.0 0.0 0.0
0.0 0.0
00000000: 0000 0000 0000 0000 0000 0000 0000 0000
00000010: 0000 0000 0000 0000 0000 0000 0000 0000
00000020: 0000 0000 0000 0000
