prerequisite_task/test/trained.pth (torch, 31967 bytes, 47 tensors)

weight f4 [12, 3, 3, 3]
000000 2a 63 d9 bd ef 81 ee bd 1d dd ba 3d 27 11 b1 bd
       -0.10614617 -0.116458766 0.09124205 -0.0864585
000010 75 ec 8a be bd a7 1f bd 2b d4 1a be c2 7a c2 3d
       -0.27133527 -0.038978327 -0.15119998 0.094960704
000020 c5 37 89 bd 06 47 ad bb 4c ba 09 3e 91 dc 20 bd
       -0.0670009 -0.0052880077 0.13449973 -0.03927285
000030 09 b6 25 be 10 c9 81 3d 91 b3 9f 3c 5a 05 74 3d
       -0.16182722 0.06337178 0.019494804 0.059575416
000040 f4 6d 3c be ea 47 0f 3d 17 9d 6e 3e f7 b2 01 be
       -0.18401319 0.034980692 0.23302113 -0.12665926
000050 f9 00 c1 bd 8d e5 ec bd d4 6c ef bc 5d ab fa 3c
       -0.09424014 -0.11567221 -0.029226698 0.03059929
000060 e2 a2 9d 3d b8 c6 0f 3c f2 ce ac bd 30 10 91 bd
       0.07697083 0.008775406 -0.08437909 -0.07083166
000070 70 df 7e be b5 0c 7b be 5f ea 1f be ef 36 62 3e
       -0.24889922 -0.24516566 -0.15616749 0.22091268
000080 29 43 ff bd ab bf 8b 3d 23 3d 61 be d0 17 2f be
       -0.12463982 0.06823667 -0.21995978 -0.17098927
000090 cb 8f 9e be f9 7e 88 bc b0 91 0a 3e fa 4d a4 bd
       -0.3096908 -0.016662108 0.13532138 -0.08022685
0000a0 70 5d 08 3e 73 a9 23 bd ab c5 d5 bd 09 c6 73 3e
       0.13316894 -0.03995652 -0.10438093 0.23806013
0000b0 99 12 9a bc ca 8a 23 3e 49 b3 82 3d 3b ee e7 bd
       -0.018807696 0.15970913 0.06381852 -0.11324736
0000c0 42 60 43 3e 75 eb 86 bd 8f 39 c0 3d f3 eb 6c 3e
       0.19079688 -0.065878786 0.093859784 0.23136882
0000d0 9d c9 09 3e 60 47 30 3e 3d f2 94 3e 3f e1 33 3e
       0.13455816 0.17214727 0.29091063 0.17566393
0000e0 a0 f9 bb 3d 68 e5 0e be a6 8e 1b 3e ca b9 06 be
       0.091784716 -0.13954699 0.15191135 -0.1315681
0000f0 0f be 34 be 8c f1 f6 bd 71 e9 f1 bd ce 45 52 be
       -0.17650627 -0.1205779 -0.118121035 -0.20534441
000100 d4 73 be bd 06 26 bb 3c b1 6c 85 3d f3 f9 7d bd
       -0.09299436 0.02284528 0.06514872 -0.06200595
000110 24 7f 8b bc 16 7a ea 3c fe f2 dd 3b 36 d4 a7 3d
       -0.017028399 0.028622668 0.0067733517 0.08194773
000120 59 b1 46 bd be e0 f5 bc 8f 8b ab bd de 66 19 3e
       -0.048508976 -0.030014392 -0.08376228 0.14980647
000130 90 ed 0e bd 59 ac 56 3e d9 92 16 bd e6 52 63 3d
       -0.034894526 0.20964183 -0.03676114 0.05549898
000140 0d c3 3c be 4c 38 9b bd 22 37 5f 3d d9 93 1e bd
       -0.18433781 -0.07579097 0.054495938 -0.038715217
000150 f3 48 fd bb 21 f1 aa bd 3b b1 a1 bd 2d 50 15 be
       -0.0077296435 -0.08346773 -0.07895132 -0.14581366
000160 8f 17 32 be 4f b7 0a be a2 10 0e 3e 18 d7 01 3e
       -0.173918 -0.13546489 0.13873532 0.12679708
000170 89 35 ac 3d 7b 00 00 bd fb 98 3e 3e a8 9f 32 be
       0.084086485 -0.03125046 0.18613045 -0.17443717
000180 42 7c c8 bd 4b 07 0a 3e 9e ae 88 3d a4 d6 54 bd
       -0.09789325 0.13479345 0.066739306 -0.05196251
000190 8e a3 1d be 5b a3 9c 3d 25 07 f4 bd 0a a6 89 bb
       -0.15394422 0.07648345 -0.11915425 -0.0042007016
0001a0 c3 ae 27 3e 98 a5 3d 3e ce 8c 84 3e 8b d5 ec 3d
       0.1637526 0.185202 0.25888675 0.115641676
0001b0 65 e3 7b be 39 26 b4 3d 84 3b 55 3d d4 01 7f 3d
       -0.24598463 0.08796353 0.05205871 0.062257603
0001c0 c7 4e 85 be 10 e6 10 3e 5d 5e 4f be 3e d1 9e bd
       -0.26036665 0.14150262 -0.2025084 -0.077547535
0001d0 b3 bd 45 3d 1b f1 8c 3c 55 ea 33 3d 78 ff 93 be
       0.048276614 0.017204812 0.04392465 -0.28905845
0001e0 f7 f8 18 bc c0 86 ee bb d0 45 b7 3c 98 f7 2a bd
       -0.009336702 -0.007279247 0.022372156 -0.04174003
0001f0 52 98 c5 bd e6 87 0f 3d c1 42 b6 3d 2e 52 78 3e
       -0.096481934 0.035041712 0.08899451 0.24250099
000200 7c 4c c9 bd eb a1 b4 3d 7e 1e e6 3b 20 8c 91 be
       -0.09829041 0.08819946 0.007022678 -0.2842722
000210 e2 a1 8d 3d d1 7f 27 be e6 32 61 be 98 38 7a 3e
       0.06915642 -0.16357352 -0.21992072 0.24435651
000220 df fa 15 3e e7 db dc bb e5 2d 01 be da 3e 80 bc
       0.14646481 -0.0067400816 -0.12615164 -0.01565497
000230 b5 81 91 bd 14 fd 9b bd 9f 93 4b 3b be 80 db bc
       -0.07104818 -0.0761663 0.003106333 -0.026794787
000240 d6 b8 cb 3d 9b 81 9d 3e d7 43 91 3a b2 d2 1c bb
       0.09947364 0.30762944 0.001108284 -0.0023929295
000250 3c ef bc be 60 c0 75 bd 70 44 d6 bd 70 2a 1c bd
       -0.3690127 -0.059997916 -0.10462272 -0.03812641
000260 1b 2a 1c 3e 2b 09 76 bc f2 88 79 3c 27 9c ec 3c
       0.15250437 -0.015016834 0.015230404 0.028883053
000270 30 d8 92 3e de 56 7c be 34 5c 8a 3e b3 57 0f 3e
       0.28680563 -0.24642512 0.2702347 0.13998298
000280 93 a3 34 3e 19 0f 07 3e f2 ea 43 3e bd c0 76 3a
       0.17640524 0.13189353 0.19132593 0.00094128755
000290 3e 97 be bd b7 36 b7 3b 94 d2 ee 3e 93 67 7e be
       -0.09306191 0.0055912393 0.46645033 -0.24844198
0002a0 33 14 4d 3c 7c 2f 97 bd 63 ed 57 3d d5 ed 24 bd
       0.012517023 -0.07382104 0.052716624 -0.040265877
0002b0 8f a0 60 be 6f 70 0b 3e 20 4b 84 3e d2 12 47 3e
       -0.21936248 0.13617109 0.25838566 0.19440773
0002c0 8a c3 22 be b7 93 69 3d 11 5e 20 bc d9 e3 5d be
       -0.15894905 0.057025637 -0.009788052 -0.21668948
0002d0 d4 73 01 be 0b 26 11 bd 4d 0d 5e be b7 ba a5 bc
       -0.12641841 -0.03543667 -0.21684761 -0.020230634
0002e0 00 92 d6 3c 78 8a 90 be cf 7b ee bd 31 6c aa 3e
       0.026192665 -0.28230643 -0.11644708 0.33285668
0002f0 4a 22 8a 3e 4d f0 86 3d c2 be e2 3c 92 97 14 3e
       0.26979285 0.065888025 0.027678851 0.14510944
000300 47 33 cf bc fd 8d 71 bd c5 bd 67 3c d0 6c ab 3d
       -0.025293006 -0.0589733 0.014144366 0.08370364
000310 e9 9a 90 3e 12 43 d9 bd b2 05 52 bd 47 76 9f bd
       0.28243187 -0.10608496 -0.051274963 -0.077862315
000320 45 4d ea 3c cf 3e ee bd 54 d5 31 3d c7 02 b6 3d
       0.028601298 -0.116330735 0.043416336 0.088872485
000330 2d d6 20 be d0 b5 c2 be e3 8f cd bc 04 4d c5 bd
       -0.15706702 -0.38029337 -0.025093025 -0.0963383
000340 c9 fd b0 3c 04 2d 3d bd 4d 41 4c 3e b3 aa 0e 3e
       0.02160539 -0.04618551 0.19946785 0.13932304
000350 11 fd 59 3e 0c ad 60 be a7 1b 51 bc dd 31 f9 3c
       0.21287943 -0.21941012 -0.0127629405 0.030419284
000360 eb a5 2d bc 5d 59 f4 3c cf 86 3f be a8 04 37 be
       -0.01059864 0.029827768 -0.18703769 -0.1787287
000370 92 d9 05 bc 3b fa 12 ba 2a 65 67 be e8 e1 96 bd
       -0.008169549 -0.0005606745 -0.22597185 -0.07367307
000380 b3 54 32 3e 9b 4b ac bd 24 fd 4d be 1c 10 88 bd
       0.17415123 -0.08412858 -0.20116097 -0.066436976
000390 0a 1c 54 3e 64 0c f0 3c cb b1 8a bd e5 fd 66 bd
       0.20713821 0.029302783 -0.067721926 -0.056394476
0003a0 da bd eb 3d a3 92 0b be 28 20 c8 3d 76 5b ad bd
       0.11510821 -0.13630156 0.09771758 -0.084647104
0003b0 08 6f df 3d 9e bb 20 be 35 84 8e bd 97 b8 28 be
       0.109098494 -0.1569657 -0.0695881 -0.16476665
0003c0 74 06 93 3c 57 aa ba bc d0 11 f7 bc b6 51 e4 bd
       0.017947413 -0.022786302 -0.03015986 -0.111483976
0003d0 6f 1e 31 3e b8 d0 29 be 29 9c 45 3e 7a e2 22 bd
       0.17296766 -0.16583526 0.19297852 -0.039766766
0003e0 7a 9d 63 3e 18 71 d6 3d 1d 8a f6 bd df 9e 8d bd
       0.22228041 0.1047079 -0.12038062 -0.06915068
0003f0 56 98 51 be 65 03 1b 3e f3 17 81 be 3d 47 a8 3b
       -0.20468268 0.15138014 -0.25213584 0.0051354454

weight f4 [12]
000000 1d 03 56 3f eb c4 57 3f 3d 67 89 3f 34 45 86 3f
       0.835985 0.8428485 1.0734631 1.0489869
000010 60 dc 86 3f 29 0a 43 3f 4f cd 93 3f 33 81 85 3f
       1.0536003 0.7618738 1.154703 1.0430053
000020 63 51 67 3f 7c d2 8a 3f 49 67 82 3f ec 30 83 3f
       0.9035856 1.0845485 1.018777 1.0249305

bias f4 [12]
000000 2c 7b ce bd 59 27 7b 3e 75 7b 4d 3e c4 59 ba 3d
       -0.10082087 0.24526729 0.20066626 0.09099153
000010 e8 f7 96 bc 0e 91 97 3d b0 ba da 3d 2b a3 f8 bc
       -0.018428758 0.07400714 0.10680139 -0.030351242
000020 79 7e 61 bd a0 4d 60 bc 69 85 af 3d 90 e9 df bb
       -0.055052254 -0.013690382 0.08570368 -0.0068332627

running_mean f4 [12]
000000 1f 38 82 3e 0e 93 9f 3c 81 49 22 3d 6b bf 64 bd
       0.25433442 0.0194793 0.03962088 -0.055846613
000010 10 57 8e 3e 18 4d 4f be c2 1b 8f bd fe 96 ab bb
       0.27800798 -0.20244253 -0.06987716 -0.0052365055
000020 f4 0a 98 3e 7d a7 f7 bb 4a 88 49 bc a4 b1 a7 bc
       0.29695857 -0.007557808 -0.01230056 -0.020470448

running_var f4 [12]
000000 2f 2e 89 3f 6c bf 33 3f eb b2 0a 3e de 11 99 3e
       1.0717219 0.7021396 0.13544814 0.29896444
000010 c8 73 b1 3f 51 b4 86 3f d4 09 09 3f 56 a5 79 3e
       1.3863459 1.0523778 0.5353062 0.24379477
000020 b4 0e ba 3f c5 02 94 3e f2 69 ad 3e 15 71 79 3e
       1.4535737 0.28908363 0.33869892 0.24359544

weight f4 [3, 3, 1, 1]
000000 e0 2b e6 3d 78 30 8d 3f 91 bc 88 bf 93 80 6c 3f
       0.11238837 1.1030416 -1.0682546 0.9238369
000010 f3 2d 61 bf 44 c1 8d 3f 78 38 25 bf 42 f5 a1 be
       -0.8796074 1.1074605 -0.6453929 -0.3163243
000020 f3 20 92 3d
       0.07135191

weight f4 [3]
000000 af 22 87 3f e6 d5 91 3f dc a0 92 3f
       1.055746 1.1393402 1.145534

bias f4 [3]
000000 67 38 97 3c c3 bf f8 3d bb af 56 3e
       0.018459512 0.12145951 0.20965473

running_mean f4 [3]
000000 7b 69 3d 3e e5 a8 d6 3e cb 88 d4 be
       0.18497269 0.4192573 -0.41510615

running_var f4 [3]
000000 b5 c3 dd 3d 8b be 19 3f d2 c1 7c 3e
       0.10828344 0.6005637 0.24683312

weight f4 [3, 3, 3, 3]
000000 63 0e 02 bf 49 57 fc bd 44 8c 46 3e 46 81 88 bc
       -0.508032 -0.12321336 0.19389445 -0.016663205
000010 ff 6e 51 3e 5f c1 1d 3d 2c 0c 95 bd d3 ed a6 be
       0.20452498 0.03851449 -0.07277712 -0.3260332
000020 bb 62 02 3e 8a 59 01 be 9a da ee 3d 14 18 45 3e
       0.12732975 -0.12631813 0.11662789 0.19247466
000030 bd 6d 7d be d1 de 64 bd 8f a7 67 be e2 75 8a 3e
       -0.24748893 -0.055876557 -0.22622512 0.27043062
000040 dc 4c a4 3e c3 37 ae 3e e6 0b a7 3d 69 66 af 3d
       0.3208989 0.34026918 0.08156566 0.08564455
000050 b2 8d a1 bd 0e c5 1f 3e 66 1c d4 be 71 85 78 3e
       -0.07888354 0.15602514 -0.41427916 0.24269654
000060 6e cb ee bd 93 d5 97 be fb 1f 6b 3d 60 63 3a 3b
       -0.11659895 -0.29655132 0.057403546 0.002844058
000070 b8 61 d4 3e ba a1 7f 3c 22 d9 07 3e 7b c1 d0 bd
       0.41480803 0.015602523 0.13266423 -0.101931535
000080 2d 10 1a 3d 87 ee 0e 3e 8f d8 08 3e 17 a4 7d 3d
       0.037613083 0.13958178 0.1336386 0.061924066
000090 85 8d 5a be cb d3 95 3e ae 8a c3 be 3b 7f 0f 3f
       -0.21343048 0.29263148 -0.38191742 0.56053513
0000a0 a0 f0 85 3e c2 20 e5 be dc f1 f1 3e 39 fe 87 3d
       0.26160145 -0.44751555 0.47254837 0.06640286
0000b0 0e 4b 44 3d 87 dd 95 3e cb bc f8 bd 5c 26 a4 bd
       0.04792314 0.29270574 -0.121453844 -0.08015129
0000c0 20 ad 34 bd d6 ca d7 3e c4 e9 aa 3c a6 8a ee 3e
       -0.044110417 0.4214694 0.020863421 0.46590155
0000d0 ed 8b a2 3c 54 dd b8 bd 34 fa c2 3d 44 22 d9 3d
       0.019842112 -0.0902659 0.09520379 0.10602239
0000e0 09 28 42 3e b9 8c a6 be 01 39 14 be 1c ba 38 3e
       0.18960585 -0.32529238 -0.1447487 0.18039745
0000f0 e5 74 f5 3d 14 e3 08 3e e8 8e b2 3e 2d 7c f3 3d
       0.119851865 0.13367873 0.34874654 0.11888919
000100 1c 8b 02 3b c2 e8 32 be 80 da 14 be c3 15 f2 bd
       0.0019919341 -0.17471603 -0.14536476 -0.11820557
000110 ca c0 0a 3f 6a 57 8c 3d 63 8e 7b 3e 94 3d 79 bd
       0.5420042 0.068526104 0.24566035 -0.06084974
000120 4e 9b 80 be 43 6d c8 be 22 ef 55 be ac 1f 84 3e
       -0.25118488 -0.3914586 -0.20892003 0.25805414
000130 48 bf f4 3b bb b4 bf be af 1c 07 bc 8e 0f 45 3e
       0.0074690916 -0.37442574 -0.008246585 0.19244215
000140 32 21 65 3e
       0.22375944

weight f4 [3]
000000 70 44 87 3f 5f 5c 88 3f 39 83 85 3f
       1.056776 1.065319 1.0430671

bias f4 [3]
000000 70 ba 17 3d fb 6a 51 3d 56 b7 00 3d
       0.037043035 0.051127415 0.031424843

running_mean f4 [3]
000000 4b eb a0 bd 4c c4 66 3f cb 82 6b 3e
       -0.078573786 0.90143275 0.22999112

running_var f4 [3]
000000 28 bc ee 3e 14 5d 17 3f e5 0b a0 3e
       0.46627927 0.591264 0.31259075

weight f4 [3, 3, 3, 3]
000000 58 d9 b2 bd 86 12 e9 3d 2b 64 0d 3e ee 2d 2a be
       -0.08732861 0.11380486 0.13807742 -0.16619083
000010 01 8e 5c 3e 10 22 8c bd 2e 23 16 be 6c c3 7e bd
       0.21538545 -0.068424344 -0.14661857 -0.062198088
000020 fe 42 96 bd e8 b5 50 3e 7a e6 0e be 99 2c d1 3e
       -0.073369965 0.20381892 -0.13955107 0.40854338
000030 21 42 a2 3e 12 a3 26 3e d2 59 8c bb 98 c2 10 be
       0.31691077 0.16273144 -0.0042831684 -0.14136732
000040 36 cc 98 bd a4 50 92 3e b0 4e 49 3e 8f be e4 be
       -0.07460825 0.2857715 0.19658923 -0.44676635
000050 d1 3a 7e 3e f4 f0 e6 be f1 22 48 3e 0f 45 50 be
       0.24827124 -0.45105708 0.19544579 -0.20338844
000060 79 80 60 3d 1b c2 0c be 49 f5 26 bd 53 c5 04 be
       0.05481002 -0.1374592 -0.040761266 -0.12965898
000070 1f 01 d5 be c7 1b 1d 3d 8b f5 81 be 82 47 c2 be
       -0.41602418 0.03835657 -0.25382647 -0.3794518
000080 b6 2d 0d be 25 10 23 be 2e 5d a2 bc ed 07 fe bd
       -0.13786969 -0.15924127 -0.019819822 -0.124038555
000090 a8 95 18 3e ca 80 87 be 61 d0 bc be 12 93 03 bf
       0.1490084 -0.26465446 -0.3687773 -0.51396286
0000a0 c3 7a 57 bd 8a e7 b1 3d b5 f6 09 3e c9 85 a0 3d
       -0.05260731 0.08686741 0.13473018 0.078380175
0000b0 16 00 a5 bd d7 ee 1c bc 91 40 5e be a8 ac e3 3e
       -0.08056657 -0.009578428 -0.21704318 0.44467664
0000c0 bd 14 78 3d 77 3b 10 3e d7 b1 2a 3e 6c 62 79 be
       0.060566653 0.14085184 0.16669403 -0.24353951
0000d0 63 cb e3 bb 63 70 86 be f6 96 13 3e a8 31 77 3d
       -0.006951736 -0.2625762 0.14413056 0.06035009
0000e0 7a 79 a2 be bb a3 07 3f 7c 64 a1 bc a2 4c 7d be
       -0.31733304 0.5298421 -0.019701235 -0.24736264
0000f0 7f a9 a1 be 83 2e dc bd 6d 75 98 be 8f 22 c7 bd
       -0.31574628 -0.10751059 -0.2977709 -0.097233884
000100 dd c9 c6 3e 5b a0 be 3e 60 87 25 3f 0b b5 1a be
       0.38825884 0.37231717 0.6465969 -0.15108125
000110 68 d1 e4 3c 27 b6 f2 bc 42 e8 e2 3e c0 20 d5 3e
       0.027931884 -0.029627873 0.44317824 0.4162655
000120 b6 f2 a3 be 32 d9 d2 be d7 ae 86 bc 10 ce e1 be
       -0.3202111 -0.41181332 -0.016440792 -0.44102526
000130 67 01 15 3e e0 11 8c be b7 69 f9 3d 74 05 95 be
       0.14551316 -0.27357388 0.12178367 -0.29105723
000140 15 29 5c 3e
       0.21500047

weight f4 [3]
000000 00 22 77 3f 34 d1 73 3f 53 2e 89 3f
       0.96536255 0.95241094 1.0717262

bias f4 [3]
000000 8d 72 86 3d fb 65 7a bd 12 21 88 3d
       0.065648176 -0.061132412 0.06646933

running_mean f4 [3]
000000 21 a5 51 3e d5 1f 44 bf 92 52 8e 3e
       0.20473148 -0.7661107 0.2779737

running_var f4 [3]
000000 2c 32 0e 3e 71 f6 84 3f e7 de 8b 3e
       0.13886327 1.0387708 0.27318498

weight f4 [3, 3, 3, 3]
000000 3a 84 d2 3e 76 10 b5 bd 57 92 a4 3e 61 e6 16 be
       0.41116506 -0.0884103 0.32142898 -0.1473632
000010 32 6e 7d 3e e3 61 c9 bd ca 47 f4 bc d9 47 0e 3d
       0.24749067 -0.098331235 -0.029819388 0.034736488
000020 7e fc 0e 3d 60 72 9e bd 42 68 e2 bd 94 5a 25 3d
       0.034908764 -0.07736659 -0.11055042 0.040369585
000030 bb 52 28 3e f4 af a6 be b1 ac e7 3e 2c f8 01 bf
       0.16437809 -0.32556117 0.4524894 -0.50769305
000040 1b fc ad 3d 0b fb 9d 3e 8d 88 f2 3e 0f 6b 71 3c
       0.08495351 0.30855593 0.47369805 0.014734997
000050 e6 c6 7b 3e 4b 4b 2b 3d 72 d7 65 3e 50 4f b3 bc
       0.24587592 0.04181985 0.22445467 -0.021888405
000060 2f cb 8e be de 78 df 3e fe b7 0a 3e 02 27 2f 3e
       -0.27889392 0.43646902 0.1354675 0.17104724
000070 7c 20 d2 be c9 93 15 3f a3 a8 bf bd ef a2 c8 be
       -0.4104041 0.5842863 -0.09358337 -0.39186808
000080 15 f6 ce be 09 ba c4 3d e1 5c 66 3e f4 2a c5 bc
       -0.4042212 0.09605796 0.22496368 -0.024068333
000090 7b 4a e1 3e de af a6 3c 10 7b 05 3e e6 bc 95 3d
       0.44002137 0.020347532 0.13035226 0.0731142
0000a0 f9 89 9d be e9 b6 0d bd 10 50 19 be c8 92 98 be
       -0.30769327 -0.034598265 -0.14971948 -0.29799485
0000b0 56 2e d2 3d 37 bc ea be d3 61 b6 3e ca c4 7c be
       0.10262744 -0.45846722 0.3562151 -0.24684444
0000c0 86 5d 1b 3e 90 15 2f be 48 69 66 be e7 d4 15 3d
       0.15172395 -0.17098069 -0.22501099 0.036579993
0000d0 f3 15 01 bf 97 f8 fa bc d0 72 00 3f b4 58 85 be
       -0.50424117 -0.030636115 0.5017519 -0.26044238
0000e0 70 75 48 3e 58 44 b6 bd bf a8 54 bd 23 cd b0 3d
       0.19576049 -0.08899754 -0.05191874 0.08632877
0000f0 97 58 a1 3e 77 65 c3 3d 66 c6 18 be 17 4e 05 3d
       0.315129 0.09540837 -0.14919433 0.032545175
000100 56 27 d8 bd 3a f7 a2 be 44 b8 09 be 27 9b 5f 3e
       -0.10554378 -0.31829244 -0.13449198 0.2183653
000110 a0 46 bf 3e 74 f7 6f 3e 88 0e e2 bd ab 1e ee 3c
       0.3735857 0.2343424 -0.11037928 0.029067358
000120 f4 db 69 3d b0 f3 5d 3e 2d 21 c6 3d c4 68 83 3e
       0.05709453 0.2167499 0.096742965 0.25665867
000130 f2 45 71 be da ac 83 3e 18 0f 22 3e 37 db 73 3e
       -0.23561838 0.25717813 0.1582607 0.23814093
000140 b0 94 58 3c
       0.013219044

weight f4 [3]
000000 ee 33 b9 3f ab 5d 87 3f 2a 94 b4 3f
       1.4468973 1.057546 1.4107716

bias f4 [3]
000000 ef 47 98 3e 8e e3 c9 3d ba b2 8d 3e
       0.2974238 0.09857856 0.2767542

running_mean f4 [3]
000000 fc fb 4d 3f 3b 9c 16 bf 97 ee 42 3f
       0.8046262 -0.5883214 0.7614531

running_var f4 [3]
000000 d3 fb 9a 3f 80 55 36 3f e6 2e 53 3f
       1.2108101 0.7122421 0.82493436

weight f4 [3, 12, 1, 1]
000000 bb 15 bd 3e 8b 44 a3 3f cb b2 c5 3f e7 60 80 3f
       0.36930642 1.2755293 1.5445188 1.0029572
000010 36 c6 9d be b0 c4 2b 3f a3 fe 86 bf 52 bf 11 bf
       -0.30815285 0.67096996 -1.0546459 -0.56932557
000020 61 09 57 3e 77 99 4d 3f 06 2c bc be 12 bd 1d bf
       0.20999672 0.80312294 -0.36752337 -0.61616623
000030 fa 2a e8 bf 6b aa 01 3d 61 f4 e5 be 4b fa b8 bd
       -1.8138115 0.031656664 -0.4491301 -0.090321146
000040 d9 14 10 3f e4 bd 2d 3e 68 fb 83 3f bd 0a 7f be
       0.5628181 0.16966969 1.0311098 -0.2490644
000050 96 53 bd be c3 78 bf 3f 7c 4f a0 be 34 34 0f 3f
       -0.36977834 1.4958729 -0.31310642 0.5593903
000060 7e 99 36 bf af 0d ee be 01 97 22 bf 1b ba 46 3f
       -0.7132796 -0.46494815 -0.63511664 0.77627724
000070 21 78 d8 bd 30 a0 f4 be d0 1a 51 3f 89 47 4c bf
       -0.10569788 -0.47778463 0.8168154 -0.79796654
000080 cf b3 a3 3f ef 97 99 3f d3 4d 00 3f c3 06 42 3f
       1.2789248 1.1999491 0.5011875 0.7579157

weight f4 [3]
000000 b5 2c 86 3f 1c ac 80 3f 03 a3 6a 3f
       1.0482394 1.0052524 0.91654986

bias f4 [3]
000000 b7 b9 41 3e f0 52 9d 3c 59 a4 f6 bd
       0.18918501 0.019204587 -0.120430656

running_mean f4 [3]
000000 d8 0a ab 3f 17 bb bf 3e 09 3b 4a 3f
       1.3362684 0.37447426 0.7899633

running_var f4 [3]
000000 77 38 74 40 a9 5a 7f 40 2f 49 7e 40
       3.8159463 3.9899085 3.9732168

weight f4 [3, 12, 1, 1]
000000 e7 90 56 bf 6b 32 ed bf c4 34 26 bf cb 5b 42 be
       -0.83814853 -1.8531011 -0.64924264 -0.18980329
000010 43 e3 d6 3d 7c e2 70 3f 06 f1 13 3f 61 f1 4a bf
       0.104925655 0.9409559 0.5778965 -0.79274565
000020 93 95 c8 3f 28 c7 9f be 86 27 a2 3e 45 6f 8b 3f
       1.5670646 -0.31206632 0.3167078 1.0893332
000030 06 17 88 3f 38 63 76 bf c2 cb d2 3f 92 8a 19 bf
       1.0632026 -0.96245146 1.6468432 -0.59977067
000040 81 0f 32 40 b0 d0 8b 3f 28 5e 3b 3f b6 76 69 3f
       2.7821963 1.0923061 0.73190546 0.91196764
000050 5b bf 89 3f 73 97 5e be 92 fd 0b 3f 7d 89 21 3f
       1.0761522 -0.21737461 0.5468379 0.63100415
000060 14 31 dd bd 32 b9 0f 3f 4f f8 1e bf a1 7d 3e be
       -0.108003765 0.5614196 -0.6209764 -0.18602611
000070 6e 30 d6 3e 70 13 30 3e 26 f6 fc 3e fb f7 59 bd
       0.41833824 0.17194915 0.49406546 -0.05321501
000080 77 b7 40 bf 7a 4c 61 be 9c 67 81 bf 68 d8 0e 3f
       -0.75279945 -0.2200183 -1.0109744 0.5579896

weight f4 [3]
000000 22 ff 7f 3f f7 ac 80 3f dd 75 7e 3f
       0.99998677 1.0052785 0.99398595

bias f4 [3]
000000 9f 00 fa 3b 0e b7 09 3d 9c 3f 83 3c
       0.0076294686 0.03362184 0.016021542

running_mean f4 [3]
000000 5d c8 51 be e8 ec 56 40 3d 0c 58 be
       -0.20486589 3.3582096 -0.21098419

running_var f4 [3]
000000 4a 7f 09 40 ce ba 22 41 4d 7f 43 3f
       2.148394 10.170607 0.7636612

weight f4 [3, 12, 1, 1]
000000 4b b1 0f 3f 28 1c 8f bd ab 82 6f 3e 81 13 a2 3f
       0.561299 -0.06987792 0.2338969 1.2662202
000010 f3 d3 88 3f 97 ff 64 3f 0f 05 18 bf 6a 7c 65 bf
       1.0689682 0.894525 -0.5938272 -0.89642966
000020 95 d7 8c 3e 40 c8 df 3d c1 7b 92 be ce 00 22 bf
       0.27508226 0.109268665 -0.28610042 -0.6328248
000030 e6 2f 71 bf 4a 8b be 3e cf 50 9b 3f e4 0b 84 3f
       -0.9421371 0.37215644 1.2134036 1.0316129
000040 46 f0 5f bf 22 eb ad 3f 38 f7 19 bf 51 b2 1b bf
       -0.87476003 1.3587382 -0.6014285 -0.60818964
000050 86 e1 e6 3f 1d 0a de bd 82 48 a2 bf 57 6b e2 be
       1.8037574 -0.10841773 -1.2678378 -0.4422252
000060 13 80 07 c0 ad 44 c2 bd 06 76 19 3e 75 0c c3 3f
       -2.117192 -0.09485755 0.14986429 1.5238177
000070 90 fa 0b 40 21 18 34 3f b3 a6 6d bd cf 33 76 3e
       2.1871681 0.7034932 -0.058020305 0.24043201
000080 b6 09 0e 3f 23 ed a7 3c 06 c9 67 be 36 81 b7 bb
       0.5548357 0.020498818 -0.22635278 -0.00560012

weight f4 [3]
000000 a3 bb 68 3f a0 c1 86 3f ee 28 80 3f
       0.9091131 1.052784 1.0012491

bias f4 [3]
000000 12 04 46 be b1 f1 0c 3e f6 d7 b6 bd
       -0.1933749 0.13764073 -0.0892791

running_mean f4 [3]
000000 de 62 49 3f 3c f0 0b 3f b0 49 b3 3f
       0.78666484 0.54663444 1.4006863

running_var f4 [3]
000000 a6 e0 43 40 b7 e6 7c 40 e0 79 c5 3f
       3.0605865 3.9515817 1.5427818

weight f4 [3, 12, 1, 1]
000000 41 a0 ac bf c2 4a 9d bf 4f 69 2b bf ee 43 a5 3d
       -1.3486406 -1.2288439 -0.66957563 0.08069597
000010 9f 52 b1 3d 8d 90 99 bf 65 07 a4 3f 8e b2 0d bf
       0.08658337 -1.1997238 1.2814757 -0.5535058
000020 20 1c 47 3f 5e 52 40 bf 59 15 eb 3e 37 e9 1a bf
       0.7777729 -0.7512568 0.45914724 -0.6051211
000030 c8 57 eb bd 9e 08 ce 3f df cf 02 40 68 c0 12 be
       -0.11491352 1.609638 2.0439374 -0.1433121
000040 e8 64 62 3e 0b 28 55 3f 73 6b 1e 3f 1b e7 85 3f
       0.22108805 0.83264226 0.61882704 1.0461153
000050 5d 82 79 bf 50 a3 6f 3e b0 d8 c9 3f 3d a6 16 3f
       -0.97464544 0.23402143 1.5769253 0.5884741
000060 c9 7a a1 bf ac 1e 96 3e 1f 74 df 3f 96 92 79 3e
       -1.2615596 0.29320276 1.7457312 0.24372324
000070 49 8a 82 be 03 06 ee be 37 25 06 3f 81 c3 99 3e
       -0.25496128 -0.46488962 0.52400535 0.3003197
000080 f6 aa 41 3e 7a be 4d 3e e0 62 e2 be 33 ed db 3e
       0.18912873 0.20092192 -0.4421606 0.42954406

weight f4 [3]
000000 2c 87 f2 3f 01 bd c7 3f a6 7e ab 3f
       1.8947501 1.5604554 1.3398025

bias f4 [3]
000000 e6 9a c6 3e 84 cc 31 3e bb cd 79 3d
       0.38790053 0.17363173 0.060987215

running_mean f4 [3]
000000 85 7e a7 bf 16 db 4d 40 25 63 76 3f
       -1.3085486 3.216497 0.9624503

running_var f4 [3]
000000 fc 23 02 40 45 ab b5 40 68 36 bd 3f
       2.0334463 5.677157 1.4782228

weight f4 [10, 12]
000000 e9 c6 aa 3c a5 2c a0 3e 31 c6 2a be 4c b5 dc bd
       0.0208468 0.3128406 -0.16677167 -0.10776767
000010 f8 b4 3f 3d 90 ef ee bd e4 0f 1c 3f f9 7c 3c be
       0.046803445 -0.11666787 0.6096175 -0.18407048
000020 ac f0 16 3f 6c 6c 14 bf 93 2d 51 3e 1d 4b 9c bc
       0.58960986 -0.5797794 0.20427541 -0.019078786
000030 d3 69 5f bd 27 17 82 bb 7f b1 9e be 70 38 57 3e
       -0.05454428 -0.003970045 -0.30994794 0.21017623
000040 c5 b8 4b bd 7d 32 bc 3d d6 bb af bd ca 80 9f bd
       -0.049736757 0.091893174 -0.08580749 -0.077882364
000050 ef 09 ca bd 65 4b 10 bf ab 2a 20 3f a9 89 05 3f
       -0.09865176 -0.5636504 0.62565106 0.5216318
000060 1d 96 9a bc 1b 34 45 3e 36 41 51 3e 6b 6f eb bd
       -0.018870408 0.19258158 0.20435032 -0.11495861
000070 fa 74 42 bd 33 19 b5 bd f1 f3 d0 3d 6d 1f e1 3d
       -0.04747484 -0.08842697 0.10202778 0.10992322
000080 31 12 f8 3d 0e 8f d9 3e 07 37 bc be 4e 8d c9 be
       0.12112845 0.42491955 -0.36760733 -0.3936562
000090 0e 98 40 3e 5a 34 10 be d5 29 13 3e 87 d5 d1 3d
       0.18808004 -0.1408247 0.14371426 0.10245805
0000a0 b6 77 5c 3e 24 bc c7 3d f8 47 53 be e8 1e b3 3d
       0.21530041 0.09752682 -0.20632923 0.08746129
0000b0 78 f5 4e be 54 9a d1 3d 42 75 d4 bd 4f e3 5d bb
       -0.20210826 0.10234514 -0.10373928 -0.003385741
0000c0 ec da 46 bd 6d 6d 9d 3b 2d 8b 53 3e 86 99 f5 bd
       -0.048548624 0.0048043043 0.2065856 -0.11992173
0000d0 8a 19 24 be 35 a1 de bd e1 a3 1c be 3e ef 31 3e
       -0.16025367 -0.108705916 -0.1529689 0.1737642
0000e0 0e 5c 1c be b1 ac 1c 3f 48 7c 03 bf ea e4 bc be
       -0.15269491 0.61201006 -0.51361513 -0.36893398
0000f0 af 0f 5c 3e ff 85 32 be 85 37 42 3e 31 fe 13 3d
       0.21490358 -0.17433928 0.18966492 0.036131088
000100 42 ac 55 3e e9 82 3d 3d 65 41 43 be 0e fc 7f 3d
       0.20866492 0.046267424 -0.19067915 0.062496237
000110 2d d3 51 be 58 de 2a 3e 45 97 21 be 15 1e 3b bd
       -0.20490713 0.1668638 -0.15780361 -0.045682985
000120 b2 f8 05 bd 0e 30 48 be 1f b2 a0 3d 8a f6 9c bd
       -0.032707877 -0.19549581 0.07846474 -0.07664211
000130 0f 56 8d bd d7 54 29 3e e0 f5 dd be 68 5c 48 3d
       -0.0690118 0.1653627 -0.4335165 0.04891625
000140 9f 20 c8 be 6b 36 39 3f 35 85 e9 be f7 7d 07 be
       -0.39087388 0.7234866 -0.4560944 -0.13231646
000150 2a 0f 86 3b 84 d9 36 be 96 ee 46 3d cb 2e 85 bd
       0.004091163 -0.17856413 0.048567377 -0.06503066
000160 e1 cd ba 3c c9 e6 b9 3c 99 0d 74 be bb d1 aa 3a
       0.022803249 0.022693055 -0.23833312 0.0013032475
000170 02 3d 69 be f1 c5 af 3e 76 f1 c0 3c c6 d4 16 3c
       -0.22777179 0.34330705 0.023552638 0.009206003
000180 8b 8a 24 be cc f4 6b 3e d3 3e 39 be 7b 4e 80 3d
       -0.16068475 0.23042601 -0.18090372 0.06264969
000190 74 3c af bd 5e 47 c5 bd 41 e7 2a 3f 87 6e 07 be
       -0.085564524 -0.09632753 0.66759115 -0.13225757
0001a0 38 2a 1f 3f c6 30 4e bf a1 cf 08 3e 7b 92 4d 3d
       0.62173796 -0.8054317 0.13360454 0.050188523
0001b0 00 7e 55 bd 0a a2 a7 bd a8 9c 68 be 8e 33 ce 3d
       -0.052122116 -0.081852034 -0.2271601 0.10068427
0001c0 2f 8d 8f bd 6c e9 a2 bc fc 36 52 bd 0d c2 00 be
       -0.070093505 -0.019886695 -0.05132197 -0.12574024
0001d0 5d 7e 04 bd ae 18 ec be 5b 67 1d 3f 67 d6 ef 3e
       -0.032347072 -0.4611258 0.6148583 0.46843264

bias f4 [10]
000000 3c bd 46 be 32 3e 5c be a8 bc 26 3e 0c 79 27 3e
       -0.19408125 -0.215081 0.16282904 0.1635477
000010 69 8f 5f 3e 4c e1 3c 3e 4f ee b1 bd fa 24 b8 bd
       0.2183205 0.18445319 -0.08688032 -0.08991428
000020 c0 a6 ec 3d 67 7a 84 be
       0.115552425 -0.25874636
