prerequisite_task/test4/my_model.pth (torch, 29923 bytes, 42 tensors)

weight f4 [12, 3, 3, 3]
000000 3b 36 69 bd 2a 74 ea 3c 1b a0 0c 3e 94 2f bd 3d
       -0.056936484 0.028619844 0.1373295 0.092375904
000010 a1 27 76 be 4f e2 0f be 05 5f 94 be cc 36 d0 ba
       -0.24038555 -0.14051174 -0.28978744 -0.0015885471
000020 c8 97 47 be d1 44 68 be 6e 54 86 bd 55 b7 68 bc
       -0.19491494 -0.22682501 -0.065590724 -0.014203866
000030 53 60 c0 3d 0d a3 b3 3c 69 e0 d5 bc 95 0f ae bd
       0.093933724 0.021928335 -0.026107984 -0.08499066
000040 e0 5d ae bd 1e f5 ae be c4 c1 2d be 5e c5 8a bd
       -0.08513999 -0.34171385 -0.16968447 -0.06775926
000050 35 21 05 bd 90 a7 41 3e a3 f8 cb 3e 87 97 56 bc
       -0.03250237 0.18911576 0.39838132 -0.01309765
000060 c2 e1 6d bd 6f ae 0e 3d 33 fa e6 ba c4 c3 39 bd
       -0.058076628 0.03483432 -0.0017622173 -0.045352712
000070 4b 70 f1 3c f9 31 47 3e 0f 90 70 3d fe 0f a6 bd
       0.02947249 0.19452657 0.058731135 -0.08108519
000080 f3 4e 37 3d 99 4a dd 3d 85 11 70 bd 01 b9 ec bd
       0.044753026 0.10805244 -0.058610458 -0.11558724
000090 d0 83 b1 bd 71 e5 7c 3e f4 45 42 3e 46 7b 04 3e
       -0.08667719 0.246969 0.18971997 0.1293765
0000a0 3c 28 35 be db 91 00 3e 68 8b 8d 3d dc 22 8c bc
       -0.1769113 0.1255564 0.06911355 -0.017106466
0000b0 d7 a2 c3 bd 96 d0 52 3e 26 32 48 bd ff 50 28 be
       -0.095525436 0.20587382 -0.04887595 -0.16437148
0000c0 8c f8 3c 3d 12 91 36 3d 13 57 77 be 82 17 0d bd
       0.04613547 0.044571944 -0.2415431 -0.034446247
0000d0 32 ab c1 3d d6 1e 0f be b6 01 43 be d4 cb 66 3e
       0.09456481 -0.13976607 -0.19043621 0.22538692
0000e0 6a cf 81 3e 5f 3c 42 3e 5d a2 31 3e 7a 16 fe bd
       0.25353557 0.18968342 0.17347093 -0.12406631
0000f0 4c a4 c3 bc f4 8a 04 be 22 bc 30 bd 5b bc 00 be
       -0.023882054 -0.12943631 -0.043148167 -0.12571852
000100 b2 03 0f 3e 12 c3 4f 3d 18 67 40 be 55 ce cb 3d
       0.13966253 0.050723143 -0.18789327 0.09951464
000110 38 ae 0b be b7 0c d7 3d 24 9c 6f bd 0b be 4c 3d
       -0.13640678 0.10500472 -0.058498517 0.049985927
000120 c3 ab 64 3d f5 6e 5d bd bc 3f 5c bc ca bf c5 bd
       0.055827867 -0.054060895 -0.01344293 -0.096557215
000130 42 e8 b6 3d a7 b4 87 be 58 8a e3 bd 60 08 0d bc
       0.089310184 -0.26505014 -0.11110371 -0.008607954
000140 7d 92 84 bd 94 e6 c4 bc bb 4a d1 bd 94 f4 b8 3e
       -0.06473253 -0.02403573 -0.10219332 0.36124098
000150 67 9d ec bd 74 fb 76 3d 4e e9 0a 3e 3b 35 ec bd
       -0.115534596 0.060298398 0.13565561 -0.115335904
000160 c0 6c 0f be 75 f4 40 3e 3b 75 91 3e a7 a9 96 3e
       -0.14006329 0.18843253 0.28409752 0.2942631
000170 f7 db 8b 3d ba eb b9 3d ef 6e ca bd 6a e8 bc bc
       0.06829064 0.090781644 -0.0988444 -0.023060042
000180 21 4f 60 3d c9 76 9e bc 12 5c 3e 3d 19 ca e7 bc
       0.054762963 -0.01934375 0.046474524 -0.02829461
000190 8f d5 33 3e 66 0b 14 be 63 8c d5 bc 13 bf 50 3d
       0.17561935 -0.14457473 -0.026067918 0.050963473
0001a0 7b e0 6f be 4a 17 41 3e ed f9 a5 3c 0a db 3b bc
       -0.23425476 0.1885654 0.020260775 -0.011465797
0001b0 2a 1b 89 3e 49 74 b0 3d 2d 0b 18 3e 12 d1 80 bd
       0.26778537 0.0861593 0.14848013 -0.06289877
0001c0 0c 56 59 3d a8 e9 69 3e e3 e3 17 be a6 d0 05 3d
       0.053060576 0.22843039 -0.14833026 0.032669686
0001d0 c2 b4 1a 3b 2c ec 9c bd 46 dd 11 3e 3d b1 52 bc
       0.0023606275 -0.07662234 0.14244565 -0.01285964
0001e0 ed c3 ce bd 0c 43 8f 3d 96 ff 29 be a1 3b 2e be
       -0.100959636 0.0699521 -0.16601405 -0.17014934
0001f0 03 90 33 bd 5a 50 42 bd e5 fa 03 be ab 37 a0 be
       -0.043838512 -0.04743991 -0.12888677 -0.3129247
000200 26 a4 74 3e 3a 41 62 bd be ac 86 3d 7b 32 37 be
       0.23890743 -0.055237986 0.06575917 -0.1789035
000210 07 4d 2d be 73 61 03 be 87 0b c2 3b 07 41 7a be
       -0.16923915 -0.12830143 0.0059217843 -0.24438868
000220 a8 c0 ea bd a0 6d 91 3b 53 d0 bf bd e2 74 a0 bd
       -0.114625275 0.004438117 -0.093659066 -0.078347936
000230 2a 6b 6f 3d 46 13 d3 bd 8a 46 c3 3c 77 9c ad 3b
       0.05845181 -0.103064105 0.023837347 0.005298193
000240 62 c8 9b bb 22 e1 a3 3d 2f b2 e7 bc bf 96 a1 bd
       -0.004754112 0.08001925 -0.028283207 -0.07890081
000250 7b c6 40 3d d6 dd 8f bd 7d 84 83 3e 69 09 e7 bd
       0.047064286 -0.07024734 0.25687018 -0.11281092
000260 0a ce 09 be 4d 9a 3a 3e a9 18 55 be 6e 39 b3 bc
       -0.13457504 0.18222924 -0.20810188 -0.02187797
000270 ef e4 6d 3e 39 05 4b be 67 8b 0e 3e d5 38 40 3e
       0.23231862 -0.19826211 0.13920365 0.1877168
000280 40 14 60 3d af 29 13 3a 9e 85 9c 3c 97 bb 19 3e
       0.054706812 0.00056138163 0.019106682 0.15012966
000290 6e 19 04 3d 56 50 87 bd 6b cb 5e bc 91 ef 73 3d
       0.032250814 -0.0660712 -0.013598303 0.05955464
0002a0 02 64 19 3e 6e e7 ca 3d 85 63 26 3d cc d9 22 3e
       0.14979556 0.09907423 0.040622253 0.15903395
0002b0 02 c5 8e 3d d0 a7 8b bd 65 46 6c 3d 81 37 de bb
       0.0697117 -0.06819117 0.05768432 -0.006781519
0002c0 8e 10 b0 bd 34 f3 82 bd fd cc 9b bd 50 8e 4c 3e
       -0.085969076 -0.063940436 -0.07607458 0.19976163
0002d0 a3 12 ac 3d 2e 84 0b 3e 34 d7 cb bd 36 06 ba 3e
       0.08401992 0.13624641 -0.09953156 0.36332864
0002e0 44 99 48 be e0 86 47 be de 02 75 3c e6 43 04 be
       -0.19589716 -0.19485044 0.014954297 -0.12916526
0002f0 99 68 c4 bd 9c 80 49 3e 55 7b 5c 3c 06 96 90 3d
       -0.09590263 0.19677967 0.013457139 0.07059865
000300 02 30 b2 bc d2 06 ba bc 0b 8f 7b 3e 26 cc 57 bd
       -0.021751408 -0.02270833 0.24566285 -0.052684925
000310 b1 fd 8b bd f0 ff 0c be c4 24 af 3d ce 7f 71 3e
       -0.06835497 -0.13769507 0.08551934 0.2358391
000320 bd a7 a0 3d 9b 95 be 3d 97 4f 48 3d 31 c0 81 3e
       0.078444935 0.09305879 0.048904028 0.25341943
000330 02 c0 75 bd 02 16 ec bc f2 91 38 3e f4 ea 70 3c
       -0.059997566 -0.028819088 0.18024424 0.014704455
000340 58 2e 66 bc 80 a7 f7 3d 33 7c fc 3d 7d e6 01 3e
       -0.014049135 0.12092495 0.123283766 0.1268558
000350 ef ec 51 be a9 93 7d be 56 f1 f7 bd 5e e0 c4 3c
       -0.20500539 -0.24763359 -0.12106578 0.024032768
000360 30 c8 8b be 8c 78 ce bc e0 88 63 3d d8 bb 1e bd
       -0.27301168 -0.025203966 0.055550456 -0.03875336
000370 d3 d6 29 bd b4 42 e0 bd 2a 48 9c bd d2 4a e4 3d
       -0.041464638 -0.109502226 -0.07630952 0.11147083
000380 7c 4c 1a be 70 4b 99 bd 20 a0 92 bc 32 b5 18 3c
       -0.15068239 -0.07485092 -0.01789862 0.009320544
000390 07 70 b7 bd a2 de 92 bd 20 00 ca 3c 88 23 c2 bd
       -0.089569144 -0.0717137 0.024658263 -0.09479433
0003a0 b3 76 da 3d 64 1c 72 3d d1 dc 29 3e 07 c0 51 3c
       0.10667171 0.059109107 0.16588141 0.012802131
0003b0 eb de 88 be 60 fd bb bd ef dc af 3d 7b b8 b5 3e
       -0.26732573 -0.09179187 0.085870616 0.3549231
0003c0 2c ca ab 3d 85 84 c5 3d 66 3a 96 be 14 f6 83 3e
       0.083881706 0.09644417 -0.2934143 0.2577368
0003d0 07 44 3a 3e 60 0e 5c 3d 85 26 69 bd 7b 69 77 be
       0.18190013 0.053724647 -0.0569215 -0.24161331
0003e0 cb 51 71 3e 14 c0 18 be 45 05 05 3e 63 5c 2a be
       0.23566358 -0.14917022 0.12990291 -0.16636805
0003f0 e6 4c eb bd 1e 03 aa bd ad a1 2f be 03 e7 c9 3d
       -0.114892766 -0.08301376 -0.17151518 0.09858515

weight f4 [12]
000000 00 00 80 3f 00 00 80 3f 00 00 80 3f 00 00 80 3f
       1.0 1.0 1.0 1.0
000010 00 00 80 3f 00 00 80 3f 00 00 80 3f 00 00 80 3f
       1.0 1.0 1.0 1.0
000020 00 00 80 3f 00 00 80 3f 00 00 80 3f 00 00 80 3f
       1.0 1.0 1.0 1.0

bias f4 [12]
000000 00 00 00 00 00 00 00 00 00 00 00 00 00 00 00 00
       0.0 0.0 0.0 0.0
000010 00 00 00 00 00 00 00 00 00 00 00 00 00 00 00 00
       0.0 0.0 0.0 0.0
000020 00 00 00 00 00 00 00 00 00 00 00 00 00 00 00 00
       0.0 0.0 0.0 0.0

running_mean f4 [12]
000000 00 00 00 00 00 00 00 00 00 00 00 00 00 00 00 00
       0.0 0.0 0.0 0.0
000010 00 00 00 00 00 00 00 00 00 00 00 00 00 00 00 00
       0.0 0.0 0.0 0.0
000020 00 00 00 00 00 00 00 00 00 00 00 00 00 00 00 00
       0.0 0.0 0.0 0.0

running_var f4 [12]
000000 00 00 80 3f 00 00 80 3f 00 00 80 3f 00 00 80 3f
       1.0 1.0 1.0 1.0
000010 00 00 80 3f 00 00 80 3f 00 00 80 3f 00 00 80 3f
       1.0 1.0 1.0 1.0
000020 00 00 80 3f 00 00 80 3f 00 00 80 3f 00 00 80 3f
       1.0 1.0 1.0 1.0

weight f4 [4, 4, 1, 1]
000000 a5 e6 dd 3e 0a f7 e0 3d a5 fa d0 bd b0 72 98 bf
       0.4334003 0.10984619 -0.10204057 -1.191
000010 17 37 1b be c1 6d 18 bf 3d 87 09 40 e7 f5 ce be
       -0.15157734 -0.5954247 2.1488793 -0.40421984
000020 28 76 b4 3e 75 44 63 bf 4b 98 98 bf a1 f2 d4 bf
       0.35246396 -0.8877633 -1.1921476 -1.6636544
000030 e1 8b 19 bf 74 51 5a bf 92 89 06 bf 66 4c 82 3e
       -0.59979063 -0.8528054 -0.52553666 0.25448912

weight f4 [4]
000000 00 00 80 3f 00 00 80 3f 00 00 80 3f 00 00 80 3f
       1.0 1.0 1.0 1.0

bias f4 [4]
000000 00 00 00 00 00 00 00 00 00 00 00 00 00 00 00 00
       0.0 0.0 0.0 0.0

running_mean f4 [4]
000000 00 00 00 00 00 00 00 00 00 00 00 00 00 00 00 00
       0.0 0.0 0.0 0.0

running_var f4 [4]
000000 00 00 80 3f 00 00 80 3f 00 00 80 3f 00 00 80 3f
       1.0 1.0 1.0 1.0

weight f4 [4, 4, 3, 3]
000000 98 a3 29 3e 7f 46 e5 3d 80 f9 31 3d c1 e3 dd 3d
       0.16566312 0.11195087 0.043450832 0.10834456
000010 25 49 97 3d bd 39 a5 be 7c 79 a8 3e 06 b9 28 3e
       0.07386998 -0.32270613 0.32905185 0.16476831
000020 58 4d c7 3e 56 28 e4 3d d8 59 97 3d 57 6d ad be
       0.38926196 0.11140506 0.07390183 -0.33872482
000030 a3 06 9d 3d e5 68 bd be 95 36 ca 3e 77 c3 a9 3e
       0.076672815 -0.3699409 0.39494768 0.3315694
000040 36 31 cf 3d 32 75 85 be 3d ba 94 bd 81 69 4c 3e
       0.10116808 -0.26065975 -0.07262085 0.19962122
000050 61 f8 0c 3e bb 89 ce bd 28 56 86 3d bd 5a 0b 3e
       0.13766624 -0.10084864 0.06559402 0.13608833
000060 a4 c0 df bd 73 8e 38 3e 61 24 9e be 7a d3 c2 3d
       -0.10925415 0.1802309 -0.3088713 0.09512992
000070 70 f6 1e 3e dc 29 cf 3e 0d 4e 81 3e 92 f4 af 3c
       0.15523696 0.40461624 0.2525486 0.021478925
000080 ab ae 25 bd 8d e9 5b be 43 96 9a bd ce 55 aa 3e
       -0.04044978 -0.21475811 -0.075481914 0.3326859
000090 b0 2d ef be a2 f4 27 3e 6e c9 74 be c3 79 a0 3e
       -0.46714544 0.16401914 -0.23904964 0.31342897
0000a0 7b 44 9d bd 6f 6c cf be cc bb 52 be ef a6 75 3e
       -0.07679077 -0.40512416 -0.20579451 0.23989461
0000b0 5d a4 1f 3d b0 65 e8 bc 07 4e de bd 7f 76 d5 bd
       0.03897511 -0.0283688 -0.10854726 -0.10422992
0000c0 62 8c 5e 3e 62 f8 28 be d0 e0 b8 3e 2f bd 5f 3e
       0.2173324 -0.16501 0.36109018 0.21849512
0000d0 ca df 1b 3e 98 a5 3a be 20 76 bc 3e 7b f7 2f be
       0.15222088 -0.18227232 0.36808872 -0.1718425
0000e0 2a 18 07 be 9b 7e 9c 3d ec 68 73 be df d3 7f 3e
       -0.13192812 0.076413356 -0.23770493 0.24983166
0000f0 fb 1b 30 3e a3 8c cd bd e1 76 e6 bd 64 07 d0 3d
       0.17198174 -0.1003659 -0.11253143 0.1015766
000100 e8 b7 d3 3d 83 83 bf 3e a9 f2 b2 3e 3a 3c 07 3e
       0.10337812 0.37405023 0.3495076 0.13206568
000110 f4 09 35 3e 28 b4 c9 bd 7d 90 5e 3e 39 67 7e 3e
       0.17679578 -0.09848815 0.21734805 0.24844064
000120 bb e3 7a 3e ee 09 e0 3e cf eb 3a 3e 79 e9 23 3f
       0.24500935 0.43757576 0.18254016 0.64028126
000130 7f 9e 94 be 81 08 07 3c f5 26 21 3b c2 f4 c7 be
       -0.29027173 0.008241774 0.002458987 -0.39053923
000140 03 73 33 3d ef e4 01 be d2 e8 9f 3d 56 01 37 be
       0.043810856 -0.12684987 0.07808079 -0.17871603
000150 23 cf a3 3e 01 bf 08 bf 5e 18 3e be bd 96 ce bc
       0.3199397 -0.5341645 -0.18563983 -0.025218362
000160 54 4e 7b 3d 54 e6 f4 be 33 f4 45 3e c1 41 25 be
       0.061353996 -0.47831976 0.19331436 -0.16138364
000170 3b 62 3a 3e 1e d4 35 ba 65 a6 bd 3e 66 d8 9f 3e
       0.18201534 -0.000693621 0.3704101 0.31219786
000180 1d 15 71 be 8f 7e 7f be 9f 26 25 be 7f 4a d0 be
       -0.2354321 -0.24950622 -0.16128014 -0.40681836
000190 f1 37 10 bd 7c 70 71 be 15 ab f0 bd d6 16 d4 3d
       -0.0352096 -0.23578066 -0.11751381 0.10355918
0001a0 e4 cd 1d 3d e5 e2 4c 3d 42 0a 54 bd 8a 0e 73 bd
       0.03852643 0.05002107 -0.051767595 -0.059340037
0001b0 0b 56 5a be dc 03 81 3d 57 2a 97 3d 9e c6 87 3d
       -0.21321885 0.06299564 0.073811226 0.0662968
0001c0 10 88 44 3d 02 6d f5 bc bb 71 61 be ec cc 7b 3e
       0.04798132 -0.029959206 -0.22016041 0.2458989
0001d0 59 ab 4c be ff ca 18 3d 1a a9 fa 3d a5 3f 52 bd
       -0.19987239 0.037302967 0.12239285 -0.051330227
0001e0 07 41 d0 bd b8 7d 7b 3e 81 8f 80 3c 76 c5 1c be
       -0.10168653 0.24559677 0.015693428 -0.153097
0001f0 b3 e6 b0 3d 91 45 aa bd c9 17 03 3e 8f b2 1c be
       0.086377524 -0.0831405 0.12802042 -0.1530249
000200 d7 3f 96 3b e5 76 12 bd 22 94 06 3e e5 09 c7 3e
       0.004585247 -0.035757918 0.13142446 0.38874736
000210 3d a8 4b 3d 8d 62 9e 3b 44 a9 cb bd 1a 3b 83 bd
       0.04972099 0.0048335255 -0.09944394 -0.06407757
000220 ca a9 23 3e 62 c8 93 bd 8a c5 c2 be d9 02 dc 3c
       0.15982738 -0.07215954 -0.38041335 0.026856827
000230 9e 49 e9 3d 18 13 14 3e f3 a6 b4 3d 11 22 e4 3e
       0.113909945 0.14460409 0.088209055 0.4455724

weight f4 [4]
000000 00 00 80 3f 00 00 80 3f 00 00 80 3f 00 00 80 3f
       1.0 1.0 1.0 1.0

bias f4 [4]
000000 00 00 00 00 00 00 00 00 00 00 00 00 00 00 00 00
       0.0 0.0 0.0 0.0

running_mean f4 [4]
000000 00 00 00 00 00 00 00 00 00 00 00 00 00 00 00 00
       0.0 0.0 0.0 0.0

running_var f4 [4]
000000 00 00 80 3f 00 00 80 3f 00 00 80 3f 00 00 80 3f
       1.0 1.0 1.0 1.0

weight f4 [4, 4, 3, 3]
000000 67 cf de bc ef c2 74 be fd 5f 8d 3e aa 8a 2c be
       -0.027198507 -0.23902486 0.27612296 -0.16849771
000010 44 71 b2 bd c7 cd 3a 3e cd 39 42 3d f1 bc 5b 3e
       -0.0871301 0.1824256 0.047418404 0.21458794
000020 77 ef 36 3e 72 3f 96 be b4 c2 16 bf eb 84 5f 3e
       0.17864786 -0.2934528 -0.58890843 0.21828048
000030 2e dd d3 3d 2f 9c 0c 3e a5 85 69 3e 91 fa fb 3d
       0.10344921 0.13731454 0.22804888 0.12303651
000040 89 39 2d 3e bd fc 59 3d c2 cf 61 3e b2 db 77 3d
       0.16916479 0.053219546 0.2205191 0.060512252
000050 ac 9a fd 3d a2 22 81 bc 38 9f 27 3e 1c f7 17 be
       0.12383017 -0.015763585 0.16369331 -0.14840358
000060 99 1e c3 bd 84 cb d0 3c a5 fa 07 bc d3 58 38 3e
       -0.095273204 0.025487669 -0.008299504 0.18002634
000070 56 1f b1 bd 51 8a 18 3e 68 a0 1a bd 97 ad b9 3d
       -0.08648555 0.14896514 -0.03775063 0.09066313
000080 b2 a1 fc be 3e 5a 38 be d8 1b 1d be 4a 23 ed be
       -0.49342114 -0.18003175 -0.15342653 -0.46315986
000090 11 bb 92 be 01 f0 a1 3e 88 45 2e be 41 37 0c be
       -0.28658345 0.3162842 -0.17018712 -0.13692953
0000a0 bd 06 0b bf 99 f7 54 3e 80 8f a3 3d 15 00 80 bd
       -0.54307157 0.20797576 0.07986355 -0.06250016
0000b0 a6 5a 0a be b8 37 14 3f 34 8b ac be 9e a7 3b bd
       -0.13511142 0.5789752 -0.33699954 -0.04581415
0000c0 ac 49 de 3e b7 56 e3 be 61 11 aa bd cc 09 fe 3d
       0.43415582 -0.44402096 -0.08304096 0.12404212
0000d0 fd 52 31 be e1 c8 09 3e 5a 38 4c be fc 8e 57 3e
       -0.17316814 0.13455535 -0.19943371 0.21050638
0000e0 65 91 cf 3e a4 3b 0b 3d 29 20 52 3e 0a 3a 05 be
       0.40540615 0.033992425 0.2052008 -0.13010421
0000f0 84 d2 5c be 79 e9 1a be fe fa 17 3b ac c3 b8 be
       -0.2156468 -0.15128125 0.0023190374 -0.36086786
000100 cc 73 9c be 91 93 be 3c 69 64 7a 3d 40 1c 6d 3e
       -0.30557096 0.023263725 0.061130915 0.23155308
000110 b3 7c 5b 3d e0 c2 9e 3d 55 e4 22 bf 6d 4a 88 be
       0.05358572 0.07752013 -0.6362966 -0.26619282
000120 a1 4e 09 3e 03 fc 33 be 3d 9d e5 3c 4f 68 25 3e
       0.13408901 -0.17576604 0.028029079 0.16153072
000130 e0 57 0f bf 02 42 00 be 7f a1 74 bd e5 61 9f 3e
       -0.5599346 -0.1252518 -0.059724327 0.31129375
000140 e5 82 46 be 27 d5 5e 3d 5f 6c 4a be d4 6d 8d bd
       -0.1938587 0.054402497 -0.19767903 -0.06905714
000150 e7 d0 00 3e db 83 d2 3e 75 27 56 be cc 66 cc bd
       0.1257969 0.41116223 -0.20913489 -0.099805444
000160 86 83 ab 3e aa 01 6f 3e 17 06 7d be 46 9b c9 bd
       0.33498782 0.23340479 -0.24709354 -0.09844069
000170 24 87 7e 3a db 88 5f be 10 92 91 3d 0a 4e 0a 3e
       0.00097094686 -0.2182955 0.07107937 0.13506332
000180 ff 6b b5 be bf 10 c5 bd 08 79 2d 3d f2 0e c8 3e
       -0.35433957 -0.09622335 0.042351753 0.39073902
000190 23 20 b7 be b1 0e 5a be 6c b6 4e be 1c 4e e7 3d
       -0.35766706 -0.21294667 -0.20186776 0.11294195
0001a0 3c 32 57 be 27 d6 10 3f 8f f4 27 be 43 a2 b0 3e
       -0.21015257 0.5657677 -0.16401885 0.34498796
0001b0 0a 2a cc be d5 9a fa bd 61 20 6d be 95 52 8b 3e
       -0.39875823 -0.12236563 -0.23156883 0.27211443
0001c0 bd 91 bb 3e 9e c9 b9 3e 78 d3 06 be ba e7 81 3d
       0.36634627 0.36286634 -0.13166606 0.063430265
0001d0 f3 b9 9e 3d 27 ac 33 3d 96 a2 99 3c 96 9d c2 bd
       0.07750311 0.04386535 0.018754285 -0.095027134
0001e0 cb 38 b1 bc 65 ba d9 bd 4f 6b bb bd 58 e5 8f 3e
       -0.021633526 -0.10631255 -0.09151327 0.28104663
0001f0 b9 9a b6 3d d8 7d 80 3e 86 cc ac 3c e6 69 00 be
       0.0891623 0.2509601 0.021093618 -0.12540397
000200 8f 8d 8c 3e ce 7d fe bd 17 b4 8f 3d b3 bf 7b be
       0.2745175 -0.12426339 0.07016771 -0.24584846
000210 20 38 91 3e e5 41 c5 3e 85 b7 11 bd 2a 18 aa 3d
       0.28363132 0.38526836 -0.03557541 0.0830539
000220 18 ce 39 3d 0f 8d 87 be 06 35 5c bc 80 9f ca 3e
       0.045362562 -0.26474807 -0.013440376 0.39574814
000230 a8 61 15 3e d1 1e 51 3e 83 97 0f 3e 14 5d d1 bd
       0.14588034 0.20421912 0.14022641 -0.10222831

weight f4 [4]
000000 00 00 80 3f 00 00 80 3f 00 00 80 3f 00 00 80 3f
       1.0 1.0 1.0 1.0

bias f4 [4]
000000 00 00 00 00 00 00 00 00 00 00 00 00 00 00 00 00
       0.0 0.0 0.0 0.0

running_mean f4 [4]
000000 00 00 00 00 00 00 00 00 00 00 00 00 00 00 00 00
       0.0 0.0 0.0 0.0

running_var f4 [4]
000000 00 00 80 3f 00 00 80 3f 00 00 80 3f 00 00 80 3f
       1.0 1.0 1.0 1.0

weight f4 [4, 4, 3, 3]
000000 6b 09 06 3d 4e 62 46 be cb 83 17 3d b7 11 4f 3e
       0.032723825 -0.19373438 0.036990922 0.20221601
000010 d5 14 5d be 9b 8a a9 3d 71 60 35 be 2e 94 71 3e
       -0.21589978 0.0827839 -0.1771257 0.23591682
000020 e4 9b a5 3e 21 f4 8e bd 61 12 3c be 00 77 86 be
       0.32345498 -0.06980158 -0.18366386 -0.26262665
000030 9e 89 ad 3e e0 d2 0c 3e fb 8b b4 be ed 03 a8 3e
       0.33894056 0.13752317 -0.35263047 0.32815495
000040 a3 83 ce bd c0 13 e1 bd 75 96 ed 3d 29 9b fb be
       -0.100837015 -0.10990095 0.11600963 -0.49141815
000050 e4 c3 9d 3e c5 d1 05 be 67 be 03 3e c4 dc 16 3e
       0.30813515 -0.13068302 0.12865601 0.14732653
000060 26 b1 68 bd 24 4f 12 be 1f d2 3d bd ee 8d c8 bd
       -0.056809567 -0.14288002 -0.046342965 -0.09792696
000070 71 26 65 3d ba 79 49 bc 4c 25 9f bd 0a 5e 45 3e
       0.055944864 -0.012297088 -0.07770786 0.19274154
000080 c2 22 b0 bd 02 ff 51 3e 44 77 fa be db ed 4c be
       -0.086003795 0.20507434 -0.48919117 -0.2001261
000090 c5 27 86 3e a7 30 b2 3d 58 a7 99 3e 45 38 c9 be
       0.26202217 0.08700686 0.30010486 -0.39300743
0000a0 c4 2b 04 bf 4e 8c 96 be 8d a2 59 3e 34 3b 3b 3e
       -0.5162928 -0.2940392 0.21253414 0.18284303
0000b0 df a1 c6 3e 4b f5 85 be 92 78 10 be ff 7b 13 3c
       0.38795373 -0.26163706 -0.14108494 0.009001731
0000c0 2f 4a 2b 3d c1 e1 db bb 68 fc 64 be ba 21 5e 3b
       0.041818794 -0.0067102616 -0.2236191 0.0033894614
0000d0 9e d2 36 be 15 62 af 3d 21 9b 9c 3c f6 ef 22 be
       -0.17853782 0.085636295 0.01911694 -0.1591185
0000e0 5e dc e4 bd 2b ad 8d be 28 b9 3a bf 62 4c b1 3d
       -0.11174844 -0.2767118 -0.72938776 0.08657147
0000f0 e5 7e 82 3e 76 6b ee be 93 95 43 3e d8 54 9e be
       0.25487438 -0.4656636 0.19100027 -0.30924106
000100 8c 70 f9 be a0 f7 c1 bd 2f 66 e4 3e 62 18 fb 3d
       -0.4871868 -0.09471059 0.4460921 0.1226051
000110 6d d9 2c 3d 98 e9 86 be cc ef 97 3e 13 b5 a2 be
       0.04219954 -0.26350093 0.29675138 -0.31778774
000120 e2 15 3e 3e e0 26 12 3e 30 4e 36 3e bd 7d ac be
       0.18563035 0.14272642 0.17803264 -0.3368968
000130 60 f9 ba 3e b8 95 4e bd 42 28 da 3c 3c 91 18 bc
       0.36518383 -0.05043575 0.026630525 -0.00931197
000140 17 b5 14 3e 7d 5d 39 bd 14 a9 fe be ba f4 96 be
       0.14522205 -0.045255173 -0.4973837 -0.29483587
000150 fc c7 52 be 5a e4 5d 3c a2 0e 76 3c 27 e2 6d bd
       -0.205841 0.013543213 0.015018137 -0.058077004
000160 85 a5 32 bd 19 83 a5 3e a5 d8 33 3e 04 b8 b1 3e
       -0.043614883 0.32326582 0.17563112 0.34710705
000170 38 0b c6 be 3a 05 9d bd 9a 27 07 3d 98 0d 0f be
       -0.38680434 -0.076670125 0.03299675 -0.1397003
000180 56 cf ac be 76 5e 5e be ec 50 4d be 36 43 ca 3d
       -0.33751935 -0.21715721 -0.200504 0.09876101
000190 ba a1 b6 3c 96 87 87 be 64 7a f0 3d 39 cf 5b 3e
       0.022293914 -0.2647063 0.11742094 0.21465768
0001a0 d0 6c d0 3d 7d 14 05 bd 5f 83 c9 3d de f2 7d 3d
       0.10177004 -0.032490242 0.0983951 0.061999194
0001b0 63 df 90 3c 9f 25 b8 3e 98 ab 9f 3d a2 36 d4 3c
       0.017684644 0.35966203 0.07796401 0.025904957
0001c0 00 70 e3 bc 9f 9c 0e be ff d7 69 3e f2 8e 8d 3d
       -0.027763367 -0.13926934 0.22836302 0.0691203
0001d0 c2 b1 2b be d8 1a 72 be 93 d0 99 3e b4 49 ab be
       -0.16767028 -0.23643053 0.30041942 -0.3345467
0001e0 40 18 94 3d a3 46 b2 bd 52 53 97 bc 0e 42 34 bc
       0.07231188 -0.08704879 -0.018472347 -0.011002077
0001f0 72 1c 18 be ef 98 ae 3c 8f d4 3a 3e ce 8b 39 3e
       -0.14854601 0.021313159 0.18245147 0.18119738
000200 20 55 3b be 64 e2 e8 bd 09 4b 98 3e 84 c8 65 3d
       -0.18294191 -0.113713056 0.29744747 0.05609943
000210 66 fc 14 bf f7 6d fc 3e e7 ae b1 be 64 14 be be
       -0.5819763 0.49302647 -0.34703752 -0.37124932
000220 d3 01 8b 3e 0b 79 a3 3e c3 36 49 3d 57 3f 85 3d
       0.2714983 0.31928286 0.04912449 0.06506222
000230 26 27 43 3e 0b c5 3a be 8e c1 4d 3e 45 4f 7b be
       0.19057903 -0.18239228 0.20093367 -0.24541958

weight f4 [4]
000000 00 00 80 3f 00 00 80 3f 00 00 80 3f 00 00 80 3f
       1.0 1.0 1.0 1.0

bias f4 [4]
000000 00 00 00 00 00 00 00 00 00 00 00 00 00 00 00 00
       0.0 0.0 0.0 0.0

running_mean f4 [4]
000000 00 00 00 00 00 00 00 00 00 00 00 00 00 00 00 00
       0.0 0.0 0.0 0.0

running_var f4 [4]
000000 00 00 80 3f 00 00 80 3f 00 00 80 3f 00 00 80 3f
       1.0 1.0 1.0 1.0

weight f4 [4, 12, 1, 1]
000000 61 12 16 bd 5c 95 30 bf 62 da be be 1d c1 b2 be
       -0.03663862 -0.68977904 -0.37275988 -0.3491296
000010 ac 38 6f 3f 9b 50 80 3f 84 47 83 be 19 a1 36 bf
       0.9344585 1.0024599 -0.256405 -0.71339566
000020 23 e2 b3 be df 87 0e bf b8 c4 61 3e 02 60 e2 3e
       -0.35133466 -0.5567607 0.22047698 0.44213873
000030 1b f5 19 be 81 a9 58 be 79 1a a0 3f 69 90 b8 be
       -0.15034907 -0.2115841 1.2508079 -0.36047676
000040 96 7a ed 3e e8 59 6d bf 4c f1 5a 3f 80 86 c0 bf
       0.46382588 -0.9271531 0.8552444 -1.5041046
000050 53 f2 aa be d1 f9 31 bf 25 1c 08 3e 2d 4e ea 3e
       -0.33388004 -0.69521815 0.13291986 0.45762768
000060 73 ed cb be be 1d 17 3f 05 bf fd be 7c 3b 47 be
       -0.39829597 0.5902976 -0.495598 -0.19456285
000070 87 81 6f bf e4 28 9d bf 86 60 8b be 44 f5 eb 3e
       -0.9355702 -1.2278104 -0.2722208 0.4608556
000080 6d 1d 8a bf cf 01 79 be 76 0d 6b 3f de c9 b9 be
       -1.079023 -0.24317096 0.91817415 -0.36286825
000090 57 4a 2a 3f 99 67 bc 3e ec 3f 16 be b8 93 f3 be
       0.66519684 0.3679779 -0.14672822 -0.47573638
0000a0 3f a0 6d bf 95 e2 9f bf 53 f4 76 3f 52 2d 08 3e
       -0.9282264 -1.2491022 0.9646656 0.13298538
0000b0 8f 25 a8 3e 89 8e d8 3f a0 c0 47 3f b3 f7 bc bd
       0.32841155 1.6918498 0.780283 -0.092269324

weight f4 [4]
000000 00 00 80 3f 00 00 80 3f 00 00 80 3f 00 00 80 3f
       1.0 1.0 1.0 1.0

bias f4 [4]
000000 00 00 00 00 00 00 00 00 00 00 00 00 00 00 00 00
       0.0 0.0 0.0 0.0

running_mean f4 [4]
000000 00 00 00 00 00 00 00 00 00 00 00 00 00 00 00 00
       0.0 0.0 0.0 0.0

running_var f4 [4]
000000 00 00 80 3f 00 00 80 3f 00 00 80 3f 00 00 80 3f
       1.0 1.0 1.0 1.0

weight f4 [4, 12, 1, 1]
000000 e6 d0 98 bf 21 ee 37 3d c3 7c 1f 3e 7e 89 ad 3f
       -1.1938751 0.04490483 0.15574937 1.3557584
000010 7d 4d 94 3f c4 64 22 bf 66 56 ad 3e 1d 4e 46 be
       1.1586148 -0.63435006 0.3385498 -0.19365735
000020 cf 14 36 bf 4f 1e e9 3e 31 48 ca 3e 5d 43 b2 3d
       -0.711255 0.45530936 0.39508203 0.08704255
000030 a1 1b 1c 3d 5a f4 1b 3f b3 18 66 be d6 b7 9a 3d
       0.038112286 0.60919726 -0.2247036 0.07554595
000040 a5 3e 23 be bd 25 00 3e b2 48 80 bf e9 8d fa 3e
       -0.15941866 0.12514396 -1.0022185 0.48936394
000050 b0 d6 59 3e c3 b5 55 bf 73 94 fd 3e b1 52 42 bf
       0.21273303 -0.8348047 0.4952732 -0.7590743
000060 40 60 93 3f 35 f0 98 3e ee e7 6f bf c3 4d c5 bf
       1.1513748 0.29870763 -0.9371327 -1.5414356
000070 13 c5 23 bf 9d b0 a7 bf 21 9b 15 3f a7 ec da be
       -0.63972586 -1.3100773 0.5843983 -0.42758676
000080 53 3f cb bf a6 09 07 bf ac b3 20 3f af a7 3d bf
       -1.58787 -0.527491 0.6277416 -0.7408399
000090 bc 25 a4 3e f8 2a 23 bf 5b 2b 98 be 75 4a 0a 3f
       0.3206004 -0.6373744 -0.29720578 0.5401986
0000a0 30 cb 08 bf 37 0a 6f bf b1 f8 28 3f 95 9c a9 bc
       -0.5343504 -0.9337496 0.6600447 -0.020704547
0000b0 56 ae a0 3f ec b2 9a be e1 49 6e 3f 6a fc b5 3d
       1.2553203 -0.30214632 0.9308148 0.08886035

weight f4 [4]
000000 00 00 80 3f 00 00 80 3f 00 00 80 3f 00 00 80 3f
       1.0 1.0 1.0 1.0

bias f4 [4]
000000 00 00 00 00 00 00 00 00 00 00 00 00 00 00 00 00
       0.0 0.0 0.0 0.0

running_mean f4 [4]
000000 00 00 00 00 00 00 00 00 00 00 00 00 00 00 00 00
       0.0 0.0 0.0 0.0

running_var f4 [4]
000000 00 00 80 3f 00 00 80 3f 00 00 80 3f 00 00 80 3f
       1.0 1.0 1.0 1.0

weight f4 [4, 12, 1, 1]
000000 86 a9 83 3f 41 39 8b 3f 37 f6 56 3f 8a 85 83 3f
       1.028611 1.0876848 0.83969444 1.0275128
000010 34 ce 90 3e ec f2 65 3e 2a 22 93 3e f7 bf cc 3e
       0.2828232 0.22455949 0.28737003 0.39990208
000020 81 de 11 bf 14 b6 6b 3e 29 dd 90 bf 6e cf fd be
       -0.5698014 0.23018676 -1.1317493 -0.4957232
000030 b5 3b 72 bf d7 e1 89 bf 15 28 fa 3e cc 37 1a bf
       -0.94622356 -1.0772046 0.48858705 -0.6024139
000040 16 03 82 3d cf ee 99 3e 67 a3 5f bf 9d 74 23 3f
       0.06348245 0.3006501 -0.8735871 0.6384981
000050 c8 d8 ef bf a9 f6 b7 bf e3 11 90 3f 15 4f 9a 3d
       -1.8738031 -1.437215 1.1255459 0.07534615
000060 60 8c 24 bd ad a1 ef be 11 13 32 3f c5 40 98 3e
       -0.040172935 -0.46803036 0.69560343 0.29736915
000070 17 6d af 3f 96 80 01 3f 66 7d 79 3f 5f 7b 31 bf
       1.3705167 0.5058683 0.9745697 -0.69328874
000080 ca c5 17 3e 5b 59 89 bf e5 94 23 bf 6a 8c 0a 3f
       0.14821544 -1.0730394 -0.6389907 0.54120505
000090 a3 56 9f 3e 74 07 b6 be a7 52 5a bf a8 d1 59 3f
       0.31120786 -0.3555256 -0.8528237 0.85085535
0000a0 74 54 9b 3f c6 22 29 be 80 52 60 bf 1f c3 9a be
       1.2135148 -0.16517171 -0.87625885 -0.3022699
0000b0 f6 0d 8f bd 9b f5 ce bf 3c 9b 5b 3f 3e 64 04 3f
       -0.06985085 -1.6168703 0.85783744 0.5171546

weight f4 [4]
000000 00 00 80 3f 00 00 80 3f 00 00 80 3f 00 00 80 3f
       1.0 1.0 1.0 1.0

bias f4 [4]
000000 00 00 00 00 00 00 00 00 00 00 00 00 00 00 00 00
       0.0 0.0 0.0 0.0

running_mean f4 [4]
000000 00 00 00 00 00 00 00 00 00 00 00 00 00 00 00 00
       0.0 0.0 0.0 0.0

running_var f4 [4]
000000 00 00 80 3f 00 00 80 3f 00 00 80 3f 00 00 80 3f
       1.0 1.0 1.0 1.0

weight f4 [10, 12]
000000 cd 9c 09 3c 0f 07 d6 3b 96 63 87 bc a5 f1 c7 ba
       0.008399201 0.006531603 -0.016526978 -0.0015254511
000010 1c ff 07 3b e1 ff 83 bc 29 0b ab bb 12 4d 32 3c
       0.0020751422 -0.016113224 -0.0052198363 0.010882633
000020 9d 5e 78 3a e6 ba 30 3c f0 67 2d bc 80 20 1b bc
       0.00094745477 0.010786748 -0.010583863 -0.009468198
000030 3f 3b 12 3c 4b 27 e4 39 40 85 41 bc 62 9c 1b 3c
       0.008925258 0.00043516824 -0.011811554 0.009497734
000040 e9 5c 46 3c d0 37 8d bc e4 65 09 3c 79 cc b3 bb
       0.012107112 -0.017238528 0.008386109 -0.0054870215
000050 65 4e e6 3b 19 9c e5 3b f6 ce 06 3c bb 74 32 bb
       0.0070283883 0.0070071337 0.008228054 -0.0027230221
000060 72 fa 02 bc b2 5e 9d 3b e6 e6 51 bb 12 95 52 3b
       -0.007994281 0.0048025483 -0.0032028495 0.003213231
000070 29 dd 26 3c c5 9d 2c bc fd 0b 04 3d 82 20 64 3b
       0.010184565 -0.010535662 0.032237995 0.0034809415
000080 2e 5c 19 bb 74 a9 1b 3c d2 d7 49 bb 47 4b 83 3c
       -0.002340089 0.00950085 -0.0030798805 0.016027106
000090 fe 74 98 3b 6f 7f 87 3b 42 cd e9 3b 26 26 ac bc
       0.0046526184 0.0041350643 0.0071350643 -0.021014284
0000a0 99 5b 84 bc dd 81 4e 3c 45 d8 08 3c a7 00 db 3b
       -0.016156958 0.012604204 0.008352344 0.0066834274
0000b0 aa d0 f8 3a 0a 8a 50 3b 0b 13 05 3c 0a 31 dd bb
       0.0018983085 0.003182056 0.008122216 -0.0067502307
0000c0 95 07 42 3b 77 09 eb bb b7 d3 0d bb 86 86 24 bc
       0.002960657 -0.007172759 -0.0021641084 -0.0100418385
0000d0 b6 9a 80 3c fc aa 44 bb 38 a3 d1 ba 04 e7 a7 bb
       0.015698772 -0.0030009141 -0.0015994078 -0.0051239748
0000e0 44 2f 8c bc 25 09 4f bc 99 2b a0 3b 5c 3f 6b 3b
       -0.017112382 -0.012636458 0.0048880097 0.003589592
0000f0 dc b1 0a 3c 0f 28 dd bb 94 fe 1b 3b ce 36 28 bb
       0.008465257 -0.00674916 0.0023802863 -0.0025667432
000100 0e da c0 bc bd 4e 1e 3b e5 e3 ba 3b 5d 2f 9a 3b
       -0.023541477 0.0024155818 0.0057034367 0.004705353
000110 ca 4c ab 3b 5d fc a2 3a 37 39 ae 3a 1e c8 5f 3b
       0.00522766 0.0012434829 0.0013292198 0.0034146379
000120 5d 89 69 3c cf 19 04 bc 83 3f 77 bc 7b e5 9e 3b
       0.014253941 -0.008062794 -0.015090826 0.0048491335
000130 1d 79 eb bb 8b 0a 16 3c 2f 07 1d 3b 9b 44 1e bc
       -0.0071860687 0.009157787 0.002396058 -0.0096599115
000140 90 39 18 3a 12 31 a8 3c 80 83 d5 3a 24 56 82 3c
       0.00058069173 0.020531211 0.00162898 0.015910216
000150 eb 2c 5b bc e6 dc 4d bc 10 2b 99 3b 69 59 87 bc
       -0.0133774085 -0.012564873 0.004674323 -0.016522126
000160 25 6d b1 3b af f2 83 bb 70 f8 0d bc 2c a6 a3 3b
       0.0054146224 -0.004026733 -0.008665189 0.0049941745
000170 10 a1 a0 bc 53 42 52 bb c5 a9 60 bb b0 bd c4 bb
       -0.01960805 -0.003208299 -0.0034280878 -0.006004058
000180 b2 3b e0 3a 92 2b 6f bc 53 33 92 3b 2f 8a 87 3c
       0.0017107634 -0.01459779 0.0044616847 0.016545383
000190 f5 a5 72 bc 78 41 16 3c 32 23 1d bb 4b f1 81 3b
       -0.014810075 0.009170882 -0.0023977277 0.003965532
0001a0 b9 70 19 3c 79 de 90 3c 98 82 4d 38 8e 4c 79 3c
       0.009365254 0.017684208 4.8997434e-05 0.015216006
0001b0 57 af 76 bc 45 a3 00 bc a5 34 9e 3b 61 c0 4b 3c
       -0.015056453 -0.0078514265 0.004828053 0.012436003
0001c0 7d 41 d8 3b 3c 35 5f bc de 87 cd bb f2 3c 2b 3c
       0.0065996037 -0.013623532 -0.0062723 0.010451542
0001d0 cc b5 96 3b f0 2e 14 bc 18 b6 ab bb d0 15 19 bc
       0.0045993086 -0.009044394 -0.005240213 -0.009343579

bias f4 [10]
000000 00 00 00 00 00 00 00 00 00 00 00 00 00 00 00 00
       0.0 0.0 0.0 0.0
000010 00 00 00 00 00 00 00 00 00 00 00 00 00 00 00 00
       0.0 0.0 0.0 0.0
000020 00 00 00 00 00 00 00 00
       0.0 0.0
