prerequisite_task/test1/my_model.pth (torch, 32223 bytes, 47 tensors)

weight f4 [12, 3, 3, 3]
00000000: c287 b33d 655b 7a3c 7efd 353e 27a7 963d
00000010: 31ff 123c 755f 25be 50c6 bc3d 2a62 82bd
00000020: 4b4f 1ebe 9cf6 863d 89a0 5d3d 0330 19be
00000030: da53 2fbe 46f6 4cbe bc7c a83e ac71 9fbe
00000040: 01bd 3e3b f8f3 223d 53d0 f2bc 14c4 05be
00000050: f2f4 933e d4ab dbbc ed6f fdbd ca7a 173d
00000060: 634c c2bd 367f b73c ebdd d4bd d76a 2d3d
00000070: 1ed7 8e3d b69b b33c 8ca4 46be b25a 903e
00000080: 6182 5abd 5699 a3bd 83c8 503d d41a 0e3e
00000090: f6af 2abb c026 dc3d 4562 71bd ad39 a2bd
000000a0: 642f f03c 13de 403e 8c6b 29ba a1cc 5e3c
000000b0: a2c0 093e 0c77 56bd deb3 293d 741d 24be
000000c0: 459f b13d 7a93 7c3b 2039 e23d 3055 0a3e
000000d0: e631 dabd 7755 cc3d f852 0a3e ff56 933d
000000e0: 5f6d b13d 3a1d 3c3d 2424 9ebd e60a c9bc
000000f0: fda8 0cbc e60a 853d 7d14 a63e 0da5 7f3d
00000100: 8480 2cbe 90d4 92bd 3c2c 943d cd1a 26be
00000110: db31 e23d cdfa f33d d30f 813e 2981 5c3e
00000120: deb3 8a3e a040 aabe 8769 833e 5b95 b7bd
00000130: be56 eebd 207c 083d d4bb e8bd ab78 2abd
00000140: 309c 113e 9fd5 a7bc a70f 993e 9030 3abe
00000150: 4f98 b0bc ac51 88be 3040 bebd 8b41 80be
00000160: 4d53 a43d 1844 ba3c c2fc 93bd d0f8 dcbd
00000170: 99ba 6ebe b641 53be d46e 56bd 33c4 22be
00000180: c466 b7bd be50 803e f7f7 a1bd de78 b5bc
00000190: 35a3 ad3d f35f 06bd 16c7 ad3d d0cf 9fbe
000001a0: 5e59 e0bd 59b1 d2bd ff3c 4dbe e148 a5bd
000001b0: 55fc 1bbd 1e58 77be 9c2e 1e3d 84c6 d43c
000001c0: 9b50 a63e 9fe6 fe3c 5d52 643d 371d 10bd
000001d0: c1be 093d 5f06 9abe f34f e83d f118 093e
000001e0: ae52 51be a631 e73d 63f6 47bd d5c2 7fbd
000001f0: 577f 81be ac37 db3c 8b94 18bd cfd7 283d
00000200: 330d 0c3e a291 8cbe 286b f5bd 5c31 4ebd
00000210: 7c98 fe3d 5d76 9e3d 0524 f23d 6c89 6d3c
00000220: 00e3 81bd da5b dbbd 047e 153d 8ba9 bf3b
00000230: 38a3 78bd 9166 c93e 44aa 4cbd 37cc 2d3e
00000240: 80c3 11be 455c dbbd c1d3 9abd 228b 9c3e
00000250: 6965 5a3e 1011 cf3b cdab 3e3d 9f51 ea3d
00000260: a611 e0bc 7c3e 2cbd 4be6 713d b5e6 1abe
00000270: b0b0 44be a3f2 6b3e a3ba 98bc 9bae 2bbe
00000280: 2357 babe e2c5 5a3c fa39 a33d 26f1 2f3d
00000290: 8e64 0cbe c606 c03c 22f6 a6bd 3035 23bd
000002a0: 8803 703d e1a6 3a3e 181a 423d 85ed 07be
000002b0: 4132 4c3e a7c7 88be d7dc f13d 1b2b 123e
000002c0: e6c0 e53d 6dce 21be e6d5 9c3c 1ea4 3b3c
000002d0: e6bc 9c3d 6a47 c13c a277 553d b39d 99bd
000002e0: 9789 babd 8f28 483e 1a09 b73d 0ed6 fc3c
000002f0: ed3c 163d ad8b 3b3a 5fa7 11be 6bf6 babc
00000300: a1d6 b0bd f461 273e 6356 a43d fb30 29be
00000310: be76 f13d 4af5 00bd ee10 4c3d 15ba 24be
00000320: cc72 ff3d 0c6e 80bd 817d 5a3e 3244 8dbe
00000330: 0594 c3bc 2899 b7bd 1672 153e 8b35 9dbe
00000340: 3fc7 6a3e ad7f 79bc 57de 0e3e 8ca9 03be
00000350: 6ced 133d 65f1 8cbc ffd3 9abd ff14 7d3e
00000360: f8d5 94be 64b8 a5bd de25 ebbd eb1f a73c
00000370: 735a 83bd 44c5 243d c7eb 2bbe 5408 e33d
00000380: 6ee6 72be b110 8e3b 087b 0f3e dc37 f33d
00000390: 4f89 313e f03e 97bd 5f22 343c 798f 753e
000003a0: ad20 c3bd 7297 2d3e 4acf 963d 1c0f 6b3d
000003b0: 4715 1a3e 4303 7cbe 13d7 f73d 67aa 3dbd
000003c0: 7b12 df3c 3e3e b63d 63b0 ae3d e765 9c3d
000003d0: 1e75 b8bd 004d 603e 8a03 2c3d bb5a dd3d
000003e0: 5d68 673d 6128 d43d bd90 8cbd 1ee1 d33d
000003f0: 7cf3 123e a7d8 cabd 896c 25be 147d 85be
0.08766128 0.015280579 0.17772481 0.073561005 0.008971975 -0.16149695 0.092175126 -0.063663796
-0.15459935 0.06590006 0.054108176 -0.14959721 -0.1712183 -0.20015821 0.32907665 -0.31141412
0.0029104354 0.039783448 -0.029640352 -0.13063079 0.28897816 -0.026815332 -0.12374864 0.036982335
-0.09487226 0.022399526 -0.1039389 0.04233822 0.06974624 0.021924835 -0.19398707 0.28194195
-0.053346995 -0.07988231 0.050972473 0.13877422 -0.0026044822 0.107495785 -0.058931608 -0.07921157
0.029319473 0.18834715 -0.0006462864 0.013598592 0.1345239 -0.052359626 0.0414313 -0.1602686
0.086729564 0.0038540051 0.11046052 0.13509059 -0.106540486 0.099772386 0.13508213 0.071943276
0.08663439 0.04592631 -0.07721737 -0.02454133 -0.008585212 0.06496219 0.32437506 0.062413264
-0.168459 -0.07169449 0.072349995 -0.16221161 0.110446654 0.11913071 0.25207385 0.21533646
0.27090353 -0.3325243 0.25666448 -0.08964034 -0.116376385 0.0333215 -0.1136395 -0.041618984
0.14219737 -0.020487605 0.29894754 -0.18182588 -0.021557001 -0.2662481 -0.092895865 -0.25050005
0.08023701 0.022737548 -0.07225944 -0.10789645 -0.23313369 -0.20630535 -0.052351788 -0.15895157
-0.08955148 0.250616 -0.07908624 -0.02215236 0.08478395 -0.032806348 0.08485238 -0.31213236
-0.109545454 -0.10287733 -0.200428 -0.08070541 -0.03808244 -0.24154708 0.03861867 0.025973566
0.32483372 0.031115828 0.05574261 -0.03518411 0.033629183 -0.30082986 0.11343374 0.1338842
-0.20441696 0.112887666 -0.048818957 -0.062441666 -0.25292465 0.026759945 -0.037251037 0.041221436
0.1367691 -0.2745486 -0.11983329 -0.05034004 0.12431428 0.0773742 0.118232764 0.014498096
-0.06342125 -0.10710879 0.03649713 0.0058490685 -0.060702533 0.39336064 -0.049967065 0.16972433
-0.14234734 -0.107109584 -0.0755992 0.305749 0.21327747 0.0063191727 0.04655056 0.11441349
-0.027352165 -0.042051777 0.059057515 -0.1512707 -0.19208026 0.23041777 -0.018643683 -0.16765825
-0.36394605 0.013352843 0.079700425 0.042954586 -0.13710234 0.02344073 -0.08152415 -0.039845645
0.058597118 0.18227722 0.047388166 -0.132742 0.19941045 -0.26714823 0.118097 0.14274256
0.11218433 -0.15801401 0.019144963 0.011452703 0.07653217 0.023593623 0.052116044 -0.07500782
-0.091082744 0.19546722 0.08937283 0.030863788 0.036679197 0.0007154297 -0.14224003 -0.02282258
-0.08634687 0.1634596 0.080242895 -0.16522591 0.117902264 -0.031483926 0.049820833 -0.1608661
0.12473068 -0.0627099 0.21336938 -0.2759109 -0.023874292 -0.08964759 0.14594302 -0.30704913
0.22927569 -0.015228194 0.13952003 -0.12857646 0.036115095 -0.01720495 -0.07559966 0.2471504
-0.29069495 -0.0809181 -0.11481832 0.020400962 -0.06413736 0.04022719 -0.1678916 0.11085573
-0.23720714 0.004335486 0.14011776 0.11875889 0.17337535 -0.07385051 0.010994523 0.23980512
-0.09527717 0.16952303 0.07363756 0.057387456 0.15047179 -0.24610619 0.12101569 -0.046305086
0.027230492 0.088985905 0.08529737 0.07636624 -0.09006713 0.21904373 0.041995563 0.10808321
0.056496013 0.10359264 -0.06863544 0.10345672 0.14350694 -0.099046044 -0.16154684 -0.2607199

weight f4 [12]
00000000: 0000 803f 0000 803f 0000 803f 0000 803f
00000010: 0000 803f 0000 803f 0000 803f 0000 803f
00000020: 0000 803f 0000 803f 0000 803f 0000 803f
1.0 1.0 1.0 1.0 1.0 1.0 1.0 1.0
1.0 1.0 1.0 1.0

bias f4 [12]
00000000: 0000 0000 0000 0000 0000 0000 0000 0000
00000010: 0000 0000 0000 0000 0000 0000 0000 0000
00000020: 0000 0000 0000 0000 0000 0000 0000 0000
0.0 0.0 0.0 0.0 0.0 0.0 0.0 0.0
0.0 0.0 0.0 0.0

running_mean f4 [12]
00000000: 0000 0000 0000 0000 0000 0000 0000 0000
00000010: 0000 0000 0000 0000 0000 0000 0000 0000
00000020: 0000 0000 0000 0000 0000 0000 0000 0000
0.0 0.0 0.0 0.0 0.0 0.0 0.0 0.0
0.0 0.0 0.0 0.0

running_var f4 [12]
00000000: 0000 803f 0000 803f 0000 803f 0000 803f
00000010: 0000 803f 0000 803f 0000 803f 0000 803f
00000020: 0000 803f 0000 803f 0000 803f 0000 803f
1.0 1.0 1.0 1.0 1.0 1.0 1.0 1.0
1.0 1.0 1.0 1.0

weight f4 [3, 3, 1, 1]
00000000: 8fa3 7dbe 9e34 e5be f138 d4bd 3f09 c33e
00000010: 025a 723e a083 dd3d d08b c73f af1d 5abf
00000020: 70e8 dfbe
-0.24769424 -0.44766706 -0.10362423 0.38092992 0.23667148 0.10816121 1.5589542 -0.85201544
-0.43732023

weight f4 [3]
00000000: 0000 803f 0000 803f 0000 803f
1.0 1.0 1.0

bias f4 [3]
00000000: 0000 0000 0000 0000 0000 0000
0.0 0.0 0.0

running_mean f4 [3]
00000000: 0000 0000 0000 0000 0000 0000
0.0 0.0 0.0

running_var f4 [3]
00000000: 0000 803f 0000 803f 0000 803f
1.0 1.0 1.0

weight f4 [3, 3, 3, 3]
00000000: 3df4 8f3e 95ce 1c3f db73 ab3d f52a 81be
00000010: 0f76 2b3e bcb2 b13d 828a 873e 4b70 cebe
00000020: c2c2 483d 6434 b9be d420 ac3d df58 ef3d
00000030: 23ac 47be 1393 fc3e 3a64 dfbc 9a29 543d
00000040: 5975 81bd 6687 5b3d d18c 903e 1f22 d6be
00000050: 4e71 dbbc dbba 0b3e 1237 cd3d f277 da3d
00000060: 078a 933d 1015 c03b e9f0 803d 5c78 793e
00000070: 4c58 303e 6cb9 053e 7198 a1be 9ac5 72be
00000080: 08ac e03e 9551 b33d 4dbb 5e3e 6c01 6d3e
00000090: e837 3c3d 59b1 afbe 4593 9d3d 441f e4be
000000a0: 018a 42be b207 523e e34d 3fbd e34d 32bc
000000b0: d2b8 173e 283a 3f3e 3912 d33d e460 44be
000000c0: 08f2 da3d 5b7b 49be 66c0 853e 243f 51be
000000d0: 2520 9abe c2e3 2d3e abf9 1fbe a8e9 913e
000000e0: 52a0 00bc ea0a 213e e2e3 fabc 4d2b c13e
000000f0: 85d2 11bf baed 48be 6f63 f0bd c6bb a3bd
00000100: c6f5 b93e 1311 66be 5363 333e 4012 f33d
00000110: b0e9 bdbe 5dd2 543e a743 ebbe 6aba 1b3e
00000120: 6e90 eebd 4d91 80bc c821 ffbd 0149 8bbd
00000130: 3551 bfbc 3332 e2be e29e 2d3f 217c 91be
00000140: ff5b dabe
0.28116027 0.6125272 0.08371707 -0.25228086 0.16744255 0.08676669 0.2647286 -0.40320048
0.04901386 -0.36172783 0.08404699 0.11686873 -0.19499259 0.4933096 -0.027269471 0.051797487
-0.063212104 0.053595923 0.28232434 -0.41822907 -0.026787426 0.13645498 0.100202695 0.10667409
0.07204061 0.005861886 0.0629595 0.2436232 0.17221183 0.13059014 -0.31561616 -0.23708192
0.4388125 0.08755795 0.21751137 0.23145074 0.045951754 -0.34314993 0.07694105 -0.44555104
-0.18997957 0.20510748 -0.046705138 -0.010882827 0.14816597 0.18674529 0.1030621 -0.19177586
0.10690695 -0.19675963 0.2612335 -0.20434242 -0.3010265 0.16981414 -0.15622585 0.28498578
-0.007850723 0.1572682 -0.030626241 0.37728348 -0.5696185 -0.19621935 -0.117377155 -0.07994799
0.36320323 -0.22467451 0.17518358 0.11868715 -0.37092352 0.20783372 -0.45950052 0.1520783
-0.116486415 -0.015694285 -0.12457615 -0.06801034 -0.023354152 -0.44178924 0.6782056 -0.28415015
-0.42648312

weight f4 [3]
00000000: 0000 803f 0000 803f 0000 803f
1.0 1.0 1.0

bias f4 [3]
00000000: 0000 0000 0000 0000 0000 0000
0.0 0.0 0.0

running_mean f4 [3]
00000000: 0000 0000 0000 0000 0000 0000
0.0 0.0 0.0

running_var f4 [3]
00000000: 0000 803f 0000 803f 0000 803f
1.0 1.0 1.0

weight f4 [3, 3, 3, 3]
00000000: 54a4 02be 5cc1 18be 4993 21be eb2c 1f3d
00000010: fd1f 8d3e c9c8 b5be 3255 a03e c3b8 be3d
00000020: 9171 d33e cbb5 733e d1cb 143d a99e 9a3d
00000030: d21c b63e 65ba 4b3e d69e 6ebd 0433 0c3f
00000040: 3db2 e23d e1d0 a73d e3e4 fe3e 5ce4 d6be
00000050: d3e0 0cbd aecf 4a3d d0bd 223d 23ce 53be
00000060: 5664 e1be 6958 75bd 1453 103e 2468 d1bd
00000070: 84fb ce3e e749 8ebe 96ba b1be 0666 643e
00000080: 922d 57be 4a1b ccbe 8f74 563e 5cb5 74be
00000090: ac44 3c3e d05b 7b3e 911b ed3e b541 023e
000000a0: 72c7 043e 7df6 443e 67b7 023e ef7a c13c
000000b0: c0d0 15bf e334 353d 4f71 a93e 981b 643d
000000c0: c097 36be d0a9 5fbe 0d0a 853d 9488 083e
000000d0: 0bd3 8cbe 37f8 d7be 979f b93d 35ce a3bc
000000e0: 5417 103e c51e d83d ef8c 8d3d 2a3a 4bbe
000000f0: 3bc5 96be 12d2 bdbe cdc0 b3be 9ea2 263f
00000100: 4855 3abe 1f39 b2be 4b22 163e 816f 6b3c
00000110: a30a 083f eb93 133f dc1b 033e 6fa7 573e
00000120: a7b5 573e 07ec 05be 5932 1f3e f43c 6f3e
00000130: 2e9c fbbd 803d 943e 4a65 e1bc 3213 b83e
00000140: edf1 30bf
-0.12757999 -0.14917511 -0.15778841 0.038861196 0.27563468 -0.3550475 0.31315 0.09312584
0.41297582 0.23799817 0.036327187 0.07549793 0.35568863 0.19895323 -0.058256947 0.54765344
0.110691525 0.08194137 0.49784002 -0.419711 -0.034394097 0.049514465 0.0397318 -0.20684104
-0.44021863 -0.059898768 0.14094192 -0.102249414 0.40426266 -0.27790758 -0.34712666 0.22304544
-0.21013477 -0.3986457 0.20942901 -0.23897308 0.18385571 0.24546742 0.46310094 0.12720378
0.12966707 0.19234653 0.12765275 0.02361819 -0.5852165 0.04423989 0.3309426 0.055690378
-0.17831326 -0.21842122 0.06496058 0.1333335 -0.27504763 -0.4218156 0.090636425 -0.019995788
0.14071399 0.10552744 0.069116466 -0.19846407 -0.2944735 -0.37074333 -0.35108033 0.65091884
-0.18196595 -0.34809205 0.14661519 0.014369846 0.5314123 0.5764758 0.12803596 0.21059965
0.21065389 -0.13078319 0.1554655 0.23363096 -0.12285648 0.2895317 -0.027514119 0.35952145
-0.6911915

weight f4 [3]
00000000: 0000 803f 0000 803f 0000 803f
1.0 1.0 1.0

bias f4 [3]
00000000: 0000 0000 0000 0000 0000 0000
0.0 0.0 0.0

running_mean f4 [3]
00000000: 0000 0000 0000 0000 0000 0000
0.0 0.0 0.0

running_var f4 [3]
00000000: 0000 803f 0000 803f 0000 803f
1.0 1.0 1.0

weight f4 [3, 3, 3, 3]
00000000: 7dbb edbd b81a 02bf 83ff 663e 3cf1 1bbe
00000010: f0c6 9c3d 9959 323e 8024 9a3e c031 bd3e
00000020: cf98 12be 13f3 03be 9b19 85be 6658 103e
00000030: e361 9b3e 9860 c9be bf3b 963e 6d52 9fbe
00000040: cc98 213e bfa2 2dbd 50eb ab3d dcf8 2a3e
00000050: 062f b0b9 7025 3abc f965 b7be 707e 363e
00000060: 4894 903e a3d7 28bd 1ba7 7e3e a5c5 aabe
00000070: 087b 2ebe a4ba 673d 3cc7 a1be 40a8 8a3e
00000080: 19cf b8be ff97 3bbd 176a 95be 7f68 1f3d
00000090: c541 383e 32b9 6b3e 71b5 3b3e 1941 273e
000000a0: a947 01be a520 373e f01e 2cbe ffef 3cbe
000000b0: d816 b5bd 6681 663e d70e cb3e b927 063e
000000c0: eb4e 5ebe 6c99 e53d 91fe 823e b07f 123e
000000d0: 1a3b f73d 9a68 6cbd d595 50be 81e4 0bbd
000000e0: 7a79 66bd d338 183e 1515 823e 7ec1 0ebe
000000f0: 685f 7a3e 331f 8ebe cbd4 6ebe d286 bcbe
00000100: 64d8 6c3d 0976 f7bd bb8a c8bd 8a0f 303f
00000110: 7ffa 61ba fa3c 4f3e af0a d9be 65de 343e
00000120: 854a 08be 20e8 ce3d 946d a4be 0515 8ebd
00000130: df92 323e c807 41bf c39a eebe 8b58 1ebe
00000140: 50b0 c33e
-0.11608026 -0.5082202 0.22558407 -0.15228742 0.07655132 0.17416991 0.30105972 0.3695202
-0.14316104 -0.12885694 -0.25996098 0.14096221 0.3034812 -0.39331508 0.29342458 -0.31117573
0.15780944 -0.042391535 0.08394492 0.16696495 -0.0003360437 -0.011361465 -0.35819986 0.1782167
0.2823813 -0.041221272 0.24868433 -0.33353916 -0.1703912 0.05657448 -0.31597316 0.2708149
-0.36095503 -0.04579925 -0.29182503 0.038918015 0.17993839 0.23019865 0.18330933 0.16333427
-0.12624992 0.17883547 -0.16808677 -0.18450926 -0.08842248 0.22510299 0.3965976 0.1310109
-0.21709792 0.112109035 0.25584844 0.14306521 0.120718196 -0.057716943 -0.20369656 -0.034153465
-0.056268193 0.14865427 0.2540671 -0.13940999 0.24450457 -0.27758178 -0.23323362 -0.3682161
0.057823554 -0.1208306 -0.09792086 0.6877371 -0.00086203957 0.20238104 -0.42390963 0.17662962
-0.13309677 0.10102868 -0.3211485 -0.06937603 0.1743884 -0.754025 -0.4660245 -0.15463464
0.38220453

weight f4 [3]
00000000: 0000 803f 0000 803f 0000 803f
1.0 1.0 1.0

bias f4 [3]
00000000: 0000 0000 0000 0000 0000 0000
0.0 0.0 0.0

running_mean f4 [3]
00000000: 0000 0000 0000 0000 0000 0000
0.0 0.0 0.0

running_var f4 [3]
00000000: 0000 803f 0000 803f 0000 803f
1.0 1.0 1.0

weight f4 [3, 12, 1, 1]
00000000: 4c0a 12bf 1d73 edbc 59ea b4be a40f 793e
00000010: bb51 d03d cc0a 443f d098 85be 95ba 06be
00000020: f304 763f fdd1 653f 6c99 9f3e 4744 c9bf
00000030: 1616 243d ea80 31bf 3cef 833d 9046 84bf
00000040: c7db d7bf 4241 1cbf 2d60 d2bf af28 c5bf
00000050: 536e a73e 0c30 643f b107 a73e 8d4b cebe
00000060: 8f50 cbbc 3971 52bf 7e7c 9cbd ee2a 923f
00000070: 6d0d 2f3e eb48 4b3f 9b52 8dbf a789 c7bd
00000080: 65ae 4f3f d311 f4be 0a30 b9bf 5f64 37bf
-0.5704696 -0.028985554 -0.35335043 0.24322373 0.10171839 0.76578975 -0.2609315 -0.13157113
0.961013 0.8977354 0.3117174 -1.5723962 0.040060125 -0.6933733 0.06442115 -1.0334034
-1.6863946 -0.61037076 -1.64356 -1.5403041 0.32701358 0.89135814 0.32623056 -0.40292016
-0.024818687 -0.82204014 -0.076409325 1.1419351 0.17094965 0.7940814 -1.1040834 -0.09743052
0.8112548 -0.4766985 -1.4467785 -0.7163753

weight f4 [3]
00000000: 0000 803f 0000 803f 0000 803f
1.0 1.0 1.0

bias f4 [3]
00000000: 0000 0000 0000 0000 0000 0000
0.0 0.0 0.0

running_mean f4 [3]
00000000: 0000 0000 0000 0000 0000 0000
0.0 0.0 0.0

running_var f4 [3]
00000000: 0000 803f 0000 803f 0000 803f
1.0 1.0 1.0

weight f4 [3, 12, 1, 1]
00000000: 6a06 533f e966 253f 7e5c 26bf f476 cebe
00000010: 9ac5 873f 6703 7e3f fa39 e73e 8e39 2c3f
00000020: 2d20 dd3e afb9 1abe 778c 863f 5cad 293f
00000030: 6a72 4a3f 8660 503f ba0c 363f 1cc9 2d3e
00000040: 71a3 a03e b2d2 83bd 7cab 0c3f d892 09bf
00000050: 253e b2be b03d a03f 174d 7b3f f7f7 08be
00000060: 0065 8ebf c7cd d4bf 764c 7abf 9a3a 8fbf
00000070: a7e5 893e 5a25 e83e cf7d d9be a8bd 69bf
00000080: 6519 9bbf 02e8 9abe f912 03be 7319 993e
0.8243166 0.64610153 -0.6498488 -0.4032513 1.0607178 0.9922394 0.4516142 0.6727532
0.4318861 -0.15109895 1.0511616 0.6628015 0.7908083 0.81397283 0.7111317 0.16971248
0.31374696 -0.06436671 0.54949164 -0.5373969 -0.34813038 1.2518826 0.98164505 -0.13375841
-1.1124573 -1.6625298 -0.9777292 -1.1189759 0.26933023 0.45340997 -0.42478797 -0.9130502
-1.2117125 -0.30255133 -0.12800206 0.2990223

weight f4 [3]
00000000: 0000 803f 0000 803f 0000 803f
1.0 1.0 1.0

bias f4 [3]
00000000: 0000 0000 0000 0000 0000 0000
0.0 0.0 0.0

running_mean f4 [3]
00000000: 0000 0000 0000 0000 0000 0000
0.0 0.0 0.0

running_var f4 [3]
00000000: 0000 803f 0000 803f 0000 803f
1.0 1.0 1.0

weight f4 [3, 12, 1, 1]
00000000: e54e 143f 7595 5f3f ba07 2ebf 67f6 143f
00000010: de6e 8bbb 7115 15bf 65e8 113e 13c5 c33e
00000020: fe3e 8dbe eba4 3f3f 2004 7c3f 990f 53be
00000030: 69a1 f6be 20a7 f3bf 7418 f8bf d508 a13b
00000040: 765f 76bf bd3e 933d b0f0 24bf 6e40 1ebf
00000050: 2ae7 403f c729 5abf f609 813f 92c6 00be
00000060: da17 3cbf 7428 053f 1ef8 bc3d 9920 2d3f
00000070: 9d5c 0c3f 8beb 9dbf 3410 f1bf cba5 35be
00000080: f3bb 893f a5de fa3f 5bbc c9be 76f2 24bf
0.57932884 0.8733743 -0.6798054 0.5818848 -0.0042551598 -0.5823584 0.14248808 0.38236293
-0.27587122 0.7486102 0.98443794 -0.20611419 -0.4817002 -1.9035378 -1.9382463 0.004914383
-0.9623941 0.07189701 -0.6442976 -0.6181706 0.7535273 -0.8522 1.0081165 -0.12575749
-0.73473895 0.5201485 0.09227012 0.67627865 0.54828817 -1.2337507 -1.883307 -0.17739026
1.0760483 1.9599196 -0.39401516 -0.64432466

weight f4 [3]
00000000: 0000 803f 0000 803f 0000 803f
1.0 1.0 1.0

bias f4 [3]
00000000: 0000 0000 0000 0000 0000 0000
0.0 0.0 0.0

running_mean f4 [3]
00000000: 0000 0000 0000 0000 0000 0000
0.0 0.0 0.0

running_var f4 [3]
00000000: 0000 803f 0000 803f 0000 803f
1.0 1.0 1.0

weight f4 [3, 12, 1, 1]
00000000: 9c6d 81bf 86b7 41be ce7f f1be ff0a 843e
00000010: 81d2 053e 9173 5fbf 5c48 f13d 946b 43bf
00000020: 93b4 09bf 20f7 9f3f 8c72 f63d 8d8f 103f
00000030: b038 2d3f 928d 923f aa2b 173f 304a 0c3f
00000040: 49b7 9f3e 922a fe3f 4726 94bf 8de6 1b3f
00000050: b3e8 5ebe 4d8a 5d3e 0386 ab3e ae51 48bf
00000060: dda8 06bf b4e2 fc3e 4647 34bf 13f7 51bf
00000070: 4ad8 96bf 5870 d4bf 606d 783f 9d92 563f
00000080: 4609 593c 5695 05bf 3767 983f 3eee 93be
-1.0111575 -0.18917665 -0.4716782 0.2578964 0.13068582 -0.87285715 0.117813796 -0.76336026
-0.5379116 1.2497292 0.12033567 0.5646904 0.67664623 1.1449454 0.59051 0.548007
0.31194523 1.9856741 -1.1574181 0.6089867 -0.21768455 0.21634789 0.3350068 -0.78249633
-0.52601415 0.4939171 -0.70421255 -0.8201763 -1.1784756 -1.6596785 0.97041893 0.83817464
0.01324684 -0.52180994 1.1906499 -0.28892702

weight f4 [3]
00000000: 0000 803f 0000 803f 0000 803f
1.0 1.0 1.0

bias f4 [3]
00000000: 0000 0000 0000 0000 0000 0000
0.0 0.0 0.0

running_mean f4 [3]
00000000: 0000 0000 0000 0000 0000 0000
0.0 0.0 0.0

running_var f4 [3]
00000000: 0000 803f 0000 803f 0000 803f
1.0 1.0 1.0

weight f4 [10, 12]
00000000: fd89 35bc 52e6 9b3c 2fd6 9abb 42ba c23b
00000010: 6db1 0a3c fba6 8c3b 5708 953c c041 c53b
00000020: c029 efb9 47fd 0f3b 810a 2abc c4c6 c73c
00000030: 1e3c 2ebc 73b7 30bc 8f63 12bd b5f7 823a
00000040: 8f4b 0ebc 3408 ff3a 1f57 22bc 9b21 8cbb
00000050: aab0 32bb d080 10bc e267 46bc baae 8b3b
00000060: 93ec bab9 2569 dabb 26f0 8cbb af4f f1ba
00000070: 007c e5bb 87ef fa3b 9b72 ec3b 60ff 5a3c
00000080: e92c 13bc 79d9 59bc 16c6 a8bb adf0 9a39
00000090: d699 13bc 290e c03a 6b0f 4a3c 5674 8c3c
000000a0: 49c9 a83c 6eba 403b 5978 cf3b 17ee debb
000000b0: ec31 8ebc f202 b63b 4fa3 5eba a395 953b
000000c0: 9070 03bc 1980 92ba d938 21bc 5050 1e3c
000000d0: a5a3 4ebc 8eb3 3abb 68b9 19bb ebcd a0bc
000000e0: 5273 e0bb 1956 1f3c fd6d c1bb c045 c93c
000000f0: ec35 d6bb 754a ccbb 80a1 06bc 363b 8c3b
00000100: be42 9bb9 ec48 22bb 5f28 94bb 8af3 a33b
00000110: 5509 22bc 2e73 9b3c a300 873b eca0 96ba
00000120: d3cb 84bb f9fc 043c 6c15 d73a b7d6 c33b
00000130: fcf3 4c3c a862 233c cc33 84bc 3dac 863c
00000140: f46a b9bb 3cef 9b3a 64c5 42bb e674 cb39
00000150: 6c84 d73b 1b14 08bc 8148 0b3c f640 033c
00000160: 97cd aabb dce8 9dbb ac08 6c3b e9ff 38bc
00000170: d8a8 b33b b927 a7bb b907 3dbc b545 933c
00000180: 525e 573c 332f c43a 33a5 b23c 8c36 1abc
00000190: 1b85 c5ba d4fd 883a 377a 3bbc a999 3cbc
000001a0: 87a7 27bb 0bf3 e3bb 65fd 443c febc 1a3c
000001b0: e580 21ba 7434 45bc d3e1 71bc d7d7 1c3b
000001c0: ff34 81bb 674d 63bc 89fe 95bc f75a cd39
000001d0: 13d2 2abc 347a b73c f424 a2bc 35ab e4bc
-0.011080262 0.019030724 -0.0047252397 0.005942614 0.008465153 0.0042923666 0.018192453 0.006019801
-0.00045616738 0.0021971033 -0.010378481 0.024386771 -0.01063445 -0.010785925 -0.035739478 0.0009992035
-0.008685007 0.0019457401 -0.009908467 -0.004276467 -0.0027265945 -0.008819774 -0.0121097285 0.0042627724
-0.00035652946 -0.0066653662 -0.004301089 -0.0018410588 -0.0070033073 0.0076579484 0.0072158105 0.01336655
-0.008982875 -0.013296478 -0.005150567 0.00029552486 -0.009008845 0.0014652658 0.0123327775 0.017145317
0.020603793 0.0029407996 0.006331485 -0.006803285 -0.017357789 0.0055545503 -0.0008492963 0.004564957
-0.008022442 -0.0011177092 -0.009840214 0.009662703 -0.012612258 -0.002848837 -0.0023456458 -0.01962944
-0.0068496848 0.009725117 -0.005903004 0.024569392 -0.0065371897 -0.006234462 -0.008217216 0.0042795194
-0.0002961363 -0.0024762703 -0.004521414 0.0050033974 -0.00988992 0.01897582 0.004119949 -0.001149205
-0.004052618 0.008116954 0.0016409582 0.0059765237 0.012509342 0.009972252 -0.01613798 0.016439551
-0.0056585018 0.0011896859 -0.0029719705 0.00038806273 0.006577065 -0.008305575 0.008501173 0.008011093
-0.0052124965 -0.0048190188 0.003601591 -0.0112914825 0.005482774 -0.005101171 -0.011537486 0.017977575
0.013145046 0.001496768 0.021807289 -0.009412419 -0.0015069576 0.0010451623 -0.0114427125 -0.011511245
-0.0025582032 -0.006956463 0.012023305 0.009444473 -0.00061608694 -0.012036432 -0.014763313 0.0023932362
-0.003943085 -0.013873435 -0.018309848 0.0003916842 -0.010426062 0.022397138 -0.019793011 -0.02791367

bias f4 [10]
00000000: 0000 0000 0000 0000 0000 0000 0000 0000
00000010: 0000 0000 0000 0000 0000 0000 0000 0000
00000020: 0000 0000 0000 0000
0.0 0.0 0.0 0.0 0.0 0.0 0.0 0.0
0.0 0.0
