prerequisite_task/test1/trained.pth (torch, 31967 bytes, 47 tensors)

weight f4 [12, 3, 3, 3]
000000 64 48 f7 3d f3 e4 8c bc e3 69 eb 3d 2b fd 19 3e
       0.12074354 -0.017199015 0.11494806 0.15037982
000010 3b 8b 88 bc c3 89 77 be e2 a1 81 3e e7 77 08 bd
       -0.016667953 -0.24173646 0.2531882 -0.033317473
000020 32 f1 54 be 01 41 11 3e 79 21 41 3d a6 89 50 be
       -0.20795134 0.14184953 0.047151063 -0.20365009
000030 20 0f 60 bd 27 8b 46 be 1f 9a 89 3e 4f b7 e3 bd
       -0.054701924 -0.1938902 0.26875398 -0.11118948
000040 d7 d8 9a 3d 54 44 a7 3c e2 2b 4b bc 51 9c 3b be
       0.0756089 0.020418324 -0.012400599 -0.18321349
000050 56 05 46 3e 6f 9c d1 3c 6a fc 2c be a9 2a 8f bd
       0.19337973 0.025587289 -0.16893163 -0.06990559
000060 d5 42 ed 3c 8d 3a e7 3c 60 04 3d be 25 b0 04 3d
       0.028962532 0.028226161 -0.184587 0.032394547
000070 35 8d a9 3d 62 ce 53 3d a8 3e 5c be 84 05 84 3e
       0.08278886 0.051710494 -0.21508276 0.25785458
000080 b5 86 69 bd a5 09 12 be 77 eb f3 bb 8a 62 91 3d
       -0.057013232 -0.14261492 -0.007443841 0.07098873
000090 54 4a b8 3a bc 9b 06 3e 5e 26 d8 bc 11 ab a2 bd
       0.0014060237 0.13145345 -0.026385482 -0.079427846
0000a0 07 46 bd 3c a1 9e 45 3e da 26 26 bd ea 3e c5 bc
       0.02310468 0.19298793 -0.040564395 -0.024077851
0000b0 1a 88 a4 3d 99 f3 53 bc 84 4c ca 3d 3f 03 c7 bd
       0.08033772 -0.012936496 0.098778754 -0.09717416
0000c0 fc 40 04 3e c2 4a 11 3d 91 5d 16 3e 11 a9 1a 3e
       0.12915415 0.035471685 0.1468413 0.15103556
0000d0 4c 4b c3 bd c8 93 b3 3d 7f 55 5e 3e 90 a6 e2 3d
       -0.09535846 0.087684214 0.21712302 0.110669255
0000e0 ed 7d a2 3d f4 18 8d 3d 53 74 da bd 0c 97 eb bd
       0.07934175 0.06889525 -0.10666718 -0.11503419
0000f0 b9 b2 90 3c 80 92 f7 3c 60 ca 64 3e 7f 8c 1b 3e
       0.017663347 0.030221224 0.22342825 0.15190314
000100 e2 27 0d be 5f 73 d5 bd d4 6c dd 3d cc 4b 45 be
       -0.13784745 -0.10422396 0.10811773 -0.19267195
000110 4f 31 25 3b fc fe 28 3e ff 2a 6b 3e 9c 6e e6 3d
       0.0025206392 0.16503519 0.2296562 0.11251566
000120 3a d2 a6 3e d3 8e ac be 6c 28 41 3e b8 f3 a8 bd
       0.32582265 -0.33702716 0.18863076 -0.08249611
000130 f4 86 36 be 93 30 db bd d9 4f c1 bd c2 f0 c4 bd
       -0.17824918 -0.10702624 -0.09439058 -0.096162334
000140 ff 53 b9 3b 76 e8 19 bd e6 6e 8e 3e 33 77 5a be
       0.005655765 -0.037575208 0.27818984 -0.21334533
000150 3e 3b f0 bc 13 de 8c be 7d 66 de bd 19 e5 78 be
       -0.029325124 -0.2751318 -0.10859392 -0.24306144
000160 c8 4e af 3d 2e 95 04 3d a2 6d 9b bd 6c 12 f1 bd
       0.08559948 0.03236883 -0.0758927 -0.11771092
000170 8d 87 7f be 1d e9 52 be b0 89 63 bd d5 95 2a be
       -0.24954052 -0.20596738 -0.05555123 -0.16658719
000180 85 3a 9c bd 00 f9 84 3e 93 c7 86 bd bc 53 7d bc
       -0.07628349 0.25971222 -0.065810345 -0.015461858
000190 a0 48 b2 3d 09 37 19 bd 5f da c6 3d 26 1f 9b be
       0.08705258 -0.037406 0.0970962 -0.30297202
0001a0 9a 13 d8 bd 1f fe 99 bd 7a b1 34 be ed 72 5b bd
       -0.10550614 -0.07519173 -0.17645827 -0.0535764
0001b0 14 02 fe 3d 19 1f c1 bd d5 c5 2c 3e 2d 1d af 3d
       0.1240274 -0.094297595 0.16872342 0.08550487
0001c0 67 ad 94 3e 7e 16 06 3e b8 1a 34 3d 4f e7 a1 bd
       0.29038545 0.13094518 0.043970793 -0.07905447
0001d0 91 da a4 3c eb f0 9c be ab b3 98 3d 7b cc 7f 3c
       0.020123752 -0.30652556 0.07456144 0.015612717
0001e0 6a a1 4f be 26 e2 e7 3c 0f 5f 9c bd a6 5a c5 bd
       -0.20276418 0.028306078 -0.076353185 -0.096364304
0001f0 42 e1 98 be 44 ed 3d bd 27 73 55 bd b6 ad b7 3c
       -0.29859358 -0.046368852 -0.05211177 0.022421699
000200 21 0f d9 3c e5 9a 5c be 74 47 03 be e4 e8 f5 bc
       0.026496472 -0.21543463 -0.12820226 -0.030018277
000210 be e2 5e 3e 07 6e 28 3e 59 5e 1c 3e 85 46 c9 3d
       0.21766183 0.16448222 0.15270366 0.09827904
000220 2d 43 79 bd e9 ff 17 bd 0f 61 0d bd ec 8f fb bc
       -0.06085508 -0.03710929 -0.03451639 -0.030708276
000230 6c 82 43 be 0a 57 71 3e ef 2f b0 bd 4b 63 0e 3e
       -0.19092721 0.23568359 -0.086028926 0.13905065
000240 5a 28 18 3d 56 c8 ec bc eb 35 cc 3d 9d 80 a2 3e
       0.037147857 -0.028904121 0.099712215 0.3173875
000250 fc d0 68 3e a4 c3 36 bd 73 85 4c 3d cf d2 50 3e
       0.22735971 -0.04462017 0.049931955 0.20392917
000260 70 dd 8a 3d 96 91 f8 3c ca 0b 8d 3b 6a 46 de bd
       0.06780517 0.030342858 0.004304384 -0.10853274
000270 74 de 8d be 27 68 f9 3d 0c 5a 34 be f1 b2 80 be
       -0.2770878 0.121780686 -0.17612475 -0.2513652
000280 b5 48 c3 be 32 e7 4f 3c 70 c0 b4 3d 20 76 48 bd
       -0.3814141 0.012689399 0.08825767 -0.048940778
000290 02 8d db bd 7a 74 cd 3d f9 16 0c be c8 5a 86 bd
       -0.107202545 0.10031982 -0.13680638 -0.06560284
0002a0 67 4c e8 3c b1 49 12 3d 61 6f e6 bd 1e 7b 1b be
       0.028356744 0.03571481 -0.112517126 -0.15183684
0002b0 20 e7 13 3e 15 b9 4c be c4 a3 3f 3e db 4c 2e 3e
       0.14443636 -0.19992478 0.18714815 0.17021506
0002c0 97 e7 30 3e af e4 8a be 3b 75 f6 bd a4 4a f3 bd
       0.17275845 -0.27127597 -0.12034079 -0.11879471
0002d0 96 93 3c 3c 63 a7 8a 3b 99 7e 2d 3e 44 5e d5 bc
       0.011509797 0.00423138 0.16942824 -0.026045926
0002e0 fe 1b b6 ba 5f b9 a9 3e d3 e2 ab bc 29 3f 08 bd
       -0.001389384 0.3314924 -0.020982182 -0.03326336
0002f0 75 ba 17 38 62 44 7b 3b 0f 0c 55 be 5a b9 74 bd
       3.6174857e-05 0.003834032 -0.20805381 -0.059747078
000300 22 6d a1 bd 3b 52 96 3d 3e e9 56 3d 84 7d da bd
       -0.078821436 0.07339903 0.05246853 -0.106684715
000310 ee 9d 92 3d bd a1 0a be 1b ed 0a 3d 2b 5a 57 be
       0.07159029 -0.13538261 0.033917528 -0.2103049
000320 ae a5 b7 3d a5 f9 49 bc 7e 0f 4e 3e dc 19 74 be
       0.08967148 -0.012327586 0.20123097 -0.2383799
000330 25 f9 c2 3d ab a8 2b bd 9e 01 07 3e 42 3e be be
       0.09520177 -0.0419089 0.1318421 -0.37156874
000340 4b bb 20 3e 12 9c 91 bd b5 4a 35 3e c8 29 0b be
       0.15696447 -0.07109846 0.1770428 -0.13590157
000350 79 10 8f 3d 3a d0 d7 3d 0d eb 31 bc 0f 27 75 3e
       0.06985564 0.10537763 -0.010859263 0.23940681
000360 12 5d 85 be df f8 b9 bd 70 bb 1c be 7d 0c e3 3d
       -0.2604757 -0.090806715 -0.15305877 0.11086366
000370 97 50 53 3d 0f ea 2f 3e c6 19 8e be 38 60 49 3d
       0.05159053 0.1717913 -0.2775404 0.049164027
000380 e2 4a 76 be 26 a6 99 bb 2c 7b 42 3d 51 16 9d bb
       -0.24052003 -0.004688996 0.047480747 -0.00479392
000390 81 5b 81 3e 79 39 8d bc a4 76 97 3d 4b 68 af 3d
       0.25265124 -0.01723932 0.07395676 0.08564814
0003a0 d9 db 7a be 40 56 87 3d 40 fb 24 3e b8 28 8e 3c
       -0.24497928 0.06608248 0.1611147 0.0173534
0003b0 99 86 88 3d 91 9d 82 bd 09 5d 75 3e 65 51 8d 3d
       0.066662975 -0.0637771 0.23961271 0.069002904
0003c0 2c a2 8a bc 76 50 a8 3c a1 f5 5a 3d 56 73 02 3e
       -0.016923033 0.02054618 0.053456906 0.1273931
0003d0 ac 24 53 bd 1e 9b de 3c c7 de 00 3e d2 b9 48 3e
       -0.051548645 0.027173575 0.12584983 0.19602135
0003e0 5d 21 03 bd 45 f6 91 3d 1f 38 91 bd 45 82 6d 3d
       -0.03201424 0.0712705 -0.070907824 0.057985563
0003f0 72 50 02 3e eb 5f f2 bc 2a 5d 44 be 04 3c 97 be
       0.12726 -0.029586753 -0.19176164 -0.29537976

weight f4 [12]
000000 f5 d2 7a 3f da 4c 5c 3f aa eb 7a 3f 08 9c 6f 3f
       0.97978145 0.86054766 0.98015845 0.9359746
000010 a5 35 82 3f c7 b8 5d 3f f2 7c 99 3f 5d 46 7b 3f
       1.0172621 0.8661007 1.1991255 0.9815424
000020 90 91 75 3f 3b c7 6a 3f f7 95 6c 3f d7 ee 9d 3f
       0.95925236 0.9171025 0.9241633 1.2338513

bias f4 [12]
000000 e5 3d a5 3c 5b 89 b2 bd ab 86 42 3d d9 14 cc bc
       0.020171115 -0.08717605 0.04749171 -0.024912285
000010 3a d6 06 be 9a 3f 1c 3e 75 0f 3c 3e f0 3c ce 3c
       -0.13167658 0.15258637 0.18365271 0.025175542
000020 1c ba c5 3d 81 6f 51 3c ab b8 ba 3d 44 92 44 3e
       0.09654638 0.012782932 0.09117254 0.19196421

running_mean f4 [12]
000000 b4 4d 98 3d ed 68 62 be 21 56 be bd ac 61 02 3f
       0.07436696 -0.22110339 -0.092937715 0.50930285
000010 c1 fe 98 3c e4 a4 1d bc d9 f7 a1 bc 69 c2 41 3d
       0.018676164 -0.0096218325 -0.019771503 0.047304545
000020 1d 1b 6f bd 41 0e 51 3b 7a 0f b5 3b c6 7b d3 bb
       -0.058375467 0.0031899365 0.0055255266 -0.006453964

running_var f4 [12]
000000 a7 b9 b3 3e 68 7a 83 3f 30 79 1d 3f 88 5e 97 40
       0.3510258 1.027173 0.6151304 4.7302895
000010 49 bf 79 3e 1d 3d 99 3e f8 db 85 3e ac 59 9d 3e
       0.24389376 0.29929438 0.26144385 0.30732477
000020 5f e6 dd 3e 30 f5 ae 3d 27 27 e1 3e 72 cc 76 3e
       0.43339822 0.085428596 0.43975183 0.24101427

weight f4 [3, 3, 1, 1]
000000 9f 34 b1 be 4c 34 a6 be 36 48 60 be ad a1 70 3e
       -0.3461046 -0.32461774 -0.21902546 0.23499174
000010 f0 e7 b1 3e 9e 79 4f 3e 03 f1 c1 3f 85 65 5e bf
       0.34747267 0.20261237 1.5151676 -0.86873657
000020 8e 8b 0b bf
       -0.5450982

weight f4 [3]
000000 07 89 a9 3f 6c 68 de 3f 8f 35 ce 3f
       1.3244942 1.7375617 1.6110095

bias f4 [3]
000000 78 45 a0 3d ad 80 83 3e 3f e8 7d 3e
       0.0782575 0.2568411 0.24795626

running_mean f4 [3]
000000 e5 ee ad be 02 9d 99 3e 20 73 95 3c
       -0.33971325 0.300026 0.018243372

running_var f4 [3]
000000 73 76 1e 3d d4 5a fc 3c 71 ec 5b 3f
       0.03868718 0.030805029 0.85907656

weight f4 [3, 3, 3, 3]
000000 78 e2 8c 3e 54 cd 1a 3f 72 99 a9 3d 88 66 7e be
       0.27516532 0.60469556 0.082812205 -0.248438
000010 cf a5 2b 3e de 47 b6 3d e8 bf 8d 3e 9a 34 c9 be
       0.1676247 0.08900426 0.27685475 -0.39297944
000020 88 26 65 3d 71 04 99 be db 07 00 3e e8 24 2d 3e
       0.05594495 -0.298862 0.12502997 0.1690861
000030 1d e4 02 be 69 e9 09 3f 4a 57 0b 3d 9e ca f8 3d
       -0.12782331 0.5387178 0.034018792 0.12148021
000040 8e 0e 8a bb 56 77 05 3e cb 0f 89 3e 5a 67 d5 be
       -0.004213161 0.13033804 0.26769862 -0.41680413
000050 5e be c6 bc c3 52 00 3e e1 e5 cf 3d 0c 20 d6 3d
       -0.024260696 0.12531571 0.10151268 0.10455331
000060 ac f0 84 3d 6a 99 72 3b e6 ce 60 3d f9 7f 88 3e
       0.06491217 0.0037017711 0.054884814 0.26660135
000070 17 eb 44 3e 46 1e 14 3e 98 f3 92 be cb 21 56 be
       0.19230305 0.14464673 -0.28701472 -0.20911328
000080 c1 0d e9 3e 4c 16 e3 3d ce 46 77 3e 63 7a 79 3e
       0.45518306 0.11088237 0.24148104 0.24363093
000090 fa 9d 75 3d f0 42 aa be 61 42 ad 3d a8 e4 d8 be
       0.05996511 -0.33254194 0.084599264 -0.4236195
0000a0 fd 49 30 be ed 97 61 3e c0 78 06 bd c4 49 c6 3a
       -0.17215724 0.22030611 -0.03283 0.0015128185
0000b0 8f 26 27 3e 7a d0 34 3e 7a 75 c2 3d fc e5 48 be
       0.16323303 0.17657652 0.09495063 -0.19618982
0000c0 60 29 c9 3d d0 6a 4d be ec c3 81 3e c1 11 54 be
       0.09822345 -0.20060277 0.2534479 -0.20709898
0000d0 da 6f 9a be 45 07 25 3e 0c e9 30 be 76 93 81 3e
       -0.3016346 0.16116054 -0.172764 0.25307816
0000e0 1f 26 2c bd 98 db 0f 3e a8 62 7f bd 8f 67 ad 3e
       -0.042028543 0.14048612 -0.062349945 0.3386807
0000f0 32 ad 12 bf f2 5a 5b be 85 05 11 be e3 5c 98 bd
       -0.57295525 -0.21421412 -0.14162262 -0.07439592
000100 6d 03 b9 3e 4e 24 61 be f1 e5 34 3e 43 a8 ec 3d
       0.36135426 -0.21986505 0.1766584 0.11555531
000110 2d 5e bd be 4c 33 5f 3e de 65 e7 be bb 75 23 3e
       -0.36985913 0.21796912 -0.45194906 0.1596288
000120 75 2c 15 be 0b 8c 29 bd cb 9e 17 be 8c 00 cf bd
       -0.1456774 -0.04139332 -0.14806668 -0.10107526
000130 02 c1 50 bd 81 40 ed be 57 35 24 3f d0 27 9f be
       -0.050965317 -0.46338275 0.6414389 -0.31085062
000140 97 be e4 be
       -0.4467666

weight f4 [3]
000000 28 73 8f 3f 19 5e 86 3f fc ee 85 3f
       1.1207018 1.0497466 1.0463557

bias f4 [3]
000000 7e 2f 1b 3d 60 8d de 3c 06 8b 8d 3d
       0.03788709 0.027167022 0.06911282

running_mean f4 [3]
000000 b9 14 2f 3f 62 fa 38 3e b4 38 1c bf
       0.68390995 0.18064263 -0.6102402

running_var f4 [3]
000000 c0 07 59 3f c2 f4 08 3f f9 76 12 3f
       0.8477745 0.5349847 0.5721279

weight f4 [3, 3, 3, 3]
000000 2a 8f f2 bd 1d 5f 10 be df bf 19 be bb 4d 4c 3d
       -0.11843713 -0.14098783 -0.150146 0.049878817
000010 37 d5 90 3e 3c f3 b2 be cc b7 a1 3e 81 5a be 3d
       0.2828767 -0.34951198 0.31585538 0.09294606
000020 fe 5a d3 3e c1 02 7a 3e 6f ff 1f 3d 0d b4 97 3d
       0.4128036 0.24415113 0.03906196 0.07407389
000030 b3 04 b7 3e 81 c0 4d 3e 81 bc 5a bd ec c8 0a 3f
       0.35745773 0.20092966 -0.053402428 0.5421283
000040 2b 78 e4 3d 25 e9 b4 3d 2c bc ff 3e cd 78 d7 be
       0.11155733 0.08833531 0.4994825 -0.4208435
000050 65 82 08 bd b2 cf 47 3d 79 e1 18 3d 0d a0 58 be
       -0.03332748 0.048782058 0.037324402 -0.21154805
000060 1f 5a e2 be b8 46 7e bd 2b 96 0a 3e 43 5f 05 be
       -0.44209382 -0.06207916 0.13533847 -0.1302462
000070 62 be bb 3e fb 7d 9e be 7d a1 b8 be 8a 47 4e 3e
       0.36668688 -0.3095549 -0.36060706 0.20144477
000080 84 95 6b be bc 0e d0 be a9 e7 49 3e 07 fc 7e be
       -0.23006254 -0.4063624 0.19717278 -0.24900828
000090 51 c2 37 3e 4e 36 7e 3e e0 51 ee 3e 6c 63 ff 3d
       0.1794522 0.24825403 0.4654684 0.12470135
0000a0 1b 29 0c 3e c7 8a 52 3e c5 f5 09 3e c6 0f 34 3d
       0.13687555 0.20560752 0.1347266 0.043960355
0000b0 42 64 0f bf 8d bf 0b 3d da bf a0 3e 51 5c 26 3d
       -0.56012356 0.034118224 0.3139637 0.040615384
0000c0 9a 29 3e be 79 24 69 be 97 85 3e 3d 30 32 fa 3d
       -0.18570557 -0.2276782 0.04651412 0.12216604
0000d0 e4 93 92 be 34 47 de be 86 48 ba 3d 63 88 d2 bc
       -0.28628457 -0.434137 0.09095864 -0.0256998
0000e0 68 0e 08 3e dc 17 de 3d 2d e7 8e 3d 53 90 50 be
       0.13286746 0.108443946 0.06977687 -0.20367555
0000f0 ef 11 8e be 63 5c b6 be d3 c5 af be 63 ab 27 3f
       -0.27748057 -0.3561736 -0.34330615 0.6549589
000100 89 cc 1f be 74 75 a6 be e8 6a 2c 3e c1 3e 39 3d
       -0.15605368 -0.32511485 0.16837656 0.045225862
000110 5e 7e 0c 3f 7f 41 1b 3f 27 e9 24 3e d6 86 6c 3e
       0.5488032 0.60646814 0.16104566 0.23098311
000120 1e ef 3c 3e 86 b4 1d be 26 27 06 3e 76 54 44 3e
       0.18450591 -0.15400895 0.13100871 0.19172844
000130 1f 4c 1f be 3c 39 88 3e cd 39 90 bd 89 1e a3 3e
       -0.15556382 0.26606166 -0.070422746 0.31859234
000140 b5 4a 34 bf
       -0.70426494

weight f4 [3]
000000 fd b5 70 3f 0d dd 7b 3f ec fb 88 3f
       0.9402769 0.9838417 1.070188

bias f4 [3]
000000 d3 27 fc bc c9 de 46 bc f5 7e 21 3d
       -0.030780708 -0.012138077 0.039427716

running_mean f4 [3]
000000 c8 93 1d 3f 97 7a c2 bd c4 ec 04 3f
       0.6155362 -0.094960384 0.51923776

running_var f4 [3]
000000 94 ec 4f 3f 5a de 2a 3f 94 d2 4a 3f
       0.81220365 0.6674553 0.79227567

weight f4 [3, 3, 3, 3]
000000 1d 91 8a bd 5c be ec be be a0 7d 3e a6 af 01 be
       -0.067659594 -0.46238983 0.2476835 -0.12664661
000010 90 b7 ba 3d 55 a7 33 3e f7 69 9e 3e 4c 82 bd 3e
       0.09117043 0.17544301 0.3094022 0.3701347
000020 8d 38 15 be 16 87 b0 bd a3 76 62 be 2b 48 26 3e
       -0.14572354 -0.086195156 -0.22115569 0.16238467
000030 41 fb ae 3e ad e5 b6 be 3f 98 a1 3e cf 8a 8a be
       0.34176067 -0.35722104 0.31561467 -0.27059028
000040 bf 72 42 3e a6 ff 0c bc e5 70 05 3e 57 0d 5d 3e
       0.18989085 -0.008605873 0.13031347 0.2158712
000050 e4 26 35 3d 77 50 20 3d ab c2 96 be bc 90 65 3e
       0.044226542 0.039139237 -0.29445395 0.22418493
000060 44 e6 aa 3e 79 52 d1 3c 03 91 97 3e e4 69 94 be
       0.33378804 0.025552021 0.29602823 -0.28987038
000070 96 e9 08 be 51 b4 b3 3d 00 cf 89 be 03 a4 9f 3e
       -0.13370356 0.08774627 -0.2691574 0.3117982
000080 25 2a a4 be 73 63 22 bc ee 60 84 be f6 4d 8a 3d
       -0.32063404 -0.009911406 -0.258552 0.06753151
000090 25 d0 4d 3e 9b 29 7f 3e 17 5e 51 3e 83 a5 3f 3e
       0.20098932 0.24918215 0.20446049 0.18715481
0000a0 47 9b d2 bd 65 9b 4b 3e e4 21 03 be 3b b7 15 be
       -0.10283523 0.19883497 -0.12805897 -0.14620678
0000b0 f1 71 5c bd 1e 75 84 3e 92 5d d6 3e 68 e1 1f 3e
       -0.0538196 0.25870603 0.41868263 0.1561333
0000c0 6a e8 2b be f3 d2 16 3e 6c ab 93 3e 4c e4 46 3e
       -0.16787878 0.14728908 0.28841722 0.19423026
0000d0 ca b5 27 3e ad 1b 65 bc c1 c1 64 be 72 52 70 bd
       0.16377941 -0.013983649 -0.22339536 -0.058672376
0000e0 9a 9a a8 bd 95 3a fd 3d 45 4d 6a 3e 28 1d 24 be
       -0.08232613 0.12364689 0.22881038 -0.16026747
0000f0 14 c3 62 3e 83 ce 97 be 8c 9d 7c be 56 fa c4 be
       0.22144729 -0.29649743 -0.24669474 -0.3847224
000100 1c b3 14 3d 71 d9 0e be bf b8 f1 bd 70 84 29 3f
       0.036303625 -0.13950135 -0.11802816 0.6621771
000110 fc 90 a3 bc 9e aa 41 3e 59 73 de be 41 10 2b 3e
       -0.019966595 0.18912742 -0.43447378 0.16705419
000120 ea 1e 18 be 1e 06 a6 3d 2b 9f aa be 05 6d 9f bd
       -0.14855543 0.081066355 -0.3332456 -0.07784466
000130 86 7c 26 3e 73 5f 41 bf 89 82 f2 be 0f 5c 2e be
       0.1625844 -0.7553627 -0.47365215 -0.17027305
000140 94 d0 b9 3e
       0.36291945

weight f4 [3]
000000 48 47 90 3f 84 04 8d 3f 73 2d 8a 3f
       1.1271753 1.1017003 1.079512

bias f4 [3]
000000 9a 7c 88 3d 1d 2f 5c 3d 04 80 d5 3d
       0.06664391 0.05375587 0.10424808

running_mean f4 [3]
000000 96 08 14 3f 9a 81 07 3f 34 37 3e bf
       0.578256 0.5293213 -0.74302983

running_var f4 [3]
000000 aa 70 15 3f 85 79 3f 3f d5 33 5a 3f
       0.58375037 0.747948 0.8523534

weight f4 [3, 12, 1, 1]
000000 f7 60 27 bf 1d 07 8b 3b b7 07 cd be b9 44 10 3e
       -0.6538233 0.0042427913 -0.40044948 0.14088716
000010 70 58 7b bb a2 96 0c 3f 1c ec 0d be 21 d0 61 be
       -0.0038352273 0.5491735 -0.138596 -0.22052051
000020 8c eb 7f 3f 82 7f 48 3f d0 98 75 3e b2 e4 d7 bf
       0.9996879 0.7831956 0.23984075 -1.6866667
000030 77 cd e3 bd c1 e0 23 bf cf 04 a0 3d de 27 8c bf
       -0.11123174 -0.6401482 0.07813417 -1.0949667
000040 81 02 d8 bf f0 94 f0 be 87 39 db bf be f0 c8 bf
       -1.6875764 -0.4698863 -1.7126931 -1.5698469
000050 61 70 7d 3e 41 b8 54 3f 55 59 4b 3e 49 15 b9 be
       0.247499 0.8309365 0.19858296 -0.36149052
000060 a3 d4 49 be f1 56 51 bf 83 23 d8 bd d1 7d 88 3f
       -0.1971002 -0.8177329 -0.10553648 1.0663396
000070 7f 4c 2d 3e bf 69 4a 3f d1 79 90 bf c3 13 e6 bd
       0.16923712 0.79067606 -1.1287175 -0.11234238
000080 3b d7 42 3f 53 84 08 bf f8 05 bd bf 63 a9 39 bf
       0.76109666 -0.5332691 -1.4767447 -0.7252409

weight f4 [3]
000000 aa d3 67 3f 9e bb 7f 3f 22 77 8a 3f
       0.9055735 0.99895656 1.0817606

bias f4 [3]
000000 c9 66 e3 3d 9f 12 e2 bb cb 45 d1 3c
       0.11103589 -0.0068991925 0.025545975

running_mean f4 [3]
000000 be 97 ca be 33 0a 20 c0 9d df 7b bf
       -0.39568895 -2.5006225 -0.9838808

running_var f4 [3]
000000 a2 7b 13 40 42 0a 58 40 12 42 3b 40
       2.304421 3.375626 2.9259076

weight f4 [3, 12, 1, 1]
000000 0f 73 54 3f 3d 44 24 3f 6e 53 21 bf b2 8f d1 be
       0.82988065 0.64166623 -0.6301793 -0.40929943
000010 2b 14 88 3f 59 5b 83 3f cf ee e3 3e 86 f8 29 3f
       1.0631155 1.0262252 0.44518134 0.6639484
000020 0b cb d8 3e 00 0f 03 be 0d e5 85 3f 67 c3 26 3f
       0.4234241 -0.12798691 1.0460526 0.6514191
000030 db f4 4b 3f 4e 8a 4d 3f eb 95 32 3f 61 3b 35 3e
       0.79670495 0.8028916 0.69760007 0.17698433
000040 61 38 a5 3e bb 24 79 bd 83 23 0c 3f af 86 09 bf
       0.32269576 -0.060826045 0.54741687 -0.53721136
000050 fb 35 b5 be a9 98 a0 3f 42 9d 7c 3f 75 89 0d be
       -0.35392746 1.2546588 0.98677456 -0.13821967
000060 64 9b 8d bf 6f 68 d5 bf 0a 1e 7a bf ab 58 8e bf
       -1.1063046 -1.6672496 -0.97702086 -1.1120809
000070 ad 7c 89 3e f4 7b e9 3e b8 a1 db be c7 68 69 bf
       0.26852933 0.4560238 -0.4289682 -0.911755
000080 15 bc 9b bf bc 86 98 be fb f3 03 be 0f dc 9a 3e
       -1.2166773 -0.29790294 -0.1288604 0.30246016

weight f4 [3]
000000 4a df 7e 3f a9 40 80 3f 6e 3c 80 3f
       0.9955946 1.0019733 1.0018442

bias f4 [3]
000000 9f 7f b2 3c 58 cd 73 bc 06 af b0 3c
       0.02178937 -0.014880501 0.021567833

running_mean f4 [3]
000000 38 a4 08 40 98 fc cd 3f c4 59 21 c0
       2.135023 1.609271 -2.5211039

running_var f4 [3]
000000 48 39 03 40 d2 16 10 40 0b f5 4a 40
       2.0503712 2.2513928 3.1712062

weight f4 [3, 12, 1, 1]
000000 99 e7 14 3f c7 19 5e 3f 11 b9 2f bf 18 35 14 3f
       0.5816589 0.86758083 -0.68641764 0.57893515
000010 45 34 33 3c 40 30 15 bf eb 03 0c 3e c7 6a c5 3e
       0.010937755 -0.5827675 0.1367337 0.38558027
000020 66 40 8f be 8f c2 40 3f 79 7b 7b 3f 6c 28 48 be
       -0.2797882 0.7529687 0.9823528 -0.1954667
000030 59 62 01 bf cc 4b f2 bf 15 43 f8 bf 92 5a 6e 3c
       -0.5054069 -1.8929381 -1.9395472 0.014547961
000040 3e ee 7d bf 4a a5 c2 3c ed 88 29 bf 2d 12 19 bf
       -0.99191654 0.023760457 -0.6622456 -0.5979336
000050 40 bd 42 3f ad dd 5e bf 99 e6 76 3f 46 c9 0d be
       0.7607002 -0.87057 0.96445614 -0.13846311
000060 72 3b 3b bf 35 37 05 3f 17 64 bc 3d 45 26 2e 3f
       -0.7313758 0.52037364 0.09198778 0.68027145
000070 71 da 0c 3f e1 17 9e bf 5f 28 f1 bf 82 32 34 be
       0.55020815 -1.2351037 -1.8840445 -0.17597392
000080 c0 c1 89 3f f5 8d fa 3f fc 5f ca be 12 ec 24 bf
       1.0762253 1.9574572 -0.39526355 -0.64422715

weight f4 [3]
000000 82 b1 7d 3f 18 c7 82 3f c7 6f 7c 3f
       0.9909898 1.0217009 0.9860806

bias f4 [3]
000000 81 57 85 3c 00 84 1b 3d d2 c9 92 bb
       0.016277077 0.037967682 -0.0044796253

running_mean f4 [3]
000000 76 28 4c 3f aa e7 08 c0 e1 61 06 bf
       0.7974924 -2.1391397 -0.524931

running_var f4 [3]
000000 cc a1 96 3f c5 28 5b 40 03 03 52 40
       1.1768126 3.4243634 3.2814338

weight f4 [3, 12, 1, 1]
000000 82 34 76 bf 28 f3 13 be 08 52 e7 be e6 66 94 3e
       -0.9617387 -0.14448225 -0.45179772 0.28984755
000010 a6 fc 3b 3e 7b ea 5b bf e5 19 2d 3e 40 42 38 bf
       0.18358096 -0.85904664 0.16904409 -0.7197609
000020 82 a3 f2 be f8 85 a6 3f 38 6a 31 3e 6a 89 23 3f
       -0.47390372 1.3009634 0.17325675 0.6388155
000030 b9 d0 15 3f 38 50 8d 3f 13 a1 0c 3f 68 ba f9 3e
       0.5852161 1.1040106 0.5493328 0.4877503
000040 fe 1c 40 3e c4 5a 03 40 b8 81 9b bf f8 50 08 3f
       0.1876106 2.052415 -1.2148962 0.5324855
000050 3c 35 84 be 8a 1f f4 3d 85 ba 7e 3e 8a ac 5b bf
       -0.25821865 0.11920078 0.24875839 -0.8581015
000060 c7 ba 05 bf fd b7 f8 3e aa 63 37 bf 0e 5f 52 bf
       -0.52238125 0.48577872 -0.7163645 -0.8217629
000070 f3 b1 98 bf 4a 8e d0 bf a6 3d 80 3f f8 9b 5a 3f
       -1.1929306 -1.6293423 1.0018814 0.8539424
000080 72 29 1c 3d a0 e3 f4 be 4b b8 98 3f 81 57 98 be
       0.038125463 -0.47829914 1.1931242 -0.2975426

weight f4 [3]
000000 c4 c4 b3 3f ff e2 81 3f 70 f1 a6 3f
       1.4044423 1.0147399 1.3042431

bias f4 [3]
000000 bd 74 c6 3d 45 f5 c9 3d 05 4b 2a 3e
       0.09690235 0.098612346 0.1663018

running_mean f4 [3]
000000 36 a7 a3 be ab 15 83 3f 97 a7 35 bf
       -0.3196351 1.0240988 -0.70958847

running_var f4 [3]
000000 d8 4d f0 3f 51 9b 72 40 60 2d c7 40
       1.8773756 3.7907298 6.224289

weight f4 [10, 12]
000000 d1 43 0a be d8 10 0d bb e3 b1 c3 3e 62 6b 9b 3d
       -0.13502432 -0.0021524932 0.38221654 0.07588841
000010 e4 f1 cb 3d 8a fe bd 3d 9b 5a a2 3c 4c 90 83 3c
       0.09958246 0.09277065 0.019818595 0.016060017
000020 8b 00 95 3d d8 64 27 bf 2a e1 91 be db c0 25 3f
       0.07275494 -0.6538825 -0.284921 0.647474
000030 1a d9 c6 3d c1 c7 a5 be 16 3b a0 bd 09 d1 a6 3e
       0.097093776 -0.32378963 -0.0782377 0.32581356
000040 40 54 53 3d db 1f 63 bc f9 33 f0 3d 54 15 8d bd
       0.05159402 -0.013862575 0.11728663 -0.06888834
000050 c0 4f 73 be b9 a8 b2 3e b1 43 f0 be 82 6a bd 3e
       -0.23760891 0.3489435 -0.46926644 0.36995322
000060 77 7f de bd 3d 6e c2 3e c9 9a df 3d 22 ce 20 bd
       -0.10864156 0.3797473 0.10918195 -0.039259084
000070 05 96 fe 3d 95 32 0a bd 2c d2 8d 3d d9 b4 e9 3d
       0.12430958 -0.033739645 0.06924853 0.11411447
000080 dc f4 79 3d 55 99 15 bf d2 cb ce 3e 09 fd 45 bd
       0.06102453 -0.5843709 0.40389878 -0.048337016
000090 b0 db 13 3e 40 23 4c bc da af 02 be 89 4e 9a bc
       0.14439273 -0.012459576 -0.12762395 -0.018836277
0000a0 86 8d 02 bc 3c fd 97 3d ba 51 20 be 68 9c 1a be
       -0.007968312 0.074213475 -0.15656176 -0.15098727
0000b0 bc 7a 38 3e d4 29 d2 3e db dd 9b bc b8 31 ae be
       0.1801557 0.41047537 -0.019026687 -0.34022307
0000c0 c2 f1 fb bd 17 4f a5 3e 95 4b b6 bd 94 c7 26 be
       -0.12301971 0.32286903 -0.08901135 -0.1628707
0000d0 37 c3 d7 bd e5 be d2 bd 33 f3 1d 3e d3 83 72 3e
       -0.10535281 -0.102903165 0.15424804 0.236831
0000e0 07 da 1a bd eb e9 7c be 4d 9f fb 3e ad 71 c2 be
       -0.037805583 -0.24698608 0.49144974 -0.37977353
0000f0 38 df 01 3e e6 a6 53 3d 98 34 18 be ef d9 08 bd
       0.12682807 0.05167284 -0.14863813 -0.033410963
000100 b2 0f ed bc 86 f0 ad 3d c8 95 2f be 78 3f 07 be
       -0.028938148 0.08493142 -0.17146981 -0.13207805
000110 98 f6 38 3e 5b 1d c2 3e 92 a6 7f 3d 72 3d c1 be
       0.18062818 0.3791302 0.062414713 -0.37742192
000120 9e 79 05 be 31 0c 4c 3d 78 51 61 be 11 15 0d be
       -0.13034675 0.049816314 -0.22003734 -0.13777567
000130 4b 69 c4 bd c5 97 1f be 67 d7 17 be ce e8 e8 bc
       -0.095903955 -0.15585239 -0.14828263 -0.028431322
000140 45 f7 be bd d6 1b 6b 3e 98 16 11 3f 57 85 2b bf
       -0.09324507 0.22959837 0.566751 -0.67000335
000150 0d d7 2a 3c c5 05 c1 bb 2f 92 99 bd 41 01 98 bc
       0.010427249 -0.0058905804 -0.074985854 -0.018555285
000160 82 80 75 3d f9 bf 97 bd 90 fc 5e be a2 13 1c be
       0.059937008 -0.07409663 -0.21776032 -0.15241864
000170 e3 a8 87 3c 0c aa 3a 3e fb 0c 80 3e ea fd 5e be
       0.016560024 0.1822893 0.25009903 -0.21776548
000180 87 54 e0 3c cc 54 2d be f2 75 75 3e cc b9 46 be
       0.027384056 -0.16926879 0.23970774 -0.19406813
000190 ab ee 4d be 6c 4e 3f 3e 46 60 aa 3e e8 3e 86 3e
       -0.20110576 0.1868226 0.33276576 0.2621987
0001a0 6f 40 24 bc 20 86 d0 be 32 14 22 bf 5a 33 35 3f
       -0.010025128 -0.4072733 -0.63312066 0.7078148
0001b0 28 12 77 3d fd 74 9c be 4e fb d3 bc 37 24 7c 3e
       0.06032005 -0.30558005 -0.025876667 0.2462319
0001c0 d0 6c d9 3d 0e 04 5f bd 96 0e da bc 54 99 de bd
       0.106164575 -0.054447226 -0.026618283 -0.10869089
0001d0 7a 77 44 be a2 62 bc 3e 32 77 d7 be b4 ef ba 3e
       -0.19186202 0.36794 -0.42083126 0.36511004

bias f4 [10]
000000 09 ef 15 3d 30 69 5c be 2d ca 38 3e 94 8e 1b 3e
       0.036604915 -0.21524501 0.18045874 0.15191108
000010 f6 6f ca 3d 71 c6 e0 3d ac 04 2d be 11 bd ab bd
       0.09884636 0.1097535 -0.16896313 -0.08385671
000020 c3 a6 07 3e 2c ca 77 be
       0.13247208 -0.24198216
