prerequisite_task/test2/my_model.pth (torch, 32223 bytes, 47 tensors)

weight f4 [12, 3, 3, 3]
0	0x3d471706	0.04860594
1	0xbd2a5a59	-0.04159007
2	0xbc9faa9a	-0.019490529
3	0x3d5a40f6	0.053284608
4	0xbd496679	-0.04916999
5	0x3d675a77	0.05648276
6	0x3e5500a2	0.20801023
7	0xbd20df82	-0.039275654
8	0x3e85636e	0.2605242
9	0x3e90a443	0.28250322
10	0x3dac4069	0.08410723
11	0xbbeeadc8	-0.0072839
12	0xbe5acfc0	-0.21368313
13	0xbe06fd72	-0.13182619
14	0xbd233218	-0.039842695
15	0xbd4c917d	-0.049943436
16	0xbd41c87e	-0.047310345
17	0xbd8ed6d4	-0.06974569
18	0xbda4ad52	-0.08040871
19	0x3d6e13d5	0.058124382
20	0xbe0d27d0	-0.13784719
21	0x3e0fdd42	0.14049247
22	0x3db778be	0.089585766
23	0xbdec13d0	-0.115272164
24	0xbd5becca	-0.053692617
25	0xbe51bc1b	-0.20481913
26	0xbce4e967	-0.027943326
27	0x3e07f9cb	0.13278882
28	0x3e5c5b81	0.21519281
29	0x3e168187	0.14697848
30	0x3dac269f	0.08405804
31	0x3c60b704	0.013715509
32	0x3e5d61ff	0.21619414
33	0x3e364978	0.17801464
34	0x3cc5f77c	0.024165861
35	0x3e2234e2	0.15840486
36	0x3dadd0df	0.084871046
37	0xbdc3b51f	-0.095560305
38	0xbd4e1de7	-0.050321486
39	0x3d9eb7e5	0.07749919
40	0xbd56546d	-0.05232661
41	0x3e0033cd	0.1251976
42	0xbe25d03c	-0.16192716
43	0xbc471679	-0.012151354
44	0xbc0e640a	-0.008690843
45	0x3d496cf1	0.04917616
46	0xbd4288c2	-0.047493704
47	0x3dd6eadf	0.10494017
48	0xbd6397be	-0.055564635
49	0x3b11e728	0.0022263024
50	0xbbf4293a	-0.0074512037
51	0x3d575d23	0.052579056
52	0x3df0af86	0.117522284
53	0x3e007407	0.12544261
54	0x3c90b982	0.017666582
55	0xbd9aa9c5	-0.07551912
56	0xbdd892e2	-0.10574891
57	0xbd7b780b	-0.06139378
58	0x3e155c72	0.14586046
59	0x3df16931	0.11787642
60	0x3c4471c4	0.011990014
61	0x3cc1171e	0.023570593
62	0x3de8bb36	0.11363833
63	0xbe869515	-0.26285616
64	0x3d0b4526	0.034001492
65	0xbe077baa	-0.13230768
66	0x3dd5e529	0.104440995
67	0x3b885f38	0.0041617416
68	0x3e3516e6	0.17684516
69	0xbcf88857	-0.03033845
70	0xbdd9e260	-0.10638881
71	0x3d4069c7	0.046975877
72	0x3d929617	0.071575336
73	0x3e03f571	0.12886597
74	0xbd42ee07	-0.04759028
75	0xbd3503ff	-0.044193264
76	0xbe209a44	-0.15683848
77	0x3d22133a	0.039569117
78	0xbdb28ef8	-0.087186754
79	0xbcdf05cc	-0.027224444
80	0x3de035da	0.10947771
81	0xbe3f1f0c	-0.18664187
82	0x3e052b7e	0.13004872
83	0x3de8fb7a	0.1137609
84	0x3c1c8506	0.0095532
85	0xbd977211	-0.07394803
86	0xbde73309	-0.11289031
87	0x3e80bab9	0.25142458
88	0x3e67d97c	0.22641557
89	0xbdb4cfdd	-0.08828709
90	0x3e284bf0	0.16435218
91	0xbd86bc4a	-0.06578882
92	0x3df5f6d6	0.12009971
93	0xbdc28441	-0.09497882
94	0x3c1845e2	0.009294005
95	0xbde06dd0	-0.10958445
96	0xbd8d3a34	-0.06895867
97	0xbd4114f1	-0.047139112
98	0xbd29669f	-0.041357633
99	0x3e8fd302	0.28090674
100	0xbda376dd	-0.07981656
101	0xbde8146f	-0.113320224
102	0x3dfb2cf6	0.12264435
103	0xbaf5bee3	-0.0018748905
104	0x3e481fcb	0.19543378
105	0x3da6c1ac	0.08142409
106	0xbe71a905	-0.23599632
107	0xbd053ee1	-0.03253067
108	0xbe536419	-0.20643653
109	0x3d55574b	0.052085202
110	0x3d96a07b	0.07354828
111	0x3b4245cd	0.0029643655
112	0x3e244d4e	0.16045114
113	0xbe32d878	-0.17465389
114	0x3e87e970	0.26545286
115	0xbdd2c515	-0.10291497
116	0xbe4362ad	-0.1908061
117	0xbe28d5a1	-0.16487743
118	0xbe4ad032	-0.19805983
119	0xbe495924	-0.1966291
120	0x3e208dc0	0.15679073
121	0xbe32c15e	-0.17456576
122	0x3df4bc37	0.11949962
123	0x3dc9d895	0.09855763
124	0xbe7d3532	-0.24727324
125	0x3e1159a2	0.14194348
126	0x3e8653bc	0.2623576
127	0x3e89a1e1	0.26881316
128	0xbdeaac84	-0.11458686
129	0xbd3dc2d7	-0.046328392
130	0xbd289451	-0.04115707
131	0xbcbcc2c7	-0.023042096
132	0x3dd3a52b	0.10334238
133	0x3dac0219	0.083988376
134	0x3e5bb288	0.21454823
135	0x3d0ebd82	0.034848697
136	0x3d9fe124	0.07806614
137	0x3d800976	0.062518045
138	0xbe8a40ff	-0.27002713
139	0xbcc6679b	-0.024219325
140	0x3b94b6a9	0.0045383763
141	0x3d76626b	0.060152452
142	0x3e04503f	0.12921236
143	0xbdd2616e	-0.102724895
144	0x3de1c5ba	0.110240415
145	0xbe132c3d	-0.14372344
146	0x3c084d5f	0.008319228
147	0xbcebf30f	-0.028802423
148	0x3e33fb21	0.17576267
149	0x3db7d7b1	0.08976687
150	0x3ca82cc6	0.020529162
151	0xbde7f259	-0.11325521
152	0x3d92a571	0.07160462
153	0x3e8cd60f	0.27507064
154	0xbae93801	-0.001779318
155	0xbd4a7040	-0.049423456
156	0x3e5ed942	0.21762565
157	0x3b995559	0.0046793637
158	0x3d884279	0.06653304
159	0x3d9679cc	0.0734745
160	0x3d75575d	0.05989777
161	0xbe489e3f	-0.19591616
162	0x3c6619a1	0.014044196
163	0xbd05e47f	-0.032688614
164	0x3df923ec	0.12165055
165	0xbe219615	-0.15779908
166	0x3e104a7b	0.14090912
167	0xbdaf702c	-0.08566317
168	0xbdef6af6	-0.11690323
169	0x3df50756	0.1196429
170	0xbe17f1c4	-0.1483832
171	0xbd454b5a	-0.048167564
172	0x3d6b159d	0.05739366
173	0x3e053887	0.13009845
174	0xbea2789c	-0.31732643
175	0x3dcb966b	0.09940799
176	0x3d9ae197	0.07562559
177	0xbde2ef36	-0.11080782
178	0xbd3c2d8f	-0.045941886
179	0xbe0babb4	-0.13639718
180	0xbe5bcda9	-0.21465172
181	0x3caba5e7	0.020953132
182	0xbdd41543	-0.10355618
183	0x3dcf2aaf	0.10115563
184	0xbde786ac	-0.113049835
185	0xbe2612e9	-0.16218151
186	0x3dd6aeb4	0.10482541
187	0x3e3ae05d	0.1824965
188	0x3d8d36ce	0.06895219
189	0xbdcda00e	-0.10040294
190	0xbe0b58a9	-0.1360804
191	0xbcff8373	-0.03119061
192	0xbe8584ac	-0.26077783
193	0x3e1de260	0.15418386
194	0x3de5f94b	0.112291895
195	0x3e5e089d	0.21682973
196	0xbdd8e13e	-0.105898365
197	0xbd6306f6	-0.05542656
198	0xbc0f3c85	-0.008742456
199	0xbd03e355	-0.032199223
200	0x3d14521e	0.036211126
201	0x3e3fea83	0.18741803
202	0x3cffe5f7	0.031237585
203	0x3de12512	0.10993399
204	0x3e099474	0.13435537
205	0xbe515309	-0.20441832
206	0x3e3ca5e1	0.18422653
207	0x3d948f9f	0.07253956
208	0xbdbe0782	-0.09278776
209	0xbe476fc5	-0.1947623
210	0xbd6718df	-0.056420203
211	0x3dcb4339	0.09924931
212	0xbe6ac887	-0.22928058
213	0x3dc9da92	0.09856142
214	0xbdcc1db5	-0.09966604
215	0x3e3cd3ae	0.18440124
216	0xbed5efaa	-0.41784412
217	0xbdefc2d8	-0.11707085
218	0xbd815a3f	-0.06316041
219	0xbe278eb1	-0.16363026
220	0xbdb961ed	-0.09051881
221	0xbdf0d15f	-0.11758684
222	0xbcac472b	-0.02103003
223	0xbe0439d0	-0.12912679
224	0xbe1bb0ef	-0.15204214
225	0xbde940c3	-0.113893054
226	0x3ca1a158	0.019730255
227	0x3e28d240	0.16486454
228	0xbdffd366	-0.12491493
229	0xbb4fb665	-0.003169441
230	0xbcd5d0b0	-0.026100487
231	0xbe4892e6	-0.19587287
232	0x3d18e68d	0.037329245
233	0xbc7fa1ea	-0.015602568
234	0x3b06b988	0.0020557363
235	0x3e4d2e46	0.20037183
236	0xbe2836bf	-0.16427134
237	0xbdbb9861	-0.09159923
238	0xbe3744fb	-0.17897408
239	0x3e03a6de	0.12856624
240	0xbd37ca85	-0.044870872
241	0x3b7bcfa2	0.003842332
242	0x3d2f9db9	0.042875025
243	0xbdcbafd5	-0.09945647
244	0x3e27674a	0.16347995
245	0x3d55e28e	0.052218013
246	0xbe9ef036	-0.3104264
247	0xbd54c917	-0.051949587
248	0xbdb25440	-0.08707476
249	0x3deac970	0.114642024
250	0xbd84e887	-0.064896636
251	0x3d45c355	0.048281986
252	0xbe5c7a7e	-0.21531102
253	0x3d35d4c4	0.044392362
254	0x3bd98bef	0.006638996
255	0xbcbf88d3	-0.023380673

weight f4 [12]
0	0x3f800000	1.0
1	0x3f800000	1.0
2	0x3f800000	1.0
3	0x3f800000	1.0
4	0x3f800000	1.0
5	0x3f800000	1.0
6	0x3f800000	1.0
7	0x3f800000	1.0
8	0x3f800000	1.0
9	0x3f800000	1.0
10	0x3f800000	1.0
11	0x3f800000	1.0

bias f4 [12]
0	0x00000000	0.0
1	0x00000000	0.0
2	0x00000000	0.0
3	0x00000000	0.0
4	0x00000000	0.0
5	0x00000000	0.0
6	0x00000000	0.0
7	0x00000000	0.0
8	0x00000000	0.0
9	0x00000000	0.0
10	0x00000000	0.0
11	0x00000000	0.0

running_mean f4 [12]
0	0x00000000	0.0
1	0x00000000	0.0
2	0x00000000	0.0
3	0x00000000	0.0
4	0x00000000	0.0
5	0x00000000	0.0
6	0x00000000	0.0
7	0x00000000	0.0
8	0x00000000	0.0
9	0x00000000	0.0
10	0x00000000	0.0
11	0x00000000	0.0

running_var f4 [12]
0	0x3f800000	1.0
1	0x3f800000	1.0
2	0x3f800000	1.0
3	0x3f800000	1.0
4	0x3f800000	1.0
5	0x3f800000	1.0
6	0x3f800000	1.0
7	0x3f800000	1.0
8	0x3f800000	1.0
9	0x3f800000	1.0
10	0x3f800000	1.0
11	0x3f800000	1.0

weight f4 [3, 3, 1, 1]
0	0xbf43bd00	-0.76460266
1	0x3f50ecc7	0.81611294
2	0xbc54b121	-0.012981684
3	0x401218d1	2.2827647
4	0xbe6fc771	-0.23415925
5	0xbe89d6d1	-0.26921704
6	0x3e67f10d	0.22650547
7	0x3f1d467c	0.61435676
8	0xbe843fc3	-0.25829896

weight f4 [3]
0	0x3f800000	1.0
1	0x3f800000	1.0
2	0x3f800000	1.0

bias f4 [3]
0	0x00000000	0.0
1	0x00000000	0.0
2	0x00000000	0.0

running_mean f4 [3]
0	0x00000000	0.0
1	0x00000000	0.0
2	0x00000000	0.0

running_var f4 [3]
0	0x3f800000	1.0
1	0x3f800000	1.0
2	0x3f800000	1.0

weight f4 [3, 3, 3, 3]
0	0xbf1bfd06	-0.6093296
1	0xbe839dfe	-0.25706476
2	0xbe28bfb4	-0.16479379
3	0x3cf4abc0	0.029867053
4	0xbd7352d1	-0.05940515
5	0xbdf4920f	-0.11941921
6	0x3ea39499	0.3194931
7	0xbf4d3feb	-0.80175656
8	0xbef50771	-0.4785724
9	0x3e17a7ca	0.148101
10	0xbdb833a5	-0.089942254
11	0x3e884c57	0.26620743
12	0xbe91f45a	-0.28506738
13	0xbd8d935f	-0.069128744
14	0xbe568fec	-0.2095334
15	0xbe50c938	-0.20389259
16	0x3cecf2b6	0.028924327
17	0x3e32af97	0.17449795
18	0x3de8e6e1	0.11372162
19	0xbcdd4446	-0.027010094
20	0x3dc7c744	0.09754804
21	0x3dcc95cc	0.09989509
22	0xbebdf279	-0.37099054
23	0xbecd01a1	-0.40040305
24	0xbeb4bb3c	-0.35299098
25	0x3eea037a	0.45705777
26	0x3e3bc5fb	0.18337242
27	0xbe298757	-0.16555534
28	0xbed7827e	-0.42091745
29	0x3dbed896	0.09318654
30	0xbeb4e612	-0.3533178
31	0x3e81355f	0.2523603
32	0xbe676815	-0.22598298
33	0xbe46a2d0	-0.19398046
34	0x3dfa51c5	0.122226276
35	0xbee70478	-0.45120597
36	0xbec6480f	-0.3872685
37	0xbdf180e0	-0.11792159
38	0x3ec6d47d	0.3883399
39	0x3e496cad	0.19670363
40	0x3edd70bc	0.43250072
41	0xbe09104c	-0.13385123
42	0xbebd10f5	-0.36927
43	0xbdba7775	-0.09104816
44	0x3dca6cff	0.098840706
45	0x3dd51767	0.10404854
46	0xbe3387c3	-0.17532258
47	0xbed07852	-0.40716797
48	0x3e8c3a57	0.2738826
49	0x3d6f2497	0.058384504
50	0xbe5ec425	-0.2175451
51	0xbe36c8ef	-0.17850088
52	0xbd9f1511	-0.0776769
53	0xbe5dec1a	-0.21672097
54	0x3e84aefe	0.25914758
55	0x3e9ec740	0.3101139
56	0xbddd6f3d	-0.10812233
57	0x3e06dd63	0.1317039
58	0xbdc5dc6d	-0.096611835
59	0xbccb6e4f	-0.024832873
60	0xbdf795d3	-0.120891236
61	0xbcb03907	-0.021511568
62	0xbdaa80af	-0.08325326
63	0xbf1761f3	-0.59133834
64	0x3dd58182	0.10425092
65	0x3d8f5017	0.06997698
66	0x3d129930	0.035790622
67	0x3ecd62f3	0.40114555
68	0xbe7a893d	-0.24466415
69	0x3e858da2	0.2608462
70	0x3e6f0d40	0.23344898
71	0x3f1f5729	0.6224237
72	0xbebcbed9	-0.36864355
73	0x3e4e1260	0.20124197
74	0xbda98e9f	-0.08279156
75	0x3e82e69d	0.2556657
76	0x3c3b69be	0.011438785
77	0xbea388f3	-0.3194042
78	0xbe76cc65	-0.24101408
79	0xbe0d4b42	-0.1379824
80	0x3ca2687e	0.019825216

weight f4 [3]
0	0x3f800000	1.0
1	0x3f800000	1.0
2	0x3f800000	1.0

bias f4 [3]
0	0x00000000	0.0
1	0x00000000	0.0
2	0x00000000	0.0

running_mean f4 [3]
0	0x00000000	0.0
1	0x00000000	0.0
2	0x00000000	0.0

running_var f4 [3]
0	0x3f800000	1.0
1	0x3f800000	1.0
2	0x3f800000	1.0

weight f4 [3, 3, 3, 3]
0	0x3e6a95b8	0.22908676
1	0xbcb22642	-0.021746758
2	0xbe92fa64	-0.28706658
3	0x3ea1dea1	0.31615165
4	0xbeb8923c	-0.36049068
5	0xbf0b3c2f	-0.5438871
6	0x3e95e41b	0.29275593
7	0x3dedbf9e	0.11608814
8	0xbacb1550	-0.0015494023
9	0x3e84ebaf	0.25961062
10	0x3e121716	0.14266619
11	0xbc634e03	-0.01387358
12	0x3e7d0540	0.24709034
13	0xbded38bd	-0.115830876
14	0x3ec74dbd	0.38926497
15	0x3f00fc64	0.5038512
16	0x3e5183b7	0.20460401
17	0xbe0a13b6	-0.13484082
18	0x3e88c6bf	0.2671413
19	0x3e9f27e5	0.31085125
20	0xbe181a1f	-0.14853714
21	0x3e138c3f	0.14408968
22	0x3d66d4e1	0.05635536
23	0xbe3a0222	-0.18164876
24	0x3ddb79b5	0.10716573
25	0x3e77fec5	0.2421828
26	0x3e15eaa1	0.14640285
27	0x3e62bf3a	0.2214326
28	0xbee2dfff	-0.4431152
29	0xbefdec5b	-0.49594387
30	0x3ee3efc4	0.44518864
31	0x3dd872d3	0.10568776
32	0x3f120a8a	0.5704733
33	0x3d963d8f	0.0733596
34	0x3eb9fddc	0.36326492
35	0x3dce189d	0.10063288
36	0x3f1a48b7	0.60267204
37	0x3f07d529	0.5305963
38	0x3e761134	0.2403
39	0x3efb2db4	0.49058306
40	0xbe64c248	-0.22339737
41	0x3f276157	0.65382904
42	0xbea73e85	-0.32664886
43	0xbe1fe91e	-0.15616271
44	0x3e3e1ebf	0.18566416
45	0xbeac9064	-0.3370391
46	0x39a0d8a2	0.00030678982
47	0x3eda7b47	0.42672178
48	0xbe95a8d8	-0.2923038
49	0x3e13970d	0.1441309
50	0xbdd480e7	-0.10376149
51	0xbebb769a	-0.36613923
52	0x3e93bc16	0.28854436
53	0xbe48f320	-0.19623995
54	0xbdf6e4b9	-0.12055344
55	0xbde38a06	-0.1111031
56	0x3dee435a	0.1163394
57	0xbee980f2	-0.4560619
58	0xbc56ae3a	-0.013103062
59	0x3e812341	0.2522221
60	0xbea3136a	-0.3185075
61	0xbebece0a	-0.3726657
62	0xbea6b7fa	-0.32562238
63	0x3dfcc554	0.12342325
64	0xbdc37064	-0.09542921
65	0xbd740d8e	-0.05958324
66	0x3f0a6d0b	0.54072636
67	0xbe7972e0	-0.24360228
68	0x3e41bb05	0.18918999
69	0xbdcf6553	-0.10126748
70	0x3f1a8e24	0.6037314
71	0xbe77b824	-0.24191338
72	0x3ea839d3	0.32856616
73	0x3d72f28e	0.05931335
74	0xbccef447	-0.025262965
75	0x3eb7de1b	0.3591164
76	0xbd0e4945	-0.034737844
77	0xbecb1d2b	-0.3967069
78	0xbe57f6d8	-0.21090257
79	0x3e012fef	0.12615941
80	0xbcc8ebde	-0.024526533

weight f4 [3]
0	0x3f800000	1.0
1	0x3f800000	1.0
2	0x3f800000	1.0

bias f4 [3]
0	0x00000000	0.0
1	0x00000000	0.0
2	0x00000000	0.0

running_mean f4 [3]
0	0x00000000	0.0
1	0x00000000	0.0
2	0x00000000	0.0

running_var f4 [3]
0	0x3f800000	1.0
1	0x3f800000	1.0
2	0x3f800000	1.0

weight f4 [3, 3, 3, 3]
0	0xbeb9fde3	-0.36326513
1	0x3d9f7f58	0.07787961
2	0xbe20e919	-0.1571392
3	0x3d6fc2eb	0.058535498
4	0x3da9c541	0.08289576
5	0x3e80bd93	0.25144634
6	0x3eaf487e	0.34234995
7	0xbdbf5157	-0.09341686
8	0xbeab7927	-0.3349087
9	0x3a9ed8d2	0.0012119061
10	0x3e8a712d	0.2703947
11	0x3e3185ca	0.17336193
12	0xbe9b548f	-0.3033795
13	0x3e59ada9	0.21257652
14	0xbe7478bf	-0.23874186
15	0x3ed58e05	0.41709915
16	0x3f3ded6d	0.7419041
17	0xbe4e7136	-0.20160374
18	0x3cf391d7	0.029732628
19	0x3eff5cf2	0.498756
20	0xbda9c8c8	-0.08290249
21	0xbeebbab6	-0.46040887
22	0xbe558b52	-0.20853928
23	0xbe4d5dc0	-0.20055294
24	0xbcbb12a8	-0.022836044
25	0x3ee4ae03	0.4466401
26	0x3e800e1d	0.25010768
27	0x3e5610fc	0.20904917
28	0xbcf1a4e5	-0.029497573
29	0xbf0e6886	-0.5562824
30	0xbdb2e088	-0.08734232
31	0xbe751f5b	-0.23937742
32	0xbcee46ef	-0.029086558
33	0xbe9d18bb	-0.3068293
34	0x3cd2a1ac	0.025711857
35	0xbdea7e5c	-0.114498824
36	0x3d336659	0.04379878
37	0x3e631b02	0.22178271
38	0xbd2c5a05	-0.042078037
39	0x3e648598	0.22316587
40	0x3e9e7e49	0.30955723
41	0x3dac47d4	0.08412138
42	0xbd44326c	-0.04789965
43	0x3e062545	0.13100155
44	0xbe964941	-0.29352763
45	0xbe939f73	-0.28832588
46	0x3c92e914	0.017933406
47	0x3df6cf02	0.12051202
48	0xbec9505f	-0.3931913
49	0xbe4f3e76	-0.2023867
50	0x3e5e4ff4	0.21710187
51	0x3c051560	0.008122772
52	0xbf169f0d	-0.5883644
53	0x3e04b20e	0.12958547
54	0x3ee0c7b2	0.43902355
55	0xbcbd0e25	-0.023078034
56	0x3db7a276	0.08966534
57	0x3e3c5bbd	0.1839437
58	0x3ebc8f6a	0.36828166
59	0x3e213405	0.157425
60	0xbcfc3b5a	-0.03079002
61	0x3ebcbab9	0.36861208
62	0xbe9ce47b	-0.30643067
63	0x3e8eb9f5	0.2787625
64	0x3dd5ac0e	0.104332075
65	0xbf3081e5	-0.68948203
66	0x3f232bc3	0.6373865
67	0x3e9d19e9	0.3068383
68	0x3d546ff4	0.05186458
69	0x3ed0ef2b	0.4080747
70	0xbdcd247d	-0.10016725
71	0xbefc2fa6	-0.49255103
72	0x3d6faca9	0.05851427
73	0xbdbb19b6	-0.09135763
74	0xbe2053ff	-0.15657042
75	0xbd8be750	-0.06831229
76	0x3f372de6	0.7155441
77	0xbd02b053	-0.031906437
78	0x3f0d2806	0.55139196
79	0x3e9dc196	0.30811757
80	0x3dafc961	0.08583332

weight f4 [3]
0	0x3f800000	1.0
1	0x3f800000	1.0
2	0x3f800000	1.0

bias f4 [3]
0	0x00000000	0.0
1	0x00000000	0.0
2	0x00000000	0.0

running_mean f4 [3]
0	0x00000000	0.0
1	0x00000000	0.0
2	0x00000000	0.0

running_var f4 [3]
0	0x3f800000	1.0
1	0x3f800000	1.0
2	0x3f800000	1.0

weight f4 [3, 12, 1, 1]
0	0x3ee8ba69	0.4545472
1	0x3e71c5ed	0.23610659
2	0x3f2bb5dc	0.6707437
3	0x3f1a798d	0.6034172
4	0xbf0c22c2	-0.54740536
5	0xbf2c9abb	-0.674236
6	0xbeecd9ee	-0.46260017
7	0x3d929caa	0.071587875
8	0xbdcea5aa	-0.10090192
9	0xbf0fe0fb	-0.5620267
10	0x3f3ca2a1	0.7368565
11	0x3f057d91	0.52144724
12	0x3faeee8e	1.3666551
13	0xbe494eb4	-0.19658929
14	0x3d936b23	0.07198169
15	0x3f8a96b0	1.0827236
16	0xbf41a500	-0.75642395
17	0x3dc273eb	0.09494766
18	0x3f6e277d	0.93029004
19	0x3edaa156	0.42701215
20	0x3f24a8ad	0.6431988
21	0x3ec23d36	0.37937325
22	0xbe08727f	-0.13324927
23	0xbf27a5d8	-0.6548743
24	0xbf29c5b2	-0.66317284
25	0x3f528011	0.82226664
26	0xbf3d7be7	-0.74017185
27	0x3fa60a9d	1.2971989
28	0x3f8e94ea	1.1139195
29	0xbf25f6ff	-0.6483001
30	0xbf3fb805	-0.74890167
31	0xbd87337e	-0.06601618
32	0x3f65e0bf	0.8979606
33	0xbfc2b876	-1.5212543
34	0xbd977804	-0.07395938
35	0x3e0748db	0.13211386

weight f4 [3]
0	0x3f800000	1.0
1	0x3f800000	1.0
2	0x3f800000	1.0

bias f4 [3]
0	0x00000000	0.0
1	0x00000000	0.0
2	0x00000000	0.0

running_mean f4 [3]
0	0x00000000	0.0
1	0x00000000	0.0
2	0x00000000	0.0

running_var f4 [3]
0	0x3f800000	1.0
1	0x3f800000	1.0
2	0x3f800000	1.0

weight f4 [3, 12, 1, 1]
0	0x3f9021b8	1.126029
1	0xbd87de83	-0.066342376
2	0xbf051cb5	-0.5199693
3	0x3f486d0f	0.7829141
4	0xbeb75c8b	-0.35812792
5	0xbed11365	-0.4083511
6	0xbf29e881	-0.663704
7	0x3ee9aec8	0.4564116
8	0x3dd6ad82	0.10482313
9	0x3ee1c24e	0.44093555
10	0xbd447d86	-0.04797127
11	0x3ee52c7f	0.4476051
12	0x3e5df6a2	0.21676114
13	0xbf5a7206	-0.85330236
14	0xbf76502a	-0.9621607
15	0x3e845850	0.25848627
16	0x3f659985	0.8968738
17	0xbe94661a	-0.28984147
18	0x3ded0f9a	0.115752414
19	0x3deae960	0.11470294
20	0x3f8ec8c8	1.1155024
21	0x3cf1067c	0.029422037
22	0x3e8f7832	0.2802139
23	0x3f1b200f	0.6059579
24	0xbd82917e	-0.06375407
25	0xbf0ceb14	-0.550462
26	0x3f47a449	0.77985054
27	0x3e9792db	0.2960423
28	0xbf2113a0	-0.6292057
29	0x3f96e0aa	1.1787312
30	0xbfd43cc6	-1.6581047
31	0x3dbe044e	0.09278165
32	0xbe2c8229	-0.16846527
33	0xbb8890ea	-0.0041676657
34	0xbdad6dc1	-0.084681995
35	0x3d8313c1	0.06400252

weight f4 [3]
0	0x3f800000	1.0
1	0x3f800000	1.0
2	0x3f800000	1.0

bias f4 [3]
0	0x00000000	0.0
1	0x00000000	0.0
2	0x00000000	0.0

running_mean f4 [3]
0	0x00000000	0.0
1	0x00000000	0.0
2	0x00000000	0.0

running_var f4 [3]
0	0x3f800000	1.0
1	0x3f800000	1.0
2	0x3f800000	1.0

weight f4 [3, 12, 1, 1]
0	0x3f81ff9c	1.0156131
1	0x3f2ce4df	0.6753673
2	0x3f199af8	0.6000209
3	0x3e63dcc0	0.22252178
4	0xbf4d8f32	-0.80296624
5	0x3e8748ac	0.26422632
6	0xbf224984	-0.63393426
7	0x3f64ac48	0.8932538
8	0x3f6056d2	0.8763248
9	0xbeeae6c5	-0.45879188
10	0xbf8d6fe9	-1.1049777
11	0x3f5edd1f	0.87056154
12	0x3f7941af	0.9736585
13	0xbf1154e1	-0.5677014
14	0xbee9c057	-0.45654556
15	0xbf3ecd2e	-0.7453183
16	0xbf672db9	-0.9030414
17	0xbf052983	-0.52016467
18	0x3e50ccc0	0.20390606
19	0x3ec77246	0.3895437
20	0xbee9e939	-0.45685747
21	0xbddf056b	-0.10889705
22	0x3f51330f	0.81718534
23	0xbf11f532	-0.57014763
24	0xbeeb0651	-0.45903257
25	0x4001f810	2.0307655
26	0xbf7ed14a	-0.995381
27	0x3eece10b	0.46265444
28	0x3f1b8a11	0.6075755
29	0x3eee99f5	0.46601835
30	0xbf6f0a0c	-0.93374705
31	0x3e2b16f6	0.16707978
32	0xbe25b1b9	-0.16181077
33	0xbeb7b079	-0.35876825
34	0x3fc2c1f5	1.5215441
35	0xbed659a1	-0.41865256

weight f4 [3]
0	0x3f800000	1.0
1	0x3f800000	1.0
2	0x3f800000	1.0

bias f4 [3]
0	0x00000000	0.0
1	0x00000000	0.0
2	0x00000000	0.0

running_mean f4 [3]
0	0x00000000	0.0
1	0x00000000	0.0
2	0x00000000	0.0

running_var f4 [3]
0	0x3f800000	1.0
1	0x3f800000	1.0
2	0x3f800000	1.0

weight f4 [3, 12, 1, 1]
0	0xbede634e	-0.43435138
1	0x3f8423df	1.0323447
2	0xbfbd4d8c	-1.478929
3	0x3f1b2549	0.6060377
4	0x3f2bbe93	0.6708767
5	0xbf7d1b29	-0.9886957
6	0x3eed3fa6	0.46337622
7	0xbe922dcc	-0.28550565
8	0x3f41790e	0.7557534
9	0xc00046e7	-2.0043275
10	0xbe623280	-0.22089577
11	0x3f64ccf2	0.8937522
12	0xbf409a6b	-0.75235623
13	0xbd5eb10a	-0.054368056
14	0x3f72d371	0.94853884
15	0xbe21cb79	-0.15800275
16	0x3ecd739c	0.40127265
17	0x3fb1da95	1.3894831
18	0x3edce3c3	0.43142518
19	0xc01143ab	-2.2697551
20	0xbfc33862	-1.5251582
21	0xbf095eba	-0.53660166
22	0x3f019df2	0.5063163
23	0x3e93f9bd	0.28901473
24	0x3f6c6cb1	0.9235335
25	0xbe90bb36	-0.2826783
26	0xbf67de2d	-0.9057339
27	0xbf314c59	-0.6925712
28	0xbf5ec42b	-0.8701808
29	0xbe0f9679	-0.14022245
30	0x3ec54753	0.3853098
31	0xbf34e3dd	-0.7066019
32	0xbf919741	-1.1374284
33	0xbe8d2430	-0.2756667
34	0x3ea72573	0.3264576
35	0x3e57ee50	0.21087003

weight f4 [3]
0	0x3f800000	1.0
1	0x3f800000	1.0
2	0x3f800000	1.0

bias f4 [3]
0	0x00000000	0.0
1	0x00000000	0.0
2	0x00000000	0.0

running_mean f4 [3]
0	0x00000000	0.0
1	0x00000000	0.0
2	0x00000000	0.0

running_var f4 [3]
0	0x3f800000	1.0
1	0x3f800000	1.0
2	0x3f800000	1.0

weight f4 [10, 12]
0	0xbb1726d2	-0.002306391
1	0x3c987ad2	0.018613253
2	0x3c4f31a4	0.012646113
3	0x3c7af4f9	0.015317195
4	0x3acb77a1	0.0015523323
5	0xb9c17db3	-0.00036905482
6	0x3c7a7255	0.015286048
7	0x3b011603	0.0019696958
8	0x3bb6111e	0.0055562397
9	0xbcb6439d	-0.022249037
10	0xbc0b8246	-0.008514946
11	0xbcb070ef	-0.021538226
12	0x3c226944	0.009912793
13	0xbabc0a8d	-0.0014346406
14	0xbbdd9f6f	-0.0067633907
15	0xbbbfa84f	-0.0058489214
16	0xbad3f6be	-0.0016171557
17	0xbc388e89	-0.011264452
18	0x3bc19567	0.0059077027
19	0x3b9d9cd8	0.004809957
20	0x3bdce462	0.0067410925
21	0x3cea672c	0.02861365
22	0x3bdb9f8a	0.006702368
23	0xbc8e447a	-0.017366637
24	0x3b191015	0.0023355533
25	0xbc2b6a01	-0.010462285
26	0x3c698ba1	0.0142544815
27	0x3c3614bb	0.011113341
28	0x3c36640e	0.011132253
29	0x3743c926	1.1669739e-05
30	0xbc0b2abc	-0.008494075
31	0xba445519	-0.0007489487
32	0x3ae0d794	0.0017154091
33	0x3a9f46eb	0.0012151873
34	0xbc99b251	-0.018761786
35	0xbb7decdb	-0.0038745913
36	0x3c414f5c	0.011798706
37	0x3ac46459	0.0014983519
38	0xbc39b3a1	-0.011334331
39	0x3a9bcf66	0.0011887371
40	0xbc84a8b0	-0.016193718
41	0x3c9bd5f2	0.019022916
42	0xbb4e7378	-0.003150193
43	0x3c2ae770	0.010431156
44	0x3a816c8c	0.0009874268
45	0xbcad34f2	-0.02114341
46	0x3c0ae242	0.008476796
47	0xbb8728a3	-0.0041247173
48	0x3bce8aa7	0.0063031497
49	0x3c2b09d6	0.010439357
50	0x3bd731be	0.006567209
51	0x3b3e6e17	0.0029057318
52	0x3b4e9b82	0.0031525795
53	0xbbe01ebc	-0.0068396013
54	0x3b9052fa	0.004404423
55	0x3c2261bb	0.009910996
56	0xbb85b50b	-0.00408042
57	0xbbf2e1fd	-0.007412194
58	0xbbfc6c99	-0.0077033755
59	0x3bfcc53e	0.007713943
60	0x3a9d7321	0.001201246
61	0xbcce740b	-0.025201818
62	0xba0a5a7e	-0.00052777666
63	0xbbc1c4f4	-0.005913371
64	0x3a08039a	0.0005188525
65	0x3c532c01	0.012888909
66	0x3af173de	0.0018421372
67	0xbc3c2d62	-0.0114854295
68	0xbbfcec3e	-0.007718592
69	0x3c22a146	0.009926146
70	0xbc726081	-0.014793516
71	0x3cb5beb7	0.022185666
72	0x3c81cb7d	0.015844101
73	0xbc70e3a3	-0.01470271
74	0x3bb5f642	0.005553038
75	0xbc0cb035	-0.008586933
76	0xbc456ebe	-0.012050329
77	0xbbdd3e3b	-0.006751803
78	0x3c1ff6e8	0.009763457
79	0xbc3c72a9	-0.0115019465
80	0xbb4b5365	-0.0031025049
81	0x3c446361	0.011986584
82	0xbbfe6320	-0.0077632815
83	0xbb2ec0cf	-0.0026665216
84	0x3b0aaea2	0.0021161218
85	0x3c112046	0.008857792
86	0x3c86c0b9	0.01644932
87	0xbbc33a50	-0.005957879
88	0xbbd6d010	-0.0065555647
89	0xbb449d78	-0.0030001085
90	0xba630584	-0.00086601847
91	0x3adf9e32	0.0017060696
92	0xbb751481	-0.0037396254
93	0xbb38aae4	-0.002817803
94	0xbc678ef4	-0.014133204
95	0x3b61bc41	0.0034444483
96	0x3bfbb557	0.0076815295
97	0xbc22cf40	-0.009937108
98	0xbc04b96f	-0.008100851
99	0x3b3c7b7b	0.0028760124
100	0xbbb6aaa2	-0.0055745402
101	0xbbe073ea	-0.0068497555
102	0x3b902ae8	0.004399646
103	0x3a8a8874	0.0010569231
104	0xbb2f5864	-0.0026755566
105	0xbabd57d9	-0.0014445736
106	0xbb1d407f	-0.0023994741
107	0x3b44cd65	0.0030029651
108	0x3b1e1da4	0.0024126554
109	0xbc0b7188	-0.008510955
110	0x3aa66f14	0.0012697899
111	0xbc9f6b55	-0.01946036
112	0x3b083ab2	0.0020786938
113	0xbc8cf502	-0.017206673
114	0xbc9e4c37	-0.019323451
115	0x3b8a3f72	0.004218989
116	0x3cb74ca2	0.022375409
117	0xbc3e73a7	-0.011624253
118	0x3b82991d	0.0039855377
119	0xbbc72890	-0.0060778335

bias f4 [10]
0	0x00000000	0.0
1	0x00000000	0.0
2	0x00000000	0.0
3	0x00000000	0.0
4	0x00000000	0.0
5	0x00000000	0.0
6	0x00000000	0.0
7	0x00000000	0.0
8	0x00000000	0.0
9	0x00000000	0.0
