prerequisite_task/test2/trained.pth (torch, 31967 bytes, 47 tensors)

weight f4 [12, 3, 3, 3]
0	0xbde546cf	-0.11195146
1	0x3e2eb796	0.1706222
2	0xbe2e302b	-0.17010562
3	0x3d32eb28	0.043681294
4	0x3c9cf73d	0.019160861
5	0xba2a590a	-0.0006498253
6	0x3df0d645	0.11759619
7	0xbe7b7ad9	-0.24558581
8	0x3e702aaf	0.23453782
9	0x3def144f	0.116737954
10	0x3e663b2e	0.22483513
11	0xbe65bcc3	-0.22435288
12	0xbe2ede0e	-0.17076895
13	0xbd2f756f	-0.042836603
14	0x3bcba5af	0.0062148194
15	0xbc028551	-0.007966355
16	0xbdf65dab	-0.120295845
17	0x3e0a125d	0.13483568
18	0xbdb6c9cc	-0.089252084
19	0x3e829e5f	0.25511453
20	0xbe5e98ab	-0.21737926
21	0x3e12c855	0.14334233
22	0x3d93b1ba	0.07211633
23	0xbd4aeac2	-0.04954029
24	0x3c804c92	0.015661512
25	0xbe9aabb3	-0.3020912
26	0x3e82d00d	0.25549355
27	0x3e0eda0e	0.13950369
28	0x3e56e393	0.2098525
29	0x3e26bf7e	0.16283986
30	0x3d813a6e	0.06309973
31	0xbbabfc68	-0.005248595
32	0x3e516373	0.20448093
33	0x3e23fe4b	0.16014974
34	0x3ca4bd91	0.020109924
35	0x3e0d8350	0.13819623
36	0x3df1cbe6	0.11806469
37	0xbda0f78b	-0.07859715
38	0xbc9899b0	-0.018627971
39	0x3d643523	0.055714738
40	0xbd98d74d	-0.0746294
41	0x3ddecf6f	0.108794086
42	0xbe4a4230	-0.19751811
43	0xbd1a2b9e	-0.037639253
44	0xbd325da7	-0.043546345
45	0x3db92b74	0.09041491
46	0xbcb39a7a	-0.021924246
47	0x3e167ed5	0.1469682
48	0xbd88bb85	-0.066763915
49	0xbc3f1f20	-0.011665136
50	0xbca54bb3	-0.020177698
51	0x3cf0dc28	0.029401854
52	0x3dce28f9	0.10066409
53	0x3dba61b2	0.09100665
54	0x3e3203d1	0.17384268
55	0xbbc47f60	-0.0059966296
56	0x3cc442e3	0.023957675
57	0xbdd4277a	-0.10359092
58	0x3ddd5f8e	0.10809241
59	0x3caceab1	0.021108003
60	0xbdf42b1d	-0.11922286
61	0xbd43a0a5	-0.047760624
62	0xbd991054	-0.074738175
63	0xbdb0dff2	-0.08636464
64	0x3de42a31	0.1114086
65	0xbcd4ea94	-0.025990762
66	0x3dd71760	0.10502505
67	0xbc5ed9d6	-0.013601741
68	0x3d8f8c31	0.07009161
69	0xbdfa3629	-0.122173615
70	0xbe34329d	-0.17597432
71	0xbe16643e	-0.14686677
72	0x3e951782	0.29119498
73	0x3e7ba037	0.24572836
74	0x3dc94bed	0.09828935
75	0x3ceb8d35	0.028753856
76	0xbdc5d84f	-0.09660398
77	0x3bdd2ace	0.0067494875
78	0xbd9cfa44	-0.07664922
79	0x3ca207e4	0.019779153
80	0x3c97383e	0.018459436
81	0xbe8379e0	-0.2567892
82	0x3d9f5a8b	0.077809416
83	0x3dbf3d6a	0.09337886
84	0x3d14691a	0.036233045
85	0x3c5c525b	0.013447369
86	0xbd7321a5	-0.059358258
87	0x3e4e6218	0.20154607
88	0x3ea2eecb	0.3182281
89	0xbd517bb9	-0.05114338
90	0x3d358d8a	0.044324435
91	0xbe26ddf8	-0.16295612
92	0x3ca19688	0.0197251
93	0xbe240a32	-0.16019514
94	0x3c8dbca5	0.017301867
95	0xbe10b82f	-0.1413276
96	0xbe7b648e	-0.24550077
97	0xbdb826bf	-0.08991765
98	0xbddea49d	-0.10871241
99	0x3e5b2f5a	0.21404782
100	0xbdea82a6	-0.114507005
101	0xbe0980ae	-0.13427994
102	0x3d667009	0.05625919
103	0x3cae2dc1	0.021262052
104	0x3e4b29f4	0.19840223
105	0xbc51e220	-0.01281026
106	0xbe363f51	-0.17797591
107	0x3cd4a18d	0.02595594
108	0xbe5e739d	-0.2172379
109	0xbb9cb318	-0.004782092
110	0xbca1611d	-0.019699628
111	0xbd78a6eb	-0.06070606
112	0x3e1ac345	0.15113552
113	0xbe24392e	-0.16037437
114	0x3e46fa07	0.19431315
115	0xbd505cae	-0.050869636
116	0xbd3d1ca6	-0.0461699
117	0xbe2dfd1c	-0.16991085
118	0xbe5179fb	-0.20456688
119	0xbe63e74b	-0.222562
120	0x3d8a067e	0.067395195
121	0xbe3c9c05	-0.18418892
122	0x3dff6a76	0.12471478
123	0xbc853084	-0.016258486
124	0xbe6f787f	-0.2338581
125	0x3e6616cd	0.22469635
126	0x3ea42e9e	0.32066816
127	0x3eb5a328	0.3547604
128	0xbd2ef67e	-0.042715542
129	0xbdaa8a7f	-0.08327197
130	0x3c2ccf1a	0.010547424
131	0x3d0dc12d	0.034608055
132	0xbbc73675	-0.00607949
133	0x3dc22ccb	0.094812
134	0x3e8f6c60	0.2801237
135	0x3d589dfe	0.052885048
136	0x3decd643	0.11564305
137	0x3d78aaa2	0.060709603
138	0xbe825630	-0.2545638
139	0xbd3e3963	-0.046441447
140	0x3ca72f12	0.020408187
141	0x3b6b9d78	0.0035952013
142	0x3d49e772	0.04929299
143	0xbd86d12e	-0.065828666
144	0x3e038ac3	0.12845902
145	0xbda66487	-0.08124643
146	0x3d52218e	0.05130153
147	0xbd05dbb9	-0.032680247
148	0x3e1e8f00	0.15484238
149	0x3dfc2385	0.12311462
150	0xbd9d7806	-0.07688908
151	0xbe5e3626	-0.21700343
152	0x3db1439e	0.08655475
153	0x3e8cdcaf	0.27512118
154	0x3d54c899	0.051949117
155	0xbbe1f459	-0.0068955836
156	0x3e4eaacd	0.20182343
157	0xbcb7b366	-0.022424411
158	0x3dcea8f3	0.10090818
159	0xbd56b5b0	-0.052419364
160	0xbd9ba7e2	-0.076003805
161	0xbe50cdff	-0.20391081
162	0x3d51b0c4	0.051193967
163	0xba0e2cd6	-0.0005423551
164	0x3dc790fa	0.09744449
165	0xbe19640f	-0.14979576
166	0x3e1878df	0.14889859
167	0xbdb49912	-0.08818258
168	0xbd803af6	-0.06261246
169	0x3e1fe59c	0.15614933
170	0xbd6ffe4e	-0.058592133
171	0xbcebf0c4	-0.02880133
172	0x3d85b501	0.065286644
173	0x3dbb4b55	0.09145228
174	0xbeb3aebb	-0.35094246
175	0x3d802685	0.06257347
176	0x3d2665b9	0.040624354
177	0xbdf06fab	-0.11740049
178	0xbd8cf57a	-0.068827584
179	0xbdc46afa	-0.09590717
180	0xbe5299fc	-0.20566553
181	0x3c809288	0.015694872
182	0xbe19fa5b	-0.1503691
183	0x3ca3e6f9	0.020007597
184	0xbe4db58c	-0.20088786
185	0xbe79a877	-0.2438067
186	0x3d47549f	0.048664685
187	0x3dd65395	0.10465161
188	0x3d547da5	0.051877636
189	0xbd75f730	-0.06005019
190	0xbdda4408	-0.10657507
191	0xbbb31008	-0.0054645576
192	0xbe51bf2c	-0.20483083
193	0x3e581d14	0.21104842
194	0x3e04ecf9	0.12981023
195	0x3e8a4b0b	0.27010378
196	0xbcbb1a67	-0.022839738
197	0xbd606341	-0.054782156
198	0xbc405fa9	-0.011741557
199	0xbd2fe013	-0.042938303
200	0x3c88ffc4	0.016723521
201	0x3e577143	0.210393
202	0x3d6fe748	0.058570176
203	0x3dbdbe5f	0.09264826
204	0x3e2897a9	0.16464104
205	0xbe0fee80	-0.14055824
206	0x3e2240d7	0.15845047
207	0x3db87416	0.09006517
208	0xbdad69a0	-0.08467412
209	0xbe5924a5	-0.21205385
210	0xbc762aa6	-0.015024817
211	0x3e11de5d	0.14244981
212	0xbe78c549	-0.24294008
213	0x3e10beac	0.14135236
214	0xbcd99d14	-0.026564158
215	0x3e240f90	0.16021562
216	0xbecefafc	-0.4042586
217	0xbdde922d	-0.108677246
218	0xbd48abc6	-0.04899194
219	0xbe1ce951	-0.15323378
220	0xbd9e3779	-0.07725424
221	0xbdda762d	-0.106670715
222	0xbc13a40f	-0.009011283
223	0xbdd5439e	-0.104132876
224	0xbe078eb0	-0.13238025
225	0xbe0e1d57	-0.1387838
226	0xbc1de082	-0.009636046
227	0x3e130f9b	0.14361422
228	0xbe1e754a	-0.1547443
229	0xbcf43eac	-0.02981504
230	0xbd63a4ef	-0.055577215
231	0xbe68eff0	-0.22747779
232	0x3c963c89	0.018339412
233	0xbd2e97d2	-0.042625256
234	0xbc698411	-0.0142526785
235	0x3e38b827	0.18038999
236	0xbe3790e2	-0.17926362
237	0xbdf66dba	-0.120326474
238	0xbe50f468	-0.20405734
239	0x3dced4c3	0.10099175
240	0xbd9a32f0	-0.07529247
241	0xbc5ecd33	-0.013598728
242	0x3cacf414	0.02111248
243	0xbd7a569e	-0.06111776
244	0x3dbd7f8a	0.09252842
245	0x3c8ad059	0.016945051
246	0xbeae920b	-0.34095797
247	0xbdfc86d4	-0.12330404
248	0xbe2b2483	-0.16713147
249	0x3e39eeb0	0.18157458
250	0xbd656820	-0.056007504
251	0x3db31018	0.08743304
252	0xbdbb8785	-0.09156708
253	0x3d9788ad	0.07399116
254	0x3ddf684d	0.10908566
255	0xbd8ee22d	-0.06976733

weight f4 [12]
0	0x3f87af80	1.0600433
1	0x3f875d16	1.0575283
2	0x3f7f8e39	0.9982639
3	0x3f70c396	0.9404844
4	0x3f8c6825	1.0969282
5	0x3f84115e	1.03178
6	0x3f59c137	0.8506045
7	0x3f47ab53	0.77995795
8	0x3f5293a4	0.8225653
9	0x3f8a038e	1.0782335
10	0x3f874348	1.0567408
11	0x3f8ce179	1.1006309

bias f4 [12]
0	0x3db27609	0.0871392
1	0x3cda7f29	0.026671963
2	0x3e4fbca7	0.20286809
3	0xbce1b23f	-0.027550815
4	0x3d548e5d	0.05189358
5	0xbdc3279a	-0.09529038
6	0xbd24c77c	-0.040229306
7	0xbca41846	-0.020031106
8	0xbcb551d8	-0.022133753
9	0xbd7e4814	-0.062080458
10	0x3e5c0b3e	0.21488664
11	0xbb7d5f23	-0.0038661442

running_mean f4 [12]
0	0xbc48d55d	-0.012257901
1	0xbeaae05a	-0.33374292
2	0xbd5bfa7c	-0.053705677
3	0x3dc52aed	0.09627328
4	0xbbbee80b	-0.0058260015
5	0xbda4b13a	-0.08041616
6	0x3e6fad8c	0.23406047
7	0xbe397b84	-0.18113524
8	0x3f0bac54	0.54559827
9	0x3d6ca651	0.0577758
10	0x3d420c82	0.04737521
11	0x3da0066c	0.07813725

running_var f4 [12]
0	0x3dd4fec9	0.10400159
1	0x4007daf4	2.1227388
2	0x3f33745f	0.70099443
3	0x3e654987	0.2239133
4	0x3ebcf7e5	0.3690788
5	0x3f03a5a7	0.5142464
6	0x3fa467f2	1.2844222
7	0x3f5a0eae	0.8517865
8	0x40a7b5cf	5.2409434
9	0x3eb1ab11	0.34700826
10	0x3ecd9263	0.40150747
11	0x3e6b22c1	0.22962476

weight f4 [3, 3, 1, 1]
0	0xbf33e77f	-0.7027511
1	0x3f5d4b3e	0.86442935
2	0x3dca9786	0.09892182
3	0x4011b979	2.2769454
4	0xbe9b1b52	-0.3029428
5	0xbe7fc006	-0.24975595
6	0xbe4db662	-0.20089105
7	0x3f0beb3b	0.5465581
8	0xbecaa237	-0.39576885

weight f4 [3]
0	0x3f94865c	1.1603503
1	0x3febd9c7	1.8425835
2	0x3fada108	1.3564768

bias f4 [3]
0	0x3e280bee	0.16410801
1	0x3e680b0c	0.22660464
2	0x3e5f682b	0.2181708

running_mean f4 [3]
0	0x3eb4410f	0.35205886
1	0x3c4ae793	0.012384313
2	0x3d866126	0.06561498

running_var f4 [3]
0	0x3eb6c524	0.3569728
1	0x3ec1454c	0.37748182
2	0x3e1db04b	0.15399282

weight f4 [3, 3, 3, 3]
0	0xbf1fb083	-0.6237871
1	0xbe8cdbd0	-0.27511454
2	0xbe43d51f	-0.19124268
3	0xbc833b15	-0.016019383
4	0xbd85d945	-0.065355815
5	0xbdfb19d2	-0.12260784
6	0x3e8d83ca	0.2763961
7	0xbf4da12c	-0.80324054
8	0xbef7971a	-0.4835747
9	0x3da2b6a7	0.079449944
10	0xbe207b05	-0.15671928
11	0x3e495198	0.19660032
12	0xbe9bebb4	-0.30453265
13	0xbdbbaa71	-0.091633685
14	0xbe763f39	-0.24047555
15	0xbe7806a6	-0.24221286
16	0xbcb26efc	-0.021781437
17	0x3de443df	0.11145758
18	0x3dd65048	0.10464531
19	0xbd2444b4	-0.040104583
20	0x3d937803	0.07200625
21	0x3da7bfd4	0.08190885
22	0xbeb70caa	-0.3575185
23	0xbec7c5b6	-0.3901803
24	0xbec5f1f7	-0.38661167
25	0x3ee51c16	0.4474799
26	0x3e2cb30b	0.16865174
27	0xbe53ead9	-0.20695056
28	0xbede1705	-0.43376938
29	0x3d93f8b6	0.07225172
30	0xbec48347	-0.38381407
31	0x3e4ddc57	0.20103584
32	0xbe6b2d37	-0.22966467
33	0xbe6034de	-0.21895167
34	0x3d8f3e0d	0.06994257
35	0xbee7dcd1	-0.45285657
36	0xbed9e079	-0.42554072
37	0xbe2ca0b7	-0.16858183
38	0x3ea6189a	0.32440645
39	0x3e049eb8	0.12951171
40	0x3eb6c7d8	0.35699344
41	0xbe4c65e4	-0.19960743
42	0xbecda430	-0.40164328
43	0xbe070bf4	-0.13188154
44	0x3d4fb4c8	0.050709516
45	0x3d90ac2a	0.07064088
46	0xbe3b56ce	-0.18294832
47	0xbed94e73	-0.42442665
48	0x3e750a18	0.23929632
49	0x3c259ccc	0.010108184
50	0xbe6906e5	-0.22756536
51	0xbe467e4c	-0.19384116
52	0xbdeba501	-0.11506081
53	0xbe5ce005	-0.21569832
54	0x3e844da9	0.258405
55	0x3e9a48c9	0.30133656
56	0xbdcaa4d6	-0.09894721
57	0x3e00ab26	0.12565288
58	0xbdc20b52	-0.094748154
59	0xbc7e17c0	-0.015508592
60	0xbdf07525	-0.117410935
61	0xbc71c0c0	-0.014755428
62	0xbda07ba1	-0.0783608
63	0xbf129778	-0.5726237
64	0x3df97bb6	0.12181799
65	0x3db8814d	0.09009037
66	0x3d5dcc44	0.05414988
67	0x3ed5ddf5	0.41770902
68	0xbe692ef8	-0.22771823
69	0x3e8e2cc0	0.27768517
70	0x3e7e688f	0.24844573
71	0x3f234652	0.63779175
72	0xbebaa2e0	-0.3645239
73	0x3e4b7331	0.19868161
74	0xbd91bc43	-0.07115986
75	0x3e817b08	0.25289178
76	0x3c718118	0.014740251
77	0xbe9e85c9	-0.30961445
78	0xbe737869	-0.23776402
79	0xbe065049	-0.13116564
80	0x3ccd8c5f	0.025091348

weight f4 [3]
0	0x3fa0dd60	1.2567558
1	0x3f9750bc	1.1821513
2	0x3f8420d9	1.0322524

bias f4 [3]
0	0x3ea6de37	0.3259141
1	0x3e81c922	0.25348765
2	0x3c6989f7	0.014254085

running_mean f4 [3]
0	0xc0377ce6	-2.8669982
1	0xc026833c	-2.60176
2	0x3f383e4f	0.71970075

running_var f4 [3]
0	0x40f57a6f	7.6711955
1	0x40b9769a	5.7957277
2	0x40886ce1	4.263291

weight f4 [3, 3, 3, 3]
0	0x3e67fbe8	0.22654688
1	0xbccc6cdc	-0.024954252
2	0xbe92e364	-0.2868911
3	0x3e9e3e3a	0.3090685
4	0xbebad713	-0.36492214
5	0xbf0b02dc	-0.5430124
6	0x3e92433a	0.28566915
7	0x3deed137	0.11660998
8	0x3a6d1afb	0.0009044853
9	0x3e8a70a3	0.2703906
10	0x3e1acc61	0.15117027
11	0xbba4d94f	-0.005030788
12	0x3e80c0d7	0.25147125
13	0xbde79c9d	-0.113091685
14	0x3eca3f35	0.39501348
15	0x3f00bbd9	0.5028663
16	0x3e52ec46	0.20597944
17	0xbe07b753	-0.13253526
18	0x3e87c181	0.2651482
19	0x3e9d762a	0.30754215
20	0xbe188877	-0.14895807
21	0x3e0db00b	0.13836686
22	0x3d57dd68	0.052701384
23	0xbe390a8f	-0.18070434
24	0x3dcdadd1	0.100429185
25	0x3e788cb1	0.2427242
26	0x3e1838b5	0.14865382
27	0x3e62c2f8	0.22144687
28	0xbee2d033	-0.44299468
29	0xbefedb9e	-0.4977693
30	0x3ee42ca0	0.44565296
31	0x3dd66b96	0.10469739
32	0x3f10aea1	0.5651646
33	0x3d98040f	0.07422649
34	0x3eb85649	0.3600333
35	0x3dc6940f	0.09696209
36	0x3f1bedc9	0.60909706
37	0x3f092043	0.5356485
38	0x3e7a988a	0.24472252
39	0x3efbe874	0.49200785
40	0xbe660db2	-0.22466162
41	0x3f26b706	0.6512302
42	0xbea441c0	-0.32081413
43	0xbe1c3e2c	-0.15258092
44	0x3e42e65a	0.19033185
45	0xbeaadd82	-0.33372122
46	0x3b746fec	0.0037298156
47	0x3edb690a	0.42853576
48	0xbe942a0c	-0.2893833
49	0x3e1593c5	0.14607151
50	0xbdd89d9d	-0.10576937
51	0xbeb9a2ae	-0.36256927
52	0x3e940964	0.28913414
53	0xbe48b982	-0.19602016
54	0xbdd48a94	-0.10377994
55	0xbdc369cc	-0.095416635
56	0x3e0b6305	0.13611992
57	0xbee12ef6	-0.4398114
58	0xbb6d3f23	-0.0036200962
59	0x3e89812c	0.26856363
60	0xbe9b7f1f	-0.30370423
61	0xbeb930ce	-0.36170048
62	0xbea00543	-0.31254014
63	0x3e1b48b4	0.15164453
64	0xbd8e0ee9	-0.06936438
65	0xbd098076	-0.033569776
66	0x3f0e4575	0.55574733
67	0xbe6a9fde	-0.22912547
68	0x3e592b89	0.21208014
69	0xbdacbc5b	-0.084343635
70	0x3f1f4346	0.62212026
71	0xbe612589	-0.21986975
72	0x3eae6773	0.340633
73	0x3d8f34ca	0.069924906
74	0xbc26147c	-0.01013672
75	0x3ebc9f49	0.36840275
76	0xbd02fb8d	-0.03197818
77	0xbec5aa9b	-0.38606724
78	0xbe4f684c	-0.2025463
79	0x3e06c7a2	0.13162091
80	0xbc8115ad	-0.015757406

weight f4 [3]
0	0x3f82b4e6	1.0211456
1	0x3f7d0dc6	0.9884914
2	0x3f8125bd	1.0089642

bias f4 [3]
0	0x3cc2843a	0.023744691
1	0xbc1d0f1d	-0.009586123
2	0xbc4768e8	-0.012171008

running_mean f4 [3]
0	0x3ffa52ac	1.955648
1	0x4010972a	2.2592263
2	0x3d977679	0.07395644

running_var f4 [3]
0	0x40c046b3	6.0086303
1	0x412526dd	10.321988
2	0x4030bacd	2.7614014

weight f4 [3, 3, 3, 3]
0	0xbeb44af7	-0.35213444
1	0x3da05728	0.07829124
2	0xbe2163aa	-0.15760675
3	0x3d864af2	0.065572634
4	0x3da906e5	0.08253268
5	0x3e7ba24c	0.2457363
6	0x3eb085a1	0.3447695
7	0xbdc2acf0	-0.095056415
8	0xbeac93e5	-0.33706585
9	0x3ccf30e0	0.02529186
10	0x3e960d67	0.293071
11	0x3e4bb485	0.19893081
12	0xbe92e7d8	-0.28692508
13	0x3e684d5c	0.2268576
14	0xbe6070c0	-0.2191801
15	0x3ed8fdad	0.4238104
16	0x3f3f70a8	0.74781275
17	0xbe40b4eb	-0.18819015
18	0x3d276e6a	0.040876783
19	0x3efe8d8d	0.4971737
20	0xbd9eadb4	-0.07747975
21	0xbee61192	-0.4493528
22	0xbe536e13	-0.20647459
23	0xbe4c4474	-0.19947988
24	0xbc9290db	-0.017891338
25	0x3ee4050e	0.44535106
26	0x3e810809	0.25201443
27	0x3e2da202	0.16956332
28	0xbd83ccf9	-0.0643558
29	0xbf17cd58	-0.59297705
30	0xbde432bb	-0.111424886
31	0xbe81b382	-0.25332266
32	0xbd862785	-0.065505065
33	0xbeab1ab6	-0.33418816
34	0x3c45b5e0	0.012067288
35	0xbe190d3b	-0.14946453
36	0xbd139ace	-0.036036305
37	0x3e0c5267	0.13703309
38	0xbe018597	-0.12648617
39	0x3e2449fa	0.16043845
40	0x3e70192c	0.23447102
41	0x3ba0bbe4	0.004905211
42	0xbd893f46	-0.067015216
43	0x3dccc2e9	0.09998114
44	0xbea7f43a	-0.32803518
45	0xbea4cf7f	-0.32189557
46	0xbcb5cc50	-0.02219215
47	0x3d9ffd52	0.07811989
48	0xbece1955	-0.40253702
49	0xbe5e6f4d	-0.21722145
50	0x3e2db247	0.16962539
51	0xbbb0bb72	-0.005393439
52	0xbf16bc6d	-0.58881265
53	0x3dc4abe4	0.09603098
54	0x3ee231d2	0.44178635
55	0xbca97b59	-0.0206887
56	0x3dbfc947	0.093645625
57	0x3e3e7e82	0.18602946
58	0x3ebb5fbe	0.36596483
59	0x3e238bb0	0.15971255
60	0xbce9e126	-0.028549742
61	0x3ebc1e15	0.367417
62	0xbe9b5f25	-0.30346027
63	0x3e96873c	0.2940005
64	0x3df3faec	0.11913094
65	0xbf2c785f	-0.6737117
66	0x3f2512cf	0.64481825
67	0x3ea1c430	0.31594992
68	0x3d7e2c15	0.06205376
69	0x3ed63dcf	0.4184403
70	0xbdb59dd3	-0.08867993
71	0xbef6860f	-0.48149154
72	0x3d7ea66a	0.062170424
73	0xbdb2d41f	-0.08731865
74	0xbe1af25e	-0.15131518
75	0xbd89b156	-0.06723277
76	0x3f36a4ff	0.71345514
77	0xbcda3748	-0.026637688
78	0x3f0d6be2	0.5524274
79	0x3e9e3288	0.30897927
80	0x3dbc8c10	0.09206402

weight f4 [3]
0	0x3f88e2f2	1.0694258
1	0x3f8fac32	1.1224425
2	0x3f867699	1.0504943

bias f4 [3]
0	0x3d0e6e85	0.03477337
1	0x3e4df7ce	0.20114061
2	0x3c413ff0	0.011795029

running_mean f4 [3]
0	0x3f98f415	1.1949488
1	0xc002ec8e	-2.0456882
2	0x403021b6	2.7520576

running_var f4 [3]
0	0x40c2faa4	6.093096
1	0x409e1a30	4.9406967
2	0x4181fc72	16.248264

weight f4 [3, 12, 1, 1]
0	0x3e32ea92	0.17472294
1	0x3e8a0c4d	0.2696251
2	0x3f16dcff	0.58930963
3	0x3f017725	0.50572425
4	0xbf3326ca	-0.6998106
5	0xbf23e348	-0.6401868
6	0xbf0230fa	-0.5085598
7	0x3cc02822	0.023456637
8	0xbdc17ff6	-0.09448235
9	0xbf3d6098	-0.73975515
10	0x3f37bda7	0.7177376
11	0x3f02d895	0.5111173
12	0x3fba9811	1.4577657
13	0xbe98835b	-0.29787716
14	0xbdec6de2	-0.11544396
15	0x3f80a32a	1.0049794
16	0xbf5d7f42	-0.86522305
17	0xbd61c557	-0.05511984
18	0x3f447e34	0.7675507
19	0x3ea84d9a	0.32871705
20	0x3efc6aba	0.49300176
21	0x3e2a5ab5	0.16636164
22	0xbea77d0f	-0.327126
23	0xbf4f0860	-0.80872154
24	0xbf2431b1	-0.64138323
25	0x3f541462	0.828436
26	0xbf3c2348	-0.73491335
27	0x3fab3dd7	1.3378247
28	0x3f8b72ca	1.0894406
29	0xbf25383e	-0.64538944
30	0xbf3a5994	-0.72792935
31	0xbd8815fe	-0.0664482
32	0x3f690dc0	0.91036606
33	0xbfc1f6a9	-1.51534
34	0xbd891623	-0.06693675
35	0x3e166caf	0.14689897

weight f4 [3]
0	0x3f5a53e4	0.85284257
1	0x3f81170c	1.0085158
2	0x3f85631d	1.0420872

bias f4 [3]
0	0xbec2d1a4	-0.38050568
1	0x3e18b6f1	0.14913537
2	0x3d6a5cb9	0.057217333

running_mean f4 [3]
0	0x3e84bbce	0.25924534
1	0x3ed39121	0.41321662
2	0x3d975ea2	0.07391097

running_var f4 [3]
0	0x3f04d054	0.51880383
1	0x3fd4604e	1.659189
2	0x403e0594	2.9690905

weight f4 [3, 12, 1, 1]
0	0x3f8e94ac	1.1139121
1	0xbdc44b46	-0.0958467
2	0xbf0533cd	-0.52032167
3	0x3f4bb173	0.7956764
4	0xbea9007b	-0.3300818
5	0xbed7d7eb	-0.4215692
6	0xbf2615fe	-0.6487731
7	0x3ee1837e	0.44045633
8	0x3df5720b	0.119846426
9	0x3eeaf88b	0.45892748
10	0xbd469c9d	-0.0484892
11	0x3ef2c31d	0.47414485
12	0x3e622ad5	0.22086652
13	0xbf5a8bcf	-0.8536958
14	0xbf774fd1	-0.96606165
15	0x3e86127d	0.2618598
16	0x3f64c25a	0.89359057
17	0xbe958393	-0.29201946
18	0x3decdc0b	0.11565407
19	0x3def4180	0.11682415
20	0x3f8e951b	1.1139253
21	0x3cf00e0c	0.029303573
22	0x3e8b89f2	0.2725368
23	0x3f1b293e	0.60609806
24	0xbd7ac33e	-0.061221354
25	0xbf0c0e2a	-0.5470911
26	0x3f486817	0.7828383
27	0x3e9aeeb7	0.3026025
28	0xbf230248	-0.63675356
29	0x3f96fba2	1.1795542
30	0xbfd3a63f	-1.6535109
31	0x3dba4794	0.09095684
32	0xbe27b6c4	-0.16378313
33	0x3b0b7bb9	0.0021283461
34	0xbdb08f1a	-0.086210445
35	0x3d8f0e1c	0.06985113

weight f4 [3]
0	0x3f81b55a	1.0133469
1	0x3f810364	1.007916
2	0x3f7e249e	0.99274623

bias f4 [3]
0	0x3d72bfbe	0.05926489
1	0x3c465d86	0.012107259
2	0xbcb0554e	-0.021525051

running_mean f4 [3]
0	0x3eeb4c01	0.45956424
1	0x3efcd6cd	0.4938263
2	0xbe7a3871	-0.24435593

running_var f4 [3]
0	0x3fa4c76f	1.2873362
1	0x404783bc	3.1174154
2	0x3fdb6ab6	1.714194

weight f4 [3, 12, 1, 1]
0	0x3f81bbd1	1.0135442
1	0x3f2d6395	0.67730075
2	0x3f18f6b3	0.59751433
3	0x3e6067a5	0.21914537
4	0xbf4e099c	-0.8048341
5	0x3e870f80	0.26379013
6	0xbf22c2b3	-0.6357834
7	0x3f6543da	0.8955666
8	0x3f5fd8bf	0.87440103
9	0xbeeb5f9b	-0.4597138
10	0xbf8da868	-1.1067019
11	0x3f5e3439	0.86798435
12	0x3f7b566d	0.9817875
13	0xbf128156	-0.572286
14	0xbee470b9	-0.4461725
15	0xbf3e4c6f	-0.7433538
16	0xbf650528	-0.8946099
17	0xbf049153	-0.5178425
18	0x3e54d0c1	0.20782758
19	0x3ec5dd13	0.3864523
20	0xbee7c4e8	-0.45267415
21	0xbdddeb76	-0.10835926
22	0x3f53c51a	0.8272263
23	0xbf1144f5	-0.56745845
24	0xbeeb06b9	-0.45903566
25	0x4001f98e	2.0308566
26	0xbf7e9625	-0.9944785
27	0x3eed4fce	0.4634995
28	0x3f1b7963	0.60732096
29	0x3eeeb5e0	0.46623135
30	0xbf6efe2c	-0.93356586
31	0x3e2adb96	0.16685328
32	0xbe258694	-0.16164619
33	0xbeb74e50	-0.35801935
34	0x3fc2d544	1.5221334
35	0xbed652b1	-0.41859964

weight f4 [3]
0	0x3f7d249e	0.98884
1	0x3f7d291c	0.9889085
2	0x3f7f2be1	0.9967633

bias f4 [3]
0	0xbbf0d0a5	-0.007349091
1	0xbc32cd3a	-0.010913188
2	0xbb3578b1	-0.0027690346

running_mean f4 [3]
0	0x3f530754	0.82433057
1	0xbf4311b5	-0.76198894
2	0x3f7d66f3	0.98985213

running_var f4 [3]
0	0x40215a4f	2.521137
1	0x3f8c429c	1.0957828
2	0x4066f81f	3.608894

weight f4 [3, 12, 1, 1]
0	0xbec78c19	-0.38974074
1	0x3f87063a	1.0548775
2	0xbfbbf360	-1.4683647
3	0x3f27e16a	0.6557833
4	0x3f27d547	0.6555981
5	0xbf7b1839	-0.98083836
6	0x3eece9b5	0.46272054
7	0xbe9beef6	-0.3045575
8	0x3f3f1171	0.7463599
9	0xc000db9e	-2.0134044
10	0xbe6402d3	-0.22266702
11	0x3f5f0311	0.87114054
12	0xbf373418	-0.71563864
13	0x3b7df469	0.0038750416
14	0x3f8473a2	1.0347788
15	0xbe092341	-0.13392355
16	0x3eb5f6c7	0.3553984
17	0x3fb81676	1.4381855
18	0x3eecab7e	0.46224588
19	0xc00dde65	-2.216699
20	0xbfbe3c80	-1.4862213
21	0xbf0da373	-0.5532753
22	0x3f156503	0.58357257
23	0x3ea0ec58	0.31430316
24	0x3f82447e	1.0177152
25	0xbe8610e8	-0.26184773
26	0xbf68295e	-0.9068812
27	0xbf2c03af	-0.6719312
28	0xbf5b459f	-0.8565311
29	0xbdf63bab	-0.120230995
30	0x3ebfd804	0.37469494
31	0xbf27255c	-0.6529138
32	0xbf8fbafa	-1.1228936
33	0xbe8b9419	-0.27261427
34	0x3ea6d6af	0.32585666
35	0x3e5793b6	0.21052441

weight f4 [3]
0	0x3f8d6290	1.1045704
1	0x3fafcdf4	1.3734727
2	0x3fc43ad7	1.5330456

bias f4 [3]
0	0x3d559641	0.052145246
1	0x3dd81fd8	0.10552949
2	0x3e083d5f	0.13304661

running_mean f4 [3]
0	0xbe92c26e	-0.28663963
1	0x3d368403	0.04455949
2	0xbf89e1f3	-1.0772079

running_var f4 [3]
0	0x40b12219	5.5354123
1	0x40832c8c	4.099188
2	0x3f8cad81	1.0990449

weight f4 [10, 12]
0	0xbda36b4a	-0.07979448
1	0x3e1189b6	0.14212689
2	0xbd3e7336	-0.046496592
3	0x3e8eab71	0.27865174
4	0x3e2a381b	0.16622965
5	0xbd2044ca	-0.039128102
6	0x3db15f41	0.08660746
7	0x3e0ecadb	0.1394457
8	0x3d8c20aa	0.06842168
9	0xbecb11bd	-0.3966197
10	0x3f2cef73	0.6755287
11	0xbf1a0e57	-0.6017813
12	0xbcb7c6ea	-0.022433717
13	0x3e73d89b	0.23813097
14	0x3ca08552	0.019594822
15	0xbeb9a226	-0.36256522
16	0xbe830efe	-0.25597376
17	0x3e3ded83	0.18547635
18	0x3e82fc38	0.25583053
19	0xbe6b8844	-0.230012
20	0x3e3fd6ca	0.1873428
21	0x3da664e9	0.08124716
22	0x3f1587ef	0.58410543
23	0xbeac6d56	-0.33677167
24	0x3bb04aaa	0.0053799944
25	0xbe0b303c	-0.13592619
26	0xbc329811	-0.010900513
27	0x3ea48dd5	0.3213946
28	0x3e94ff94	0.2910124
29	0xbd5789fe	-0.052621834
30	0xbd95f675	-0.073223986
31	0x3e4fdfdc	0.2030024
32	0xbd5a89e4	-0.05335416
33	0xbdfb2791	-0.12263406
34	0xbeac7aa3	-0.33687314
35	0x3e48321c	0.19550365
36	0x3e2123a3	0.1573625
37	0xbd4ff6d8	-0.050772518
38	0x3daefde0	0.085445166
39	0x3c3139df	0.01081702
40	0xbb7aaf49	-0.003825145
41	0x3c95dc8e	0.018293645
42	0xbdadd87a	-0.08488555
43	0x3d40ccd0	0.047070324
44	0xbcac1a24	-0.021008559
45	0x3ecc73f6	0.3993222
46	0xbe910fad	-0.28332272
47	0x3cdd48d5	0.027012268
48	0xbc78c8c7	-0.015184588
49	0xbe485b9e	-0.19566199
50	0xbd715265	-0.05891647
51	0x3e552f08	0.20818722
52	0x3e6fb0a5	0.23407228
53	0xbdaed58e	-0.08536826
54	0xbe17a0b2	-0.14807394
55	0x3e2aa7e0	0.16665602
56	0xbe368d9c	-0.17827457
57	0xbd4ee402	-0.050510414
58	0xbf2a4483	-0.6651079
59	0x3eea28cc	0.4573425
60	0x3dec4a7f	0.115376465
61	0xbd97227f	-0.073796265
62	0x3da12aac	0.07869467
63	0x3d50c3c0	0.05096793
64	0x3cee8c8f	0.029119758
65	0xbcc4aa8b	-0.024007102
66	0xbd990c34	-0.07473031
67	0x3d5dd36f	0.054156717
68	0xbbf28356	-0.0074009104
69	0x3ebf81f3	0.3740383
70	0xbea7fc95	-0.32809892
71	0x3da76def	0.08175265
72	0x3d6a0330	0.057131946
73	0xbe71abb9	-0.23600663
74	0x3db39f9a	0.08770676
75	0xbea41add	-0.32051745
76	0xbe8e45d7	-0.2778766
77	0xbda6e9b3	-0.08150043
78	0xbdbd236c	-0.09235272
79	0xbe818529	-0.25296906
80	0xbd581cdc	-0.052761897
81	0xbce1c118	-0.027557895
82	0xbf4c05c0	-0.79696274
83	0x3f54d1c9	0.83132607
84	0x3cd806fc	0.026370518
85	0xbd955136	-0.072908804
86	0x3d1b58aa	0.037926354
87	0xbe242f18	-0.1603359
88	0xbe28a8e7	-0.16470681
89	0xbd95b180	-0.07309246
90	0xbd1bab6f	-0.03800529
91	0xbdb8f498	-0.090310276
92	0x3c92a00e	0.017898586
93	0x3d128162	0.03576792
94	0xbe59b379	-0.2125987
95	0x3eb70d46	0.35752314
96	0xbe00692f	-0.12540124
97	0x3e406ec2	0.18792251
98	0xbe265778	-0.16244304
99	0x3e98015a	0.2968853
100	0x3e6a651a	0.2289013
101	0x3d80f00f	0.062957875
102	0x3cdf126f	0.02723047
103	0x3e4295b4	0.1900242
104	0xbdaf9319	-0.085729785
105	0xbe767a53	-0.240701
106	0x3f38c0a8	0.7216897
107	0xbf551abc	-0.8324392
108	0xbd7befc3	-0.06150795
109	0x3e2a097a	0.16605178
110	0xba1c87b5	-0.00059711497
111	0xbeabf4bc	-0.33585155
112	0xbe8a8024	-0.2705089
113	0x3d8c8f0d	0.06863222
114	0x3e1b01a0	0.15137339
115	0xbe5de5bb	-0.21669666
116	0x3e104ef3	0.14092617
117	0xbd89d60d	-0.0673028
118	0x3f163465	0.586737
119	0xbe4b8a14	-0.19876891

bias f4 [10]
0	0x3de4ec0e	0.11177836
1	0xbee2c577	-0.4429128
2	0x3ebe1d1b	0.3713158
3	0x3df8b6bc	0.12144229
4	0x3ea947e0	0.3306265
5	0x3df51f8c	0.11968908
6	0xbe901404	-0.2814027
7	0xbdf9cf85	-0.12197784
8	0x3e4afecf	0.19823764
9	0xbed0475f	-0.40679452
