prerequisite_task/test3/my_model.pth (torch, 33311 bytes, 47 tensors)

weight f4 [12, 3, 3, 3]
00000000: 270a 933d 975a 76bb e55d 563d 5be6 e6bd
00000010: 6816 cabd 1e38 bf3d d7ff 883d 9102 afbd
00000020: c161 a53e 7e07 babc e43d 613d 2d28 4a3e
00000030: 6111 62bd 90a1 f03d 8a6f cebd 6fb4 723b
00000040: 6594 2f3d 9b32 f53c 1225 04be a12a c2bd
00000050: 4ce9 1f3e 7678 003e 253a 97bd e40a a63d
00000060: 478a ed3d 2517 3e3d b112 d4bc 696c 2c3d
00000070: 21f9 56be edfe df3b 004e 83bd 1df4 0dbe
00000080: b552 8d3c d8a0 383c f0ca 82be 02ab 30bc
00000090: f945 fe3c 5e79 91bd ef51 89bd e1ad a23e
000000a0: ae6a 6a3e 0176 753d 1f96 033e e8d0 053e
000000b0: 1657 373e 3c11 463d d904 bbbc f0de 693e
000000c0: df70 823d 9469 f13d 480f a4bd d9da aebd
000000d0: 4ab2 4d3c da77 8dbd 5991 6a3b 9d70 b23d
000000e0: 9e87 a43d 4265 1b3c c975 86bd 5694 47be
000000f0: 3292 d33d 33b4 3a3d ac10 e6bd cf52 8dbd
00000100: 7042 013e 4ff9 49be 87c2 1bbd baba b63e
00000110: 7142 2f3d f2f4 2d3d dccd 293d 36fa 013d
00000120: 165e 0b3e 0e2a 76bc 543a 013e 259e a03d
00000130: b102 7bbd b670 76be 4c9e a9be f054 493e
00000140: 0671 b93d 9df6 85bd db55 1bbd 0131 2a3d
00000150: d222 5ebe 6895 38be ac08 473c e890 4d3b
00000160: 74ca b33d adf7 57be 16a1 573d 7c38 b1bd
00000170: e667 33bc a0ae be3d 56e7 743c f737 02bc
00000180: 5c16 0f3e aad2 05be 4836 a73e 010e 64bd
00000190: 94e3 09bb 793f da3c 0716 4f3e f369 90bd
000001a0: dfd1 a93b df19 8e3d 2ab2 1dbe 01f0 50be
000001b0: cc91 cf3c 3d22 2bbd 2064 f83d 0c22 ea3c
000001c0: 29db 7e3d 2010 1f3e fff3 3a3e 92bd 92bd
000001d0: 6e20 8bbc 36e5 453e c708 bf3c a422 b83e
000001e0: 94ff a03a 87df 28bd 2a36 633e f531 31bd
000001f0: 0809 3e3e ff43 82bd 54d0 393e 4ee9 823e
00000200: f8c5 9f3b cbb9 85be 1745 703d a727 b13a
00000210: aa7b 11be 0a1b f7bc 7c73 01bd 1ea2 323e
00000220: 5076 073e fc91 6c3d 66ee c4bc 4e5a cb3c
00000230: dde8 503e 28ff f43c 896e 873d d78d b43d
00000240: d71e dd3b f91e 4abe 4946 59bd 23c4 4f3e
00000250: 4780 04be ed64 813d 5afa 94bc 5e28 c93d
00000260: fda8 27be 8a5f cbbd 73cf 023e a298 1a3d
00000270: 43e0 0dbb 6e46 f63d 6078 70be 0f11 8f3d
00000280: a065 29bd 6223 d0bd 6f27 eb3d efc1 c63c
00000290: 90cd 61be a20d d7bc cec6 8dbe fbc0 4fbb
000002a0: a960 68be 512e 3b3c dcb3 40bd d235 46be
000002b0: 68e8 5abd 2c93 f53b 6955 853e 369a 74be
000002c0: ec09 363d 3db2 d93d c10d 29be 1b81 5ebc
000002d0: f581 cc3d c0b9 27be ebb9 b4bd b60c dabb
000002e0: e208 c13d f170 fbbd 8672 9b3d e270 2f3d
000002f0: 3f1d 5e3d 6f25 8c3d c340 5e3e 56d3 71be
00000300: 25e9 0bbe 4978 c5bd 7333 1e3d b985 203e
00000310: 168e 793e cbf6 c93d 02e3 89be 2a5b 813e
00000320: 12be 80be bfc8 343d abd7 973b 662e 88bd
00000330: c56f 383e 263e 4dba 8499 1ebc 88fa 1dbd
00000340: 4c45 e4bd 371d a23e ea95 e1bc c129 2abe
00000350: 1bd9 d13d 33de f43d 89c9 7abd ff89 88bd
00000360: 2304 17be 0c2b 6b3e 7aed a23e fd61 a1bb
00000370: 8571 c2bd baaa 5f3c 5cfc 99bd c86f aabd
00000380: 7c5f 5b3d aa6f af3d 5ec7 263d 46f7 913e
00000390: 1f7b bc3e dd7c 08be 38a2 11be 94b6 343d
000003a0: 8bff 85be 70f4 113e 5a88 80be c49d f5bd
000003b0: 503a 49bd c963 133e df0a d43d fbbf aabd
000003c0: 23cb adbd 966b 50be e0c7 a8bd 1579 7cbd
000003d0: f1f9 65be a68d efbd 7926 ffbd 44a5 e73a
000003e0: 7fa4 9ebd bcae 74be fb22 373e 5928 f3bc
000003f0: e50e b6bd 13b6 133e a8b3 28be 63d7 13be
0.07179671 -0.0037590617 0.05233564 -0.112744056 -0.09867555 0.093368754 0.066894226 -0.085454114
0.32301143 -0.02270865 0.054990664 0.19741888 -0.055192355 0.117495656 -0.10079868 0.0037033816
0.04286613 0.029931357 -0.12904766 -0.09480787 0.1561634 0.12545952 -0.07384137 0.08107546
0.1159864 0.04640879 -0.025887819 0.042095575 -0.20993473 0.0068358094 -0.06411362 -0.13862653
0.017251352 0.011268817 -0.25545454 -0.010782959 0.031039225 -0.07103227 -0.06705081 0.31773284
0.22892258 0.05992699 0.12850235 0.13067973 0.17904314 0.04835628 -0.02282946 0.2283895
0.06369185 0.117877156 -0.08010727 -0.08537836 0.012554714 -0.069076255 0.00357922 0.087128855
0.080336794 0.009484591 -0.065654345 -0.1949018 0.10330619 0.045582008 -0.11233649 -0.0690056
0.12623 -0.1972401 -0.038027313 0.35689336 0.042787973 0.042469926 0.04145609 0.03173276
0.1361011 -0.015024675 0.12619907 0.07842664 -0.061281864 -0.24066433 -0.33128583 0.19661307
0.09054761 -0.065411784 -0.037923675 0.04155064 -0.2169297 -0.18025744 0.012148064 0.0031366888
0.08778849 -0.21090575 0.052643858 -0.08653352 -0.010950064 0.09310651 0.014947733 -0.007947913
0.13973373 -0.13068643 0.326586 -0.055677418 -0.0021040188 0.026641594 0.20223247 -0.07051458
0.0051824893 0.06938528 -0.15399995 -0.20404054 0.025338076 -0.0417807 0.12128472 0.028580688
0.062220726 0.15533495 0.1825714 -0.07165064 -0.016983237 0.19325718 0.023319615 0.3596393
0.00122832 -0.041228797 0.2218863 -0.043260533 0.18558133 -0.063606255 0.18145877 0.25568622
0.0048758946 -0.2611831 0.05865964 0.0013515846 -0.1420733 -0.03016426 -0.031604275 0.17444655
0.13228726 0.05775641 -0.024039458 0.024823334 0.2040133 0.029906824 0.0661288 0.08816116
0.006748061 -0.19738378 -0.053045545 0.20289664 -0.12939559 0.06318078 -0.018185783 0.098221526
-0.16373058 -0.09930332 0.12774448 0.03774322 -0.0021648563 0.12025152 -0.2348342 0.069856755
-0.041356683 -0.10162999 0.11482131 0.024262397 -0.22051072 -0.026251618 -0.27690738 -0.0031700719
-0.22693123 0.011424617 -0.047046527 -0.19356468 -0.053444296 0.007494351 0.26041725 -0.23886952
0.044443056 0.106296994 -0.16509153 -0.013580586 0.09985725 -0.16379452 -0.088245235 -0.0066543473
0.094255224 -0.12277401 0.07590203 0.042832263 0.05422711 0.068430774 0.21704392 -0.23615775
-0.13663156 -0.09642083 0.038623285 0.15676011 0.24370608 0.09861525 -0.26931006 0.25264865
-0.25145012 0.04413676 0.004633864 -0.06649475 0.18011387 -0.000782939 -0.009680156 -0.038569003
-0.1114603 0.31662914 -0.027537305 -0.1661749 0.10246488 0.11956444 -0.061227355 -0.06666946
-0.14747672 0.2296564 0.31821805 -0.004925011 -0.094943084 0.013651544 -0.07518837 -0.08322102
0.053557858 0.0856622 0.040717475 0.28508967 0.36812684 -0.13328882 -0.14222038 0.044119433
-0.26171526 0.14253402 -0.25104028 -0.11992982 -0.049127877 0.14393534 0.10353636 -0.083373986
-0.08486011 -0.20353541 -0.08241248 -0.06163891 -0.22458626 -0.11696939 -0.1245851 0.0017673154
-0.07746219 -0.23894781 0.17884438 -0.029682325 -0.0888956 0.14424925 -0.16474783 -0.14437632

weight f4 [12]
00000000: 0000 803f 0000 803f 0000 803f 0000 803f
00000010: 0000 803f 0000 803f 0000 803f 0000 803f
00000020: 0000 803f 0000 803f 0000 803f 0000 803f
1.0 1.0 1.0 1.0 1.0 1.0 1.0 1.0
1.0 1.0 1.0 1.0

bias f4 [12]
00000000: 0000 0000 0000 0000 0000 0000 0000 0000
00000010: 0000 0000 0000 0000 0000 0000 0000 0000
00000020: 0000 0000 0000 0000 0000 0000 0000 0000
0.0 0.0 0.0 0.0 0.0 0.0 0.0 0.0
0.0 0.0 0.0 0.0

running_mean f4 [12]
00000000: 0000 0000 0000 0000 0000 0000 0000 0000
00000010: 0000 0000 0000 0000 0000 0000 0000 0000
00000020: 0000 0000 0000 0000 0000 0000 0000 0000
0.0 0.0 0.0 0.0 0.0 0.0 0.0 0.0
0.0 0.0 0.0 0.0

running_var f4 [12]
00000000: 0000 803f 0000 803f 0000 803f 0000 803f
00000010: 0000 803f 0000 803f 0000 803f 0000 803f
00000020: 0000 803f 0000 803f 0000 803f 0000 803f
1.0 1.0 1.0 1.0 1.0 1.0 1.0 1.0
1.0 1.0 1.0 1.0

weight f4 [4, 4, 1, 1]
00000000: 705c b5bd a65c d5be af1f bbbf 4676 583f
00000010: 9c37 003f 4e4d 9cbf cce8 a03e 7cd8 c53f
00000020: 413d 69bc 240d 823f fdab a9be 9769 ff3e
00000030: b5c0 49be b4c7 7a3e 9935 4abe ef2d 60bf
-0.08855522 -0.41672248 -1.4619044 0.8455547 0.50084853 -1.2211092 0.3142761 1.5456691
-0.0142357955 1.016026 -0.3313903 0.49885246 -0.19702418 0.24490243 -0.19747008 -0.8757009

weight f4 [4]
00000000: 0000 803f 0000 803f 0000 803f 0000 803f
1.0 1.0 1.0 1.0

bias f4 [4]
00000000: 0000 0000 0000 0000 0000 0000 0000 0000
0.0 0.0 0.0 0.0

running_mean f4 [4]
00000000: 0000 0000 0000 0000 0000 0000 0000 0000
0.0 0.0 0.0 0.0

running_var f4 [4]
00000000: 0000 803f 0000 803f 0000 803f 0000 803f
1.0 1.0 1.0 1.0

weight f4 [4, 4, 3, 3]
00000000: 25d6 923d 0958 c33e 27e3 253e 7222 53be
00000010: b469 54bd 00c3 243d ddf2 1a3e c09a 42be
00000020: 092c 2f3e 8af3 e3bc e141 bc3c 7044 21be
00000030: a636 7e3a d012 293e 78f6 c63e 9bfd bbbe
00000040: 794f 8ebe 1d77 f2bd 3f88 473e 79bf 9e3e
00000050: c287 143d 8abb 2bbd 0628 873e a11e 883d
00000060: c8b1 c1bc 0be9 cebe cd97 693e b42e 983b
00000070: 18db 5dbe 6f58 a03c 6eaa d03d 69a1 35be
00000080: 8deb 1e3e 7c6a e9be c999 763d 241a 363e
00000090: d5d2 f63d bf4a a43e 0dc2 24bd 621c d0bd
000000a0: e75e 14be 7ea7 9c3e f84b 8e3d 0592 5d3e
000000b0: cc9c 853e e0a9 463e d889 5ebe 8a79 d83e
000000c0: 87d8 a03e da25 44be ad00 043d b9d5 c0be
000000d0: 70f9 1ebf d0f3 963e 9170 cb3c 6155 bfbd
000000e0: 9f17 de3c 2845 083e a220 cbbd 33b8 d83d
000000f0: c12b f53d 070e 2c3e 6481 a93b 4ca4 3fbc
00000100: 73ce 233e bb25 c23d 6bc5 40be f502 d9be
00000110: 9dee 7fbe 1b47 57be 10bb da3b d378 e73e
00000120: a81d 1d3e dc88 7a3e 943c 083f b96b 92be
00000130: 774a 9e3d f74b e23e 6527 c33d d0f6 5a3d
00000140: 1870 f13e edf4 d8be fe72 563e ce77 7b3d
00000150: f063 c1bc eaa6 87be 1249 8f3e 700c c93c
00000160: bfb2 f9bd 776a 35bd 9dac 08bd 1b7e 2e3d
00000170: dd88 053c 72b8 3abe 0002 26be 3946 ea3d
00000180: 2beb c23e 78be b9be 88a5 1fbd 160b c2bd
00000190: 6715 b0be 3bf3 f3be c9b0 a93d b896 82be
000001a0: d462 af3d 5879 69bd 037f c8be 1447 c33d
000001b0: 6d96 a0be 54a6 123e 5a54 a13e 7719 43bc
000001c0: bcfc 5b3e f5cd b2be f9ea 003f 765e 8ebe
000001d0: 6772 203e 86e5 e6bd 079a 183c da74 ae3e
000001e0: 8cdd d33d cbc7 d0bd 2fd7 91bd eaf1 803e
000001f0: ecda d0bd b8d3 6abe 86a4 9abd 4639 26be
00000200: f8f9 283e fa84 5c3c 82a1 9bbe 857c d2be
00000210: ea63 c83e 5f90 a3ba 8dd3 f0bd 9db8 543e
00000220: 638f d8be 8509 ea3c 80c2 5dbd 73ef 19be
00000230: 0557 b93d 144d 9fbd fabd 0abe 8be4 93bd
0.07169751 0.38153103 0.16199933 -0.20618609 -0.05185862 0.04022503 0.15131707 -0.19004345
0.17106642 -0.02782609 0.022980632 -0.15748763 0.00096974743 0.16511083 0.38859916 -0.36716923
-0.27795008 -0.11839125 0.19485568 0.31005457 0.03626228 -0.041926898 0.26397723 0.06646467
-0.023644343 -0.40412173 0.22811814 0.0046442393 -0.21665609 0.019573418 0.10188757 -0.17737354
0.15519543 -0.45589054 0.060205255 0.1778341 0.12051932 0.32088277 -0.040224124 -0.101616636
-0.14489327 0.30596536 0.06948084 0.21637733 0.2609619 0.1940074 -0.2173227 0.42280227
0.31415197 -0.19155064 0.032227207 -0.37663057 -0.6209936 0.2948289 0.02483395 -0.093424566
0.027110873 0.13307631 -0.099183336 0.10582008 0.11971236 0.16802226 0.0051728953 -0.011696886
0.15996723 0.09479853 -0.18825309 -0.4238507 -0.24993367 -0.21023218 0.0066751316 0.4520937
0.15343344 0.2446627 0.53217435 -0.2859781 0.07729047 0.44198582 0.09528998 0.053458035
0.47155833 -0.42374364 0.20942304 0.06139355 -0.023607224 -0.26494533 0.27985436 0.024542063
-0.12192296 -0.044290986 -0.03336774 0.042600732 0.0081503065 -0.18234423 -0.162117 0.11439175
0.38070044 -0.3627813 -0.038976222 -0.09474771 -0.3439133 -0.47646508 0.08285672 -0.25505614
0.08563772 -0.057000488 -0.39159402 0.095350415 -0.31364766 0.14321262 0.31509668 -0.011907927
0.2148313 -0.34922758 0.5035854 -0.27806443 0.15668641 -0.11274247 0.009314067 0.34073526
0.10344991 -0.101943575 -0.07121121 0.25184566 -0.10198006 -0.22932327 -0.075509116 -0.16232786
0.16501606 0.013459438 -0.30396658 -0.41110626 0.39138728 -0.0012478939 -0.117591 0.2077355
-0.42296895 0.028568992 -0.054140568 -0.15032749 0.09049801 -0.07778373 -0.13549033 -0.072213255

weight f4 [4]
00000000: 0000 803f 0000 803f 0000 803f 0000 803f
1.0 1.0 1.0 1.0

bias f4 [4]
00000000: 0000 0000 0000 0000 0000 0000 0000 0000
0.0 0.0 0.0 0.0

running_mean f4 [4]
00000000: 0000 0000 0000 0000 0000 0000 0000 0000
0.0 0.0 0.0 0.0

running_var f4 [4]
00000000: 0000 803f 0000 803f 0000 803f 0000 803f
1.0 1.0 1.0 1.0

weight f4 [4, 4, 3, 3]
00000000: e031 85bd ce9c 1bbe 0208 213e 626b 043e
00000010: a542 903e 9a70 27be a006 503e b817 b63c
00000020: 2b04 973d 5a47 843e 5851 943e 13b9 cf3e
00000030: 2f74 debe 27f9 903d 2931 30be da78 253d
00000040: e06a d5be 6615 5c3e d13b 4f3e caeb 26bd
00000050: 95c3 47be b187 3b3e 6d78 89be 0db8 45bd
00000060: 8886 06be d7ba d13d 8cc7 103e 8d4c 2cbd
00000070: 8669 cd3e f45a 12be b673 a9be f0ca 233e
00000080: 3acd 9dbe b034 5e3c 75f0 3b3d afee 66be
00000090: 6159 ba3e ebe2 083e 055d 09bd 1059 1abe
000000a0: abf3 dfbd d9c9 ac3e b849 84be 0d1c 313d
000000b0: 41f9 b0be ad09 5b3e db8f 263e 629b 9cbe
000000c0: 7c4b 0fbe 0a18 a63d 20a3 6fbd b076 c2bc
000000d0: 54ef ffbd 8a6f 13bc 1696 6c3c 2375 d43d
000000e0: 9d74 43be daf7 ccbd 5c7e 3b3e 09cc f9bd
000000f0: 393e 69bd 87b0 e53e 2540 9c3e bcac 38be
00000100: b60f b13e cec7 8a3d f8cd 5bbe 54e0 bfbc
00000110: cdd4 0ebe 2826 303c 7771 6cbe c1f4 843d
00000120: 8081 8fbe 86ed 933e 56bd 78be 21c8 a4bd
00000130: 2b7d 31be ee65 9d3c 94e6 1bbe b7f1 e73d
00000140: d50a 4dbb 49d0 343e 0e8b 483e 0650 94bd
00000150: 8995 2cbe 0038 2d3e 1e17 e43d 8a93 13be
00000160: b539 f53e 2d1e b5bc 5048 02bf bc8c d33d
00000170: 68fa 033f 2544 72be 6f7f 683e ce5a a4bd
00000180: 41b1 c2be eb49 04be 7039 033e 55f5 983d
00000190: 794c 583e 77a3 753e f95e 8fbe e37c 33bd
000001a0: a64e e63d 5f61 79be aca6 afbc 1f24 863e
000001b0: ae4f 573e 8d0d d03e 0fc0 c53d 90b9 a4be
000001c0: a6ea b53e dbeb a6bd 6e51 053e aed6 e03d
000001d0: 2173 45be b214 463d 7f86 cf3e 650a 4e3d
000001e0: 360a 123e b2d4 0b3f cd5d efbe d8dd 76bd
000001f0: ea7b ec3e 1cfd b8bd a78f 233e 4842 5dbe
00000200: 7833 6cbc ac27 983e edc6 d13d 0dad aabe
00000210: 3d0b 05be 80be 55bc 9027 f7bd ce1a 883e
00000220: 48ce babe e6ae 053e 5d53 10be 4f5d 943e
00000230: 7d8c b03d 8b0c 98bd e81b 663e d6ce 98be
-0.065036535 -0.15196535 0.15725711 0.12931588 0.28175846 -0.16351548 0.20315027 0.022228107
0.07373842 0.25835687 0.2896831 0.40570888 -0.43448016 0.07078772 -0.17206253 0.040398456
-0.41683102 0.21492538 0.20237662 -0.04075221 -0.19508202 0.18313481 -0.2684969 -0.048271228
-0.13137257 0.10240715 0.14138621 -0.042065192 0.4011957 -0.14292508 -0.33096093 0.15995383
-0.30820638 0.013562366 0.045883615 -0.22551988 0.36396316 0.13367812 -0.033535976 -0.15073037
-0.10935148 0.33747748 -0.25837493 0.043239642 -0.34565166 0.2139041 0.16265814 -0.30587298
-0.13993639 0.08110054 -0.058505177 -0.023738235 -0.1249682 -0.008998761 0.01444008 0.103739046
-0.19087453 -0.100082114 0.18309921 -0.1219712 -0.056944106 0.44861242 0.30517688 -0.18034643
0.345823 0.06776391 -0.2146529 -0.023422398 -0.13948365 0.010751285 -0.23090158 0.064919956
-0.28028488 0.28892154 -0.24290976 -0.08045984 -0.17332904 0.019213643 -0.15224677 0.113254
-0.0031286974 0.1765758 0.19584295 -0.07241826 -0.16853918 0.16915894 0.11137222 -0.1441175
0.4789559 -0.022109115 -0.5089159 0.10329577 0.51553965 -0.23658808 0.22704862 -0.08025132
-0.3802586 -0.12918822 0.1281488 0.07468668 0.21122922 0.23988138 -0.28002146 -0.043820273
0.1124547 -0.2435355 -0.02144178 0.26199433 0.21026489 0.40635338 0.09655773 -0.32172823
0.35530585 -0.081504546 0.13019344 0.10978447 -0.192822 0.04835958 0.405323 0.05030288
0.14261708 0.5462142 -0.46751252 -0.06027016 0.4618829 -0.09032652 0.15972768 -0.21607316
-0.014416568 0.29717767 0.1024302 -0.33335152 -0.12992568 -0.013045907 -0.12068093 0.2658295
-0.36485505 0.13055 -0.140943 0.2897744 0.08620546 -0.074242674 0.22471583 -0.29845303

weight f4 [4]
00000000: 0000 803f 0000 803f 0000 803f 0000 803f
1.0 1.0 1.0 1.0

bias f4 [4]
00000000: 0000 0000 0000 0000 0000 0000 0000 0000
0.0 0.0 0.0 0.0

running_mean f4 [4]
00000000: 0000 0000 0000 0000 0000 0000 0000 0000
0.0 0.0 0.0 0.0

running_var f4 [4]
00000000: 0000 803f 0000 803f 0000 803f 0000 803f
1.0 1.0 1.0 1.0

weight f4 [4, 4, 3, 3]
00000000: 8cf7 41be eae4 96be 90ce d03e 8489 54bc
00000010: 6c44 123e 6b09 073e 7f70 1ebe 86ae 263f
00000020: f649 d63d f1b0 de3e 4b94 10be 5daa 07bf
00000030: c8d9 91be d3b8 7dbe dc60 70bc 4f68 ccbe
00000040: b015 c63c 3a67 22be 65f4 733e f6d0 ff3c
00000050: 3427 bd3e d0f8 d0bc 8090 703e d1c6 f13d
00000060: 07a3 273e fb59 83bc 5679 d33e 6846 513e
00000070: 5444 553d 0274 b13e add9 eebd a0a6 513e
00000080: 7cbe 7aba 9e01 5e3e b995 1dbc e318 ac3e
00000090: d4cb b8bd 3873 a8be e172 b03d 7caa 283e
000000a0: 80a4 1c3e 409d b73e c036 033e d076 f03d
000000b0: 2bc4 923e dafa e93c d99d 26bc efa2 273e
000000c0: e2f3 01bc 5018 6c3d c63c 2fbe 3e47 fb3d
000000d0: 5661 193c 7bd2 73bd 53ef a7be 9b0e 7d3e
000000e0: 4354 043d 97d8 16bc 49f9 b5be c496 bc3e
000000f0: 077e 2bbe 77f0 86bd ac06 32be bb90 393e
00000100: 0bf9 1c3e 0582 9dbe 5b5f b0bc ce45 103e
00000110: 8569 92be e3ce 773e 0504 cb3d b405 c7bd
00000120: 081d 9abe 6b82 333d aee7 f0bd e08a afbe
00000130: 598e 2e3d 4fa2 48be 5dce 1d3f 0a20 d8bc
00000140: 71fd 6e3d 3f9e 02bf 30e8 82bd cc46 82bc
00000150: b7f2 20be afdd 053f 5ed4 a4be dc68 3e3d
00000160: 7e9d c8bd 9330 553e bba1 8b3e fc8d d23e
00000170: 27c2 c73e f3ec 7fbd 66a6 c8be 9449 b9bd
00000180: 1af3 ce3c 2dc9 f23e 1a43 923e 960a a5be
00000190: ad18 cfbd fdcf 90be 7c73 f5bd bd80 5b3d
000001a0: 2f3f 743d 989a a13e f320 9bbd a1f1 44be
000001b0: edb9 b6be 0796 4ebe 7185 aabd 97ac 893d
000001c0: 02cc adbd ed64 48bc a32e c43d 21f3 9ebd
000001d0: 27d2 45bd 7143 e63c b2e3 8abd d086 3d3e
000001e0: e04e a7be 64fc a6bd d5c5 9a3d b045 5bbd
000001f0: e55c c73d fb1d eb3d 3ba3 22be c628 9bbd
00000200: 0c4f 993e 638d 63be b6a4 aebd 0683 88be
00000210: 937f 4f3d bfc8 0dbd 44ec 483e 23b4 e0be
00000220: 4817 2dbe d3fa ce3d 4f1e 79be 742d b9be
00000230: fcb3 b43d cbbb 91bc 4cee 20bc 2b94 2f3f
-0.18942088 -0.29471523 0.40782595 -0.012972239 0.14283913 0.13187186 -0.15472601 0.6511005
0.10463326 0.4349437 -0.1411907 -0.5299433 -0.28486466 -0.24777536 -0.014671531 -0.3992333
0.024180263 -0.1585969 0.23823698 0.03122757 0.36943972 -0.025509268 0.23492622 0.11805499
0.16370784 -0.016034117 0.4130351 0.20437014 0.052067116 0.3465882 -0.11662612 0.20473719
-0.00095651275 0.21680304 -0.009618216 0.33612737 -0.09023252 -0.32900405 0.086156614 0.16471285
0.15297127 0.3586216 0.12813854 0.11741412 0.2866529 0.028561998 -0.01016947 0.16370748
-0.007931681 0.057640374 -0.17113027 0.12269448 0.009361586 -0.0595269 -0.32799777 0.24712603
0.03230692 -0.0092069125 -0.35541752 0.36833775 -0.16747294 -0.06588834 -0.17385358 0.18121617
0.15329377 -0.3076326 -0.021529844 0.14089128 -0.2859613 0.24200015 0.09912876 -0.09717885
-0.30100274 0.04382555 -0.117629394 -0.3428564 0.042616222 -0.19593166 0.6164301 -0.026382465
0.05834717 -0.51022714 -0.063919425 -0.0159029 -0.15717588 0.5229139 -0.32193273 0.04648672
-0.09795664 0.20819311 0.27271828 0.4112395 0.39015314 -0.06248183 -0.39189452 -0.09047237
0.025262404 0.4741911 0.2856682 -0.3223464 -0.101121284 -0.28283682 -0.119849175 0.05358957
0.05963057 0.31563258 -0.07574644 -0.19232799 -0.35688725 -0.20174418 -0.08326233 0.06722372
-0.08486177 -0.012231094 0.09579208 -0.07761217 -0.04829612 0.02810833 -0.06781711 0.18508458
-0.32677364 -0.081536084 0.07557265 -0.053533256 0.09734515 0.11480328 -0.1588258 -0.07576136
0.2994312 -0.22221904 -0.0852751 -0.26662463 0.050658774 -0.034615275 0.19621378 -0.43887433
-0.16903412 0.10106435 -0.24327968 -0.3616749 0.08823392 -0.017789742 -0.009822439 0.6858546

weight f4 [4]
00000000: 0000 803f 0000 803f 0000 803f 0000 803f
1.0 1.0 1.0 1.0

bias f4 [4]
00000000: 0000 0000 0000 0000 0000 0000 0000 0000
0.0 0.0 0.0 0.0

running_mean f4 [4]
00000000: 0000 0000 0000 0000 0000 0000 0000 0000
0.0 0.0 0.0 0.0

running_var f4 [4]
00000000: 0000 803f 0000 803f 0000 803f 0000 803f
1.0 1.0 1.0 1.0

weight f4 [4, 12, 1, 1]
00000000: fd1c 40bf 22aa 9e3f 3c46 ecbe 2708 56bf
00000010: 6d49 683e 1f84 c6bd 0915 39bc 1e60 0c3f
00000020: 9623 89be 74fe 9bbe c124 f33d 2eef 81bf
00000030: 8e59 843e b689 bfbe 2b4c aabf 1d8d 68be
00000040: 4866 4ebf 7435 37bc 7a6d bc3e 4644 393f
00000050: f7ac 65be 1d3d 603f e8ac 9c3f 2b10 dbbe
00000060: 263f 803f 54a4 db3e daed 233f 87f1 a93e
00000070: e23e 9f3e 5add 4d3f 7061 a9be 2de8 6dbf
00000080: fb46 713f 99cd 823f 4911 943f 9775 95bf
00000090: e1a2 993f 78f1 93bf c882 d1be 0ace f7be
000000a0: 6b42 5dbf c023 25bf 26c6 fe3e 2f3e efbe
000000b0: c2d1 ccbf a1af 023e 582b e5be 8ab8 e0bd
-0.7504423 1.239567 -0.46147335 -0.8360619 0.2268426 -0.09693169 -0.011296519 0.54834163
-0.26784962 -0.3046757 0.118722446 -1.0151117 0.25849575 -0.37409753 -1.3304495 -0.2271008
-0.8062482 -0.011182178 0.36802274 0.723698 -0.22429262 0.8759325 1.2240267 -0.42785773
1.0019271 0.4289881 0.6403481 0.33192083 0.31102663 0.8041588 -0.3308215 -0.929324
0.9424893 1.0218993 1.1567775 -1.167651 1.2002832 -1.1558065 -0.4092009 -0.48399383
-0.8642947 -0.64507675 0.4976055 -0.4672713 -1.6001513 0.1276231 -0.4475963 -0.10972698

weight f4 [4]
00000000: 0000 803f 0000 803f 0000 803f 0000 803f
1.0 1.0 1.0 1.0

bias f4 [4]
00000000: 0000 0000 0000 0000 0000 0000 0000 0000
0.0 0.0 0.0 0.0

running_mean f4 [4]
00000000: 0000 0000 0000 0000 0000 0000 0000 0000
0.0 0.0 0.0 0.0

running_var f4 [4]
00000000: 0000 803f 0000 803f 0000 803f 0000 803f
1.0 1.0 1.0 1.0

weight f4 [4, 12, 1, 1]
00000000: b617 49be f15f 033f e0a6 49bf 392a 0fbe
00000010: b670 b13f 738a 51bf c8af 69be 3321 a9be
00000020: a8c3 bc3e 1d34 d9be cbbf b53e d651 1bbf
00000030: ef42 2bbe fc76 9ebf 6095 24be dfa1 0ebf
00000040: 5468 b2be d029 2f3e b090 df3e ff03 23bf
00000050: d76f b6bd 6adc e33d 7a0c 0abf 5d5f 52bf
00000060: 5e42 303f beb9 823f 4227 903e d478 d73d
00000070: 4041 29bf abbd d4be 4214 b63e 861b 1abf
00000080: c47c 9dbe 14b6 6c3f 383c 433f 3a10 1dbf
00000090: 32fb d33f 1ed6 79be 9c8c 1fbf 1b06 62be
000000a0: cdc6 1140 960e b83f 2821 f13c f8a8 d43f
000000b0: 9bf8 e5be d1d2 7f3e 716e 34be 8627 d2bf
-0.19637951 0.5131827 -0.78770256 -0.1398095 1.3862522 -0.8185188 -0.22820961 -0.33033141
0.36868024 -0.42422572 0.3549789 -0.60671747 -0.16724752 -1.2380061 -0.16072607 -0.55715746
-0.3484522 0.17105794 0.43665075 -0.6367797 -0.089080505 0.11126025 -0.5392529 -0.8217676
0.6885127 1.0212934 0.2815495 0.10521093 -0.6611519 -0.41550955 0.3556233 -0.6019825
-0.3075925 0.9246533 0.7626376 -0.61352885 1.6561034 -0.24398085 -0.6232393 -0.22072642
2.2777588 1.4379451 0.029434755 1.6614065 -0.44916233 0.24982764 -0.17620255 -1.6418312

weight f4 [4]
00000000: 0000 803f 0000 803f 0000 803f 0000 803f
1.0 1.0 1.0 1.0

bias f4 [4]
00000000: 0000 0000 0000 0000 0000 0000 0000 0000
0.0 0.0 0.0 0.0

running_mean f4 [4]
00000000: 0000 0000 0000 0000 0000 0000 0000 0000
0.0 0.0 0.0 0.0

running_var f4 [4]
00000000: 0000 803f 0000 803f 0000 803f 0000 803f
1.0 1.0 1.0 1.0

weight f4 [4, 12, 1, 1]
00000000: 1ab9 abbf 5ae1 c4be 5d82 313f b20b 47bf
00000010: 0ab5 1e3f 78af 2bbe afc4 813f 92f7 1e3f
00000020: 8c61 3b3f 5635 853f 0ccb 93bf c32e ecbd
00000030: a14b 873e 8a73 5e3e 9acd d73e b94d 96be
00000040: f325 48bf 59d2 473d f111 96be 9a38 9f3f
00000050: a608 293f 5c14 afbe 48c4 a43e ce2f 413e
00000060: 5467 133f e24e 1cbf a01d dcbe f049 24bf
00000070: 35b2 703f 5b62 39be faa8 b43e 13c1 553f
00000080: f322 153f 9867 91be c7f4 c5bc 9450 4a3e
00000090: 1c50 7e3f 4bfc 923f 7282 3a3f 9149 72bf
000000a0: 9868 303f ae32 323e e85c 03bf 0a75 57be
000000b0: 4bd5 b23e e171 993e 434a 233f 5f10 c73e
-1.3415864 -0.3845318 0.69339544 -0.7775222 0.61994994 -0.16766155 1.0138148 0.6209651
0.7319572 1.0406902 -1.154634 -0.115323566 0.26424888 0.21723762 0.4214905 -0.29356173
-0.78182906 0.048784588 -0.29310563 1.2439148 0.6602882 -0.3419522 0.32181 0.18865892
0.5757954 -0.61057866 -0.42991352 -0.6417532 0.9402192 -0.18103926 0.3528517 0.8349773
0.58256453 -0.28399348 -0.02416457 0.197573 0.9934099 1.1483244 0.72855294 -0.94643503
0.689096 0.17402145 -0.5131364 -0.2104074 0.34928355 0.29969695 0.6378519 0.38879678

weight f4 [4]
00000000: 0000 803f 0000 803f 0000 803f 0000 803f
1.0 1.0 1.0 1.0

bias f4 [4]
00000000: 0000 0000 0000 0000 0000 0000 0000 0000
0.0 0.0 0.0 0.0

running_mean f4 [4]
00000000: 0000 0000 0000 0000 0000 0000 0000 0000
0.0 0.0 0.0 0.0

running_var f4 [4]
00000000: 0000 803f 0000 803f 0000 803f 0000 803f
1.0 1.0 1.0 1.0

weight f4 [4, 12, 1, 1]
00000000: e05d 1a3f 395f 0b3e c8ff bb3f 1dd1 883e
00000010: 99fc 9d3f cf42 d4be 36b3 b6bb 647e 483f
00000020: c565 73bf f1d3 8f3b 1b4c 7fbe 7f68 8fbf
00000030: 0ce0 4dbf e752 103f d99c f9be 9274 8cbe
00000040: de8e 53be fbbb 40be bc05 70bf 2630 0dbf
00000050: e8fe 9e3f 03c1 11bf de90 b33e 4339 793e
00000060: 87bf ccbe 1ff2 febe ab72 f33e e04a b8bf
00000070: e0f8 813f 3fdf ea3e bbd4 e6bf 8e9a b23f
00000080: 5f79 8f3e fbfc 9cbf b246 8e3e 6dab e33e
00000090: cf85 f1be c227 26bf 7427 33bf 8d85 c13c
000000a0: c926 5fbf d827 823f 1c4a df3b 599b ecbd
000000b0: d28e 84bc 4c8f 9dbe 83bc ffbe d334 8bbe
0.6029949 0.13610543 1.4687433 0.2672204 1.2342712 -0.4145722 -0.005575563 0.78317857
-0.95077163 0.004389279 -0.24931376 -1.1203765 -0.80419993 0.563765 -0.48752478 -0.27432686
-0.20659968 -0.18821709 -0.9375875 -0.55151594 1.2421541 -0.5693514 0.35071462 0.2433825
-0.39989874 -0.497941 0.47548422 -1.439785 1.0154076 0.45873448 -1.803367 1.3953416
0.28022286 -1.2264704 0.2778831 0.44466725 -0.471724 -0.64904416 -0.69982076 0.023623252
-0.87168556 1.0168409 0.0068142544 -0.11553068 -0.016181383 -0.3077339 -0.4994851 -0.2718874

weight f4 [4]
00000000: 0000 803f 0000 803f 0000 803f 0000 803f
1.0 1.0 1.0 1.0

bias f4 [4]
00000000: 0000 0000 0000 0000 0000 0000 0000 0000
0.0 0.0 0.0 0.0

running_mean f4 [4]
00000000: 0000 0000 0000 0000 0000 0000 0000 0000
0.0 0.0 0.0 0.0

running_var f4 [4]
00000000: 0000 803f 0000 803f 0000 803f 0000 803f
1.0 1.0 1.0 1.0

weight f4 [10, 12]
00000000: 66dd 2f3b e06e c23b 5349 01bc ab01 73bb
00000010: f430 ef3a f788 aa3b 06a5 c93c 3e15 d73b
00000020: 9db3 293c 39fe c4bb 00a4 b6bc 7cae c0bb
00000030: 3b27 c8bc d2f3 bfbb 130b a7b9 7595 69bb
00000040: 1300 17bc 49ad 3fbc 3625 2abc e270 8abc
00000050: bc2b 533c 5c11 9d3b 95c2 3dbb 2cf0 58bb
00000060: 8f6f d0bb b3b2 1cbc 99b2 993c 0674 5cbb
00000070: 2f7b 45bb f4a9 903b ce79 20bc 3514 48ba
00000080: f020 7039 1e4e 53bb 166d 053b a8bf 213c
00000090: 007e ca3b 4a0c b1bc 0660 f33b f835 9cbc
000000a0: efad 9e3c b02a 6cbb f4ef 3abc 5749 723c
000000b0: 57ff 913a bea8 543c 4ab8 d93b 4332 823b
000000c0: a0df eb3c 5cff 23bb 8f86 fa3b 6e64 443c
000000d0: 9716 e6bb 5389 a73b 6b37 7cbc c468 9abc
000000e0: 359f 413a f87c 41bc 7333 ad39 29bf 843c
000000f0: 7d25 4d3b ac81 593c 0f15 bdbb 9758 a5bb
00000100: b830 343c 0bbe 0d3c 4e9e 3cb9 c090 6d3c
00000110: b2ec 2039 df00 0b3c efec 093c 62fd eb3a
00000120: 8f85 593c ad11 19bc cd3a 83bc c1b4 d9bc
00000130: 2178 67bb 75a4 b2bb bd00 8b3b e6e7 863a
00000140: f351 2bbc 0c87 71bb 201c 973b 8028 2cbb
00000150: b4b4 043c 3b87 413b 743b 1e3b c4a6 243c
00000160: 61e5 eeba 7702 2c3c d3e2 2d3b 3dcb 94bb
00000170: 42ac 453c c275 75bc e509 e63b e58b 57bc
00000180: 3c9f 70bb dd92 2cba 054d ed3b c060 3dbc
00000190: 8dc5 a23c 15f4 d73a b7b9 6cbb 2609 aeba
000001a0: 5cbb d0bc 12e6 d4b9 8900 603c f5e6 843b
000001b0: 4d64 3d3b 4b8a 0cbb 0218 37bc c0b1 55ba
000001c0: c7bf 083b 8add a23c 035f 1e3b 1348 a63c
000001d0: 10a9 8ebb e75c 9f3a 1bf7 6d3a f47a cc3b
0.0026834845 0.0059336275 -0.007891017 -0.0037079852 0.0018248842 0.0052043158 0.024614822 0.0065638116
0.010357765 -0.006011751 -0.022294998 -0.005880175 -0.024432769 -0.005857923 -0.00031860973 -0.0035642062
-0.009216326 -0.011699029 -0.010384848 -0.01689953 0.012888845 0.004793329 -0.0028955091 -0.0033102138
-0.006360955 -0.00956409 0.01876192 -0.0033638491 -0.0030133238 0.0044147912 -0.0097946655 -0.00076324056
0.00022900454 -0.0032242606 0.002035921 0.009872355 0.006179571 -0.021612305 0.0074272184 -0.019068703
0.019370047 -0.0036036186 -0.011409748 0.014787993 0.0011138719 0.012979684 0.0066442834 0.003973277
0.028793156 -0.0025024032 0.007645435 0.011986835 -0.007021736 0.005112806 -0.015394072 -0.018848784
0.00073860894 -0.01180958 0.00033035464 0.016204434 0.0031302862 0.013275545 -0.0057703326 -0.005045961
0.010997944 0.008651267 -0.0001798805 0.014499843 0.00015346965 0.008484094 0.008418306 0.0018004591
0.013276472 -0.009342593 -0.01601925 -0.026575448 -0.0035319405 -0.0054517337 0.0042420314 0.00102925
-0.01045655 -0.0036854176 0.004611507 -0.0026269257 0.008099724 0.0029530067 0.0024144324 0.010049526
-0.0018226319 0.010498635 0.0026532903 -0.0045408295 0.012064995 -0.014981689 0.0070202225 -0.013155912
-0.0036716005 -0.00065831636 0.0072418475 -0.0115587115 0.01986959 0.001647594 -0.0036121437 -0.0013277873
-0.025479965 -0.00040607207 0.013672003 0.0040558525 0.0028898895 -0.0021444734 -0.0111751575 -0.0008151792
0.0020866261 0.019881029 0.0024165518 0.02029804 -0.00435365 0.0012158424 0.0009077654 0.006240243

bias f4 [10]
00000000: 0000 0000 0000 0000 0000 0000 0000 0000
00000010: 0000 0000 0000 0000 0000 0000 0000 0000
00000020: 0000 0000 0000 0000
0.0 0.0 0.0 0.0 0.0 0.0 0.0 0.0
0.0 0.0
