prerequisite_task/test3/trained.pth (torch, 33055 bytes, 47 tensors)

weight f4 [12, 3, 3, 3]
0.098831475 -0.019789726 0.060066774 -0.104618415 -0.10858769 0.09062184 0.04059808 -0.10648616
0.283591 -0.058479365 -0.028620744 0.1441591 -0.0792724 0.07384439 -0.13529608 -0.061042815
-0.018607602 -0.046916578 -0.107656084 -0.100202076 0.1910293 0.16681865 -0.036399044 0.14765334
0.114084974 0.055398304 -0.009512176 -0.02615749 -0.2633715 -0.075276844 -0.17215747 -0.22676396
-0.030489666 -0.006530917 -0.26515096 0.024930878 -0.022606904 -0.119287565 -0.155529 0.21577862
0.13470176 -0.012149726 0.07708523 0.07010745 0.14741868 0.14658503 0.054332774 0.23257092
0.12843172 0.16443764 -0.04884763 0.004093654 0.06832045 -0.019935053 0.046669725 0.1316404
0.2679363 0.012900423 -0.06628066 -0.058359932 0.011791532 -0.043519437 -0.17484981 -0.06683701
0.07841669 -0.13918239 -0.06381942 0.277767 0.04422569 -0.08847525 -0.10582936 -0.12864996
0.2026058 -0.024967276 0.21099468 0.1402365 -0.0689681 -0.17326346 -0.3558864 0.14334887
0.026773034 -0.0414004 0.0076952586 0.0994195 -0.2592871 -0.16968736 0.02765005 -0.06949256
0.061199646 -0.17720139 0.11199023 -0.00548301 0.039496914 0.10320895 0.092768 0.028228384
0.123724736 -0.07631502 0.39557 -0.07733448 -5.3662374e-05 -0.019221801 0.15144953 -0.050983414
-0.04048229 0.02736211 -0.12422008 -0.18664563 0.044740755 -0.035324536 0.12664466 0.025854867
0.009414442 0.092062585 0.10677674 -0.19656818 -0.15190713 0.18891592 -0.007594489 0.32942978
0.0070148483 -0.09606022 0.15667 -0.08250051 0.09453091 -0.16368178 0.23839307 0.29831517
0.063770875 -0.19538689 0.07048197 0.017032241 -0.12077312 -0.05834961 -0.057911012 0.15115105
-0.007009069 -0.067915924 -0.13161214 -0.09026984 0.063517526 -0.059275288 0.03035727 -0.0039698146
0.15934558 -0.17044125 -0.023560569 0.26854885 -0.07470041 0.08736614 0.04601171 0.21079724
-0.1142481 0.0062084636 0.08702224 -0.015318573 0.048821338 0.14350167 -0.25751704 0.104583725
0.032037772 -0.106077276 0.15551817 0.010915347 -0.2227927 0.05553674 -0.26224092 0.023715535
-0.17201786 0.023485674 -0.051222652 -0.14705029 -0.046996098 0.021333177 0.33229887 -0.21171822
0.093045875 0.14191046 -0.1497352 -0.00023430705 0.1349265 -0.15501599 -0.06424289 0.03765516
0.102503076 -0.08390139 0.06714342 0.017612796 0.038459424 0.059971217 0.0567266 -0.21539623
-0.118130416 -0.08713019 0.1371194 0.15546261 0.30081943 0.20804721 -0.34774232 0.08116614
-0.29633054 -0.019066494 -0.039932802 -0.10095733 0.026373532 -0.08592777 -0.078298375 8.366216e-05
-0.189783 0.29515937 0.07282761 -0.0936964 0.12188319 0.11798907 -0.04735031 -0.08827978
-0.29241055 0.23670302 0.17259634 0.008928193 -0.13157897 -0.15047719 0.031224774 -0.05284635
0.06932312 -0.07623416 0.09992055 0.18832658 0.36064497 -0.13279805 -0.2825898 0.12012314
-0.21263112 0.17941263 -0.28433865 0.022640947 -0.042476337 0.18621185 0.13348506 -0.16175953
0.017924983 -0.13216321 0.0028270131 -0.0075804275 -0.13173945 -0.074085325 -0.11736601 0.04474945
-0.09003368 -0.22813842 0.22108538 -0.029019473 -0.041444957 0.23802824 -0.1272302 -0.13363251
00000000: 2868 ca3d 101e a2bc 9408 763d 2e42 d6bd
00000010: 3963 debd f197 b93d 2c4a 263d 6a15 dabd
00000020: d732 913e 0f88 6fbd 0d76 eabc 719e 133e
00000030: 9159 a2bd ba3b 973d 0e8b 0abe 0808 7abd
00000040: f86e 98bc 992b 40bd cb7a dcbd bf36 cdbd
00000050: 2f9d 433e 82d2 2a3e 2a17 15bd 7032 173e
00000060: 62a5 e93d 55e9 623d f5d8 1bbc 3c48 d6bc
00000070: a1d8 86be bf2a 9abd 0c4a 30be d034 68be
00000080: 77c5 f9bc 4d01 d6bb dec1 87be d73b cc3c
00000090: 1d32 b9bc 0a4d f4bd ff42 1fbe 12f5 5c3e
000000a0: 42ef 093e a50f 47bc dcde 9d3d 7f94 8f3d
000000b0: ecf4 163e 631a 163e 0b8c 5e3d 1227 6e3e
000000c0: 9b83 033e 5762 283e 7414 48bd 0f24 863b
000000d0: 98eb 8b3d d64e a3bc c128 3f3d becc 063e
000000e0: f22e 893e 4c5c 533c 28be 87bd d30a 6fbd
000000f0: 4531 413c 7041 32bd d40b 33be d8e1 88bd
00000100: ee98 a03d d485 0ebe c2b3 82bd 7a37 8e3e
00000110: ff25 353d 8332 b5bd 10bd d8bd d1bc 03be
00000120: e577 4f3e 2c88 ccbc fd0e 583e 289a 0f3e
00000130: 263f 8dbd fa6b 31be be36 b6be 0cca 123e
00000140: 1f53 db3c 7793 29bd 8228 fc3b 739c cb3d
00000150: 47c1 84be 86c2 2dbe 5c82 e23c 1e52 8ebd
00000160: 7bac 7a3d 4874 35be 225b e53d d2aa b3bb
00000170: 84c7 213d 375f d33d 26fd bd3d 363f e73c
00000180: 6563 fd3d 0d4b 9cbd 2788 ca3e 8a61 9ebd
00000190: 8913 61b8 0a77 9dbc 9615 1b3e fcd3 50bd
000001a0: c2d0 25bd 8126 e03c 1967 febd 0820 3fbe
000001b0: 1542 373d 76b0 10bd 23af 013e 96cd d33c
000001c0: 083f 1a3c 4f8b bc3d c3ad da3d 2b49 49be
000001d0: 8b8d 1bbe 2d73 413e 31db f8bb 05ab a83e
000001e0: d0dc e53b 38bb c4bd 1a6e 203e 07f6 a8bd
000001f0: 6c99 c13d 329c 27be 501d 743e c4bc 983e
00000200: 4e9a 823d 8013 48be da58 903d 3387 8b3c
00000210: e657 f7bd 0000 6fbd 1934 6dbd 57c7 1a3e
00000220: 55ac e5bb 8117 8bbd 55c5 06be 65df b8bd
00000230: 7a15 823d a5ca 72bd cfaf f83c 3815 82bb
00000240: 7d2b 233e 2788 2ebe 1802 c1bc 3c7f 893e
00000250: 87fc 98bd 05ed b23d c676 3c3d 3bdb 573e
00000260: e8fa e9bd 5e70 cb3b b738 b23d c1fa 7abc
00000270: e2f8 473d 1af2 123e 46d9 83be fe2f d63d
00000280: 0a3a 033d 0b3f d9bd 2840 1f3e 49d6 323c
00000290: c523 64be 7e7a 633d 7144 86be 1547 c23c
000002a0: 7325 30be 0765 c03c d8ce 51bd 5a94 16be
000002b0: fb7e 40bd eac2 ae3c 1423 aa3e a9cc 58be
000002c0: d68e be3d fa50 113e 2f54 19be 52b0 75b9
000002d0: 2c2a 0a3e 83bc 1ebe c791 83bd 4c3c 1a3d
000002e0: 22ed d13d 7ed4 abbd 7d82 893d b648 903c
000002f0: a187 1d3d 61a4 753d 275a 683d d490 5cbe
00000300: 5cee f1bd 5071 b2bd 0769 0c3e 9731 1f3e
00000310: 0105 9a3e 540a 553e 480b b2be 6f3a a63d
00000320: a3b8 97be 5631 9cbc 9490 23bd b7c2 cebd
00000330: 4e0d d83c e6fa afbd e65a a0bd c873 af38
00000340: 7a56 42be 211f 973e a426 953d e6e3 bfbd
00000350: e59d f93d 41a4 f13d 66f2 41bd 07cc b4bd
00000360: d6b6 95be 4762 723e 18bd 303e 8e47 123c
00000370: a3bc 06be b116 1abe 19cb ff3c 6a75 58bd
00000380: 48f9 8d3d a820 9cbd 25a3 cc3d afd8 403e
00000390: 75a6 b83e 36fc 07be 9caf 90be 1f03 f63d
000003a0: f9bb 59be f2b7 373e d694 91be 8279 b93c
000003b0: abfb 2dbd 52ae 3e3e 4fb0 083e 4aa4 25be
000003c0: 6ad7 923c cb55 07be 6945 393b 3c65 f8bb
000003d0: b5e6 06be 0cba 97bd 975d f0bd 334b 373d
000003e0: 9463 b8bd 1e9d 69be 3564 623e 3fba edbc
000003f0: 30c2 29bd adbd 733e a248 02be f6d6 08be

weight f4 [12]
0.95490694 0.8752855 1.1209456 1.0839728 0.6806398 1.1223093 0.9251739 1.1224624
1.0623901 0.9482857 0.9333421 1.001752
00000000: c874 743f b612 603f 257b 8f3f 9fbf 8a3f
00000010: 693e 2e3f d5a7 8f3f 32d8 6c3f d9ac 8f3f
00000020: 66fc 873f dac2 723f 82ef 6e3f 6939 803f

bias f4 [12]
0.058992676 0.27940646 -0.07361846 0.030300763 -0.16622318 0.06268772 0.013243291 0.16628858
-0.052073352 0.018827278 0.020532396 0.006953991
00000000: 4ea2 713d 5d0e 8f3e 46c5 96bd 4e39 f83c
00000010: 6936 2abe 6b62 803d 63fa 583c 8e47 2a3e
00000020: de4a 55bd aa3b 9a3c 8e33 a83c 4ede e33b

running_mean f4 [12]
-0.09749351 -0.018559447 -0.0069708596 0.008764145 -0.18336868 -0.092041574 0.09532742 0.06521049
0.036212645 0.021677133 -0.50264233 0.02170493
00000000: adaa c7bd fb09 98bc cf6b e4bb 7d97 0f3c
00000010: 00c5 3bbe 4b80 bcbd 063b c33d 148d 853d
00000020: b653 143d 3e94 b13c 2bad 00bf 8ace b13c

running_var f4 [12]
0.36818537 0.49591738 0.47389176 0.088351004 1.440471 0.3612909 0.42665446 0.38721532
0.13401335 0.2609492 4.4590693 0.39632466
00000000: cb82 bc3e e2e8 fd3e f1a1 f23e 5ff1 b43d
00000010: 5b61 b83f 1ffb b83e 7472 da3e 1641 c63e
00000020: cc3a 093e 229b 853e b2b0 8e40 11eb ca3e

weight f4 [4, 4, 1, 1]
-0.09222106 -0.4158634 -1.4566735 0.8545647 0.520406 -1.2050992 0.32376423 1.5498097
-0.030471753 0.99004304 -0.36918154 0.5232407 -0.33499083 0.12479089 -0.23422734 -0.8497201
00000000: 65de bcbd 0cec d4be 4774 babf c1c4 5a3f
00000010: 5439 053f b140 9abf 6dc4 a53e 2a60 c63f
00000020: e69f f9bc 7673 7d3f 5d05 bdbe 1af3 053f
00000030: eb83 abbe 5e92 ff3d 4bd9 6fbe 4287 59bf

weight f4 [4]
1.0462933 1.051562 1.0739678 1.0882242
00000000: f0ec 853f 9599 863f c777 893f ee4a 8b3f

bias f4 [4]
0.061277833 0.052530836 0.061398633 0.0700831
00000000: 77fe 7a3d 932a 573d 227d 7b3d ba87 8f3d

running_mean f4 [4]
-0.4336815 0.56872106 0.3385237 -0.5179608
00000000: 800b debe b497 113f fa52 ad3e 1499 04bf

running_var f4 [4]
1.4674245 0.4734906 0.2375312 0.10820461
00000000: 91d4 bb3f 5c6d f23e 613b 733e 619a dd3d

weight f4 [4, 4, 3, 3]
0.13641982 0.42533022 0.20002139 -0.13932893 -0.0034545343 0.07408837 0.21573856 -0.13634966
0.20340024 -0.06344077 -0.019073276 -0.19852711 -0.029484881 0.12500775 0.34071022 -0.3875969
-0.30359632 -0.15640831 0.19280542 0.28838095 0.018970614 -0.03279082 0.25149047 0.04948883
-0.0077943527 -0.4020896 0.21727075 0.02616594 -0.21418777 -0.0067375116 0.12580507 -0.17480597
0.12493672 -0.42406684 0.06482288 0.15202521 0.17392744 0.3604887 0.00085313554 -0.043966107
-0.10439199 0.33487794 0.124144726 0.24981049 0.28293866 0.15677634 -0.23907283 0.37851265
0.28216252 -0.20428732 -0.007193287 -0.39682537 -0.6258893 0.26120004 0.045978438 -0.07373431
0.041721433 0.15159266 -0.081406355 0.11892723 0.13648276 0.18069181 0.016359756 0.009638286
0.16136794 0.07436715 -0.16058356 -0.41795367 -0.27008557 -0.18801391 0.004788778 0.42296222
0.22205986 0.2917506 0.55432373 -0.20945857 0.12629773 0.46078035 0.1707297 0.10726216
0.49699578 -0.43801054 0.18286423 0.024674492 -0.040084526 -0.28598803 0.24295138 0.0019438877
-0.14232637 -0.0725492 -0.003745322 0.060639936 0.009601322 -0.15165354 -0.13688691 0.12008428
0.40467703 -0.3369109 -0.027354289 -0.045833785 -0.29563108 -0.44943103 0.13005808 -0.20886192
0.10797596 -0.008548921 -0.34705317 0.115368225 -0.3091478 0.1435257 0.31579912 -0.004127274
0.22338362 -0.33577806 0.50412893 -0.27263293 0.16543221 -0.054230116 0.07234361 0.40202662
0.16585268 -0.032285776 -0.0020463679 0.3165873 -0.029139657 -0.15500692 -0.08089288 -0.16536534
0.15942848 0.005934245 -0.30187684 -0.405824 0.36565837 -0.019866511 -0.12921143 0.21073197
-0.41641504 0.034126565 -0.04588937 -0.14000376 0.10044908 -0.066445135 -0.12239995 -0.05923413
00000000: a3b1 0b3e e2c4 d93e 68d2 4c3e 3eac 0ebe
00000010: 7865 62bb a5bb 973d 92ea 5c3e 3f9f 0bbe
00000020: 2748 503e 3ced 81bd 8f3f 9cbc b14a 4bbe
00000030: 478a f1bc 0802 003e 9271 ae3e 1a73 c6be
00000040: fa70 9bbe 8029 20be c96e 453e aba6 933e
00000050: 4368 9b3c ab4f 06bd 5cc3 803e cdb4 4a3d
00000060: c567 ffbb b0de cdbe 397c 5e3e f459 d63c
00000070: 0a54 5bbe 58c6 dcbb 0bd3 003e 5600 33be
00000080: d3de ff3d 4a1f d9be dcc1 843d 7fac 1b3e
00000090: 091a 323e fa91 b83e f5a4 5f3a ce15 34bd
000000a0: 78cb d5bd 1f75 ab3e 973f fe3d 52ce 7f3e
000000b0: 56dd 903e fa89 203e 82cf 74be 69cc c13e
000000c0: 9b77 903e b230 51be aab5 ebbb b22c cbbe
000000d0: 483a 20bf 03bc 853e e353 3c3d 0402 97bd
000000e0: 18e4 2a3d 1b3b 1b3e 60b8 a6bd 1f90 f33d
000000f0: 23c2 0b3e 4607 393e e504 863c e7e9 1d3c
00000100: a33d 253e ce4d 983d 0470 24be 06fe d5be
00000110: a848 8abe b886 40be 2eeb 9c3b 818e d83e
00000120: a963 633e 5660 953e 29e8 0d3f 4f7c 56be
00000130: 3154 013e 67eb eb3e c4d3 2e3e 43ac db3d
00000140: 3b76 fe3e eb42 e0be c340 3b3e 2922 ca3c
00000150: ac2f 24bd 066d 92be 3fc8 783e 0cca fe3a
00000160: 01be 11be ad94 94bd 1474 75bb 9561 783d
00000170: dd4e 1d3c 114b 1bbe 152c 0cbe bfee f53d
00000180: d431 cf3e 967f acbe 1a16 e0bc 35bc 3bbd
00000190: f55c 97be d31b e6be f22d 053e e6df 55be
000001a0: 8022 dd3d c610 0cbc f4b0 b1be 2d46 ec3d
000001b0: 9f48 9ebe 67f8 123e 6cb0 a13e 153e 87bb
000001c0: adbe 643e 1aeb abbe 980e 013f 8b96 8bbe
000001d0: 1067 293e 6620 5ebd e328 943d 6fd6 cd3e
000001e0: 49d5 293e 173e 04bd 5b1c 06bb bb17 a23e
000001f0: 4ab6 eebc 22ba 1ebe 2bab a5bd 8855 29be
00000200: 3841 233e 0e74 c23b 9a8f 9abe 2ac8 cfbe
00000210: 9337 bb3e 18bf a2bc 0050 04be 1fca 573e
00000220: 5a34 d5be 4cc8 0b3d 7ef6 3bbd 255d 0fbe
00000230: 3fb8 cd3d 6314 88bd d3ac fabd 7d9f 72bd

weight f4 [4]
1.2860811 1.2779443 1.2498791 1.0742263
00000000: 4e9e a43f ae93 a33f 0afc 9f3f 3f80 893f

bias f4 [4]
0.25458822 0.22988194 0.17618778 0.07488973
00000000: 6359 823e 2c66 6b3e 926a 343e c95f 993d

running_mean f4 [4]
0.31388122 0.5759349 0.49761683 0.077841625
00000000: 0ab5 a03e 7870 133f a2c7 fe3e 6e6b 9f3d

running_var f4 [4]
0.58904594 0.6794303 0.726712 0.55858433
00000000: b7cb 163f 25ef 2d3f cc09 3a3f 62ff 0e3f

weight f4 [4, 4, 3, 3]
-0.17204432 -0.22899067 0.10603116 0.06321013 0.23111695 -0.2113781 0.1883134 -0.0095788
0.060083326 0.2133247 0.24053435 0.36231542 -0.40573713 0.031790935 -0.18157417 0.07063695
-0.39988607 0.26189336 0.15570101 -0.06576776 -0.20350046 0.16598922 -0.3018294 -0.07534021
-0.17373145 0.061356694 0.12601005 -0.012690887 0.4889168 0.0023157748 -0.42151952 0.13084513
-0.27791056 -0.042042192 0.049778447 -0.16866913 0.20325717 0.0012324278 -0.11487625 -0.2648861
-0.14433847 0.2907287 -0.3394245 0.029656986 -0.3355542 0.22622138 0.18625578 -0.24518313
-0.13667496 0.059708532 -0.09373037 -0.099355295 -0.22737163 -0.0999065 0.027534962 0.17245063
-0.023393089 -0.13055395 0.23130666 -0.002445274 -0.1377724 0.35928458 0.364565 -0.32214192
0.21299414 0.04047579 -0.26510713 -0.03283803 -0.043243363 -0.030848477 -0.22733548 0.1644838
-0.29605868 0.25163856 -0.29588744 -0.05729205 -0.2111351 -0.011102318 -0.06989472 0.19157043
0.029147256 0.2390725 0.23053679 0.0063238754 -0.17312595 0.052826535 0.05989608 -0.06716236
0.5144126 -0.032401927 -0.48256093 0.08417755 0.48015684 -0.22400934 0.14177398 -0.15535061
-0.39956275 -0.11988425 0.05262293 0.17602009 0.2551152 0.21688186 -0.30007154 -0.12504497
-0.0064852787 -0.2966043 -0.11735585 0.12180894 0.20889825 0.37826255 0.10860159 -0.36077017
0.34673584 -0.080481775 0.12888457 0.14187063 -0.15278019 -0.025073221 0.32619557 0.023841528
0.04639154 0.49560368 -0.5125842 -0.057556003 0.46562174 -0.06692447 0.07925927 -0.29659104
-0.04529144 0.19699006 0.06504033 -0.370252 -0.18016854 -0.032206677 -0.12959544 0.17400962
-0.47171438 0.026255053 -0.26089326 0.16951413 -0.035484746 -0.1808849 0.12190927 -0.40042645
00000000: 632c 30be 887c 6abe dd26 d93d 5074 813d
00000010: eca9 6c3e 8073 58be 3ad5 403e 66f0 1cbc
00000020: ef19 763d ca71 5a3e a34e 763e 6881 b93e
00000030: c7bc cfbe 3637 023d 94ee 39be 1baa 903d
00000040: debd ccbe e316 863e 1670 1f3e 3fb1 86bd
00000050: 6d62 50be 14f9 293e 6289 9abe f84b 9abd
00000060: a8e6 31be 2851 7b3d c708 013e 70ed 4fbc
00000070: 4e53 fa3e 41c4 173b 68d1 d7be 44fc 053e
00000080: 4b4a 8ebe 6f34 2cbd 7ce4 4b3d 9ab7 2cbe
00000090: a622 503e 6a89 a13a 3d44 ebbd 279f 87be
000000a0: 77cd 13be 64da 943e 0cc9 adbe 35f3 f23c
000000b0: c3cd abbe 94a6 673e d6b9 3e3e 4911 7bbe
000000c0: 85f4 0bbe ef90 743d b5f5 bfbd ca7a cbbd
000000d0: 1cd4 68be c79b ccbd 0091 e13c e696 303e
000000e0: dda2 bfbc efaf 05be a7db 6c3e e440 20bb
000000f0: 3514 0dbe 26f4 b73e 44a8 ba3e c9ef a4be
00000100: 231b 5a3e f1c9 253d 1fbc 87be 2c81 06bd
00000110: f41f 31bd f2b5 fcbc a2ca 68be 716e 283e
00000120: 0195 97be c5d6 803e 8f7e 97be 12ab 6abd
00000130: cd33 58be 7fe6 35bc f724 8fbd 0a2b 443e
00000140: 3ac6 ee3c 6ccf 743e d611 6c3e 8338 cf3b
00000150: ee47 31be a360 583d 9855 753d 6b8c 89bd
00000160: 8bb0 033f e2b7 04bd 3a12 f7be 4865 ac3d
00000170: 1ed7 f53e b462 65be 332d 113e 3b14 1fbe
00000180: 7d93 ccbe e085 f5bd 248b 573d 9c3e 343e
00000190: 769e 823e 4716 5e3e faa2 99be ca0b 00be
000001a0: 7682 d4bb 85dc 97be 4458 f0bd f776 f93d
000001b0: 6ce9 553e a1ab c13e 836a de3d deb6 b8be
000001c0: 5c87 b13e a1d3 a4bd 51fa 033e 8946 113e
000001d0: 6972 1cbe 5b66 cdbc 1b03 a73e 4f4f c33c
000001e0: 0e05 3e3d c4bf fd3e b838 03bf d8bf 6bbd
000001f0: f965 ee3e b20f 89bd af52 a23d c8da 97be
00000200: 8483 39bd c3b7 493e dd33 853d ac91 bdbe
00000210: 1a7e 38be 26eb 03bd abb4 04be 942f 323e
00000220: 8c84 f1be d614 d73c cd93 85be 1d95 2d3e
00000230: 7458 11bd e439 39be 91ab f93d b204 cdbe

weight f4 [4]
1.0515465 1.14493 0.99227965 0.76451856
00000000: 1399 863f 118d 923f 0a06 7e3f 7db7 433f

bias f4 [4]
-0.0010191967 0.047563523 0.10969289 -0.019200718
00000000: 9196 85ba f8d1 423d aaa6 e03d d34a 9dbc

running_mean f4 [4]
-0.18825617 -0.3686981 -0.22611754 -0.13271645
00000000: 3ac6 40be ffc5 bcbe 5b8b 67be d2e6 07be

running_var f4 [4]
0.32223284 0.34429958 0.28547582 0.79814917
00000000: b4fb a43e 0948 b03e e329 923e 8153 4c3f

weight f4 [4, 4, 3, 3]
-0.10498202 -0.2021031 0.4822293 -0.019579113 0.11808545 0.11333038 -0.039989956 0.7500343
0.21238874 0.28358164 -0.18139309 -0.52230865 -0.3089857 -0.29587698 -0.080977395 -0.35609376
-0.022689626 -0.211845 0.24900207 0.06597763 0.38961792 -0.068687774 0.1562447 0.06559183
0.20611677 0.018232582 0.43394706 0.19201635 -0.0049684895 0.31346706 -0.14059837 0.11628344
-0.053862467 0.20271637 -0.040484376 0.28370306 -0.015167834 -0.35855502 0.1160165 0.020204352
0.08268927 0.28974515 0.11093021 0.09835794 0.2553031 0.10484425 0.07743111 0.12721525
0.11868994 0.15273744 -0.22685713 0.09007065 0.09961712 0.12326236 -0.3103934 0.3094443
-0.01488118 0.010547653 -0.36523485 0.29786333 -0.08801054 0.008816685 -0.1834782 0.15754978
0.2014648 -0.2832926 -0.062388863 0.26041716 -0.25383288 0.29008028 0.12671623 -0.07917757
-0.27706352 0.078827366 -0.0840415 -0.31168258 0.06428274 -0.17018855 0.66055816 0.03090595
0.10556026 -0.50665706 -0.08393466 -0.02607589 -0.17759554 0.47604653 -0.3262509 0.021574913
-0.11808804 0.16069089 0.32103473 0.440712 0.42450956 -0.03263222 -0.3626338 -0.06891032
0.058477934 0.4977591 0.3088575 -0.26998124 -0.046414528 -0.22181654 -0.07246391 0.105236955
0.115491964 0.34457844 -0.0366834 -0.14912099 -0.34313285 -0.19668184 -0.11418368 0.04894228
-0.111511275 -0.060822878 0.029385135 -0.18062149 -0.16747706 0.10978719 0.09437426 0.45992994
-0.24300203 0.042244278 0.3905087 0.02314041 0.14711082 0.27559477 -0.1178245 -0.04433421
0.24397908 -0.22170284 -0.05490663 -0.20011719 -0.037115894 -0.14339559 0.15038693 -0.3754564
-0.098646656 0.09130656 -0.23419431 -0.3337986 0.0012195404 -0.09623173 -0.07980396 0.4832813
00000000: d000 d7bd 1df4 4ebe c2e6 f63e 6064 a0bc
00000010: c9d6 f13d c219 e83d 82cc 23bd 3f02 403f
00000020: 6f7c 593e 9d31 913e 1cbf 39be 05b6 05bf
00000030: 6033 9ebe 307d 97be 7ad7 a5bd ec51 b6be
00000040: 98df b9bc e5ed 58be 66fa 7e3e 481f 873d
00000050: 007c c73e 2dac 8cbd 9cfe 1f3e 0255 863d
00000060: 4610 533e 7f5c 953c 4f2e de3e ef9f 443e
00000070: b6ce a2bb c17e a03e 05f9 0fbe 0326 ee3d
00000080: e49e 5cbd e194 4f3e f2d2 25bd 8741 913e
00000090: 8282 78bc 8694 b7be 0f9a ed3d 9983 a53c
000000a0: fe58 a93d 7a59 943e 612f e33d e36f c93d
000000b0: 17b7 823e 95b8 d63d 3494 9e3d b744 023e
000000c0: b613 f33d 3467 1c3e 3c4d 68be f676 b83d
000000d0: 1004 cc3d fa70 fc3d e2eb 9ebe 7c6f 9e3e
000000e0: 31d0 73bc 10d0 2c3c 1000 bbbe 8b81 983e
000000f0: df3e b4bd db73 103c b6e1 3bbe bb54 213e
00000100: ca4c 4e3e ba0b 91be 778b 7fbd 6655 853e
00000110: 62f6 81be 6785 943e e6c1 013e da27 a2bd
00000120: 45db 8dbe 3e70 a13d f31d acbd dc94 9fbe
00000130: aba6 833d e845 2ebe 571a 293f 7a2e fd3c
00000140: fa2f d83d 47b4 01bf efe5 abbd 1b9d d5bc
00000150: 9bdb 35be 5fbc f33e 5c0a a7be dfbd b03c
00000160: 24d8 f1bd 278c 243e aa5e a43e 01a5 e13e
00000170: 5159 d93e 5da9 05bd 23ab b9be db20 8dbd
00000180: 8f86 6f3d 48da fe3e 9222 9e3e fb3a 8abe
00000190: 291d 3ebd e023 63be f567 94bd 7986 d73d
000001a0: 0d87 ec3d 966c b03e 5541 16bd 2cb3 18be
000001b0: 1caf afbe f766 49be 22d9 e9bd b377 483d
000001c0: 0660 e4bd 6921 79bd 18b9 f03c d7f4 38be
000001d0: 1b7f 2bbe 1bd8 e03d 4b47 c13d f07b eb3e
000001e0: 86d5 78be 5608 2d3d c2f0 c73e f590 bd3c
000001f0: 38a4 163e c21a 8d3e f94d f1bd ca97 35bd
00000200: a7d5 793e 1206 63be c6e5 60bd 85eb 4cbe
00000210: d606 18bd 4bd6 12be 08ff 193e d23b c0be
00000220: 4207 cabd effe ba3d a2d0 6fbe a6e7 aabe
00000230: fcd8 9f3a 2415 c5bd 4270 a3bd a670 f73e

weight f4 [4]
1.6076972 1.1142426 1.1512312 1.5418911
00000000: 06c9 cd3f 809f 8e3f 8b5b 933f b05c c53f

bias f4 [4]
0.22816378 -0.016112983 0.008678088 0.25378254
00000000: c4a3 693e 60ff 83bc 8a2e 0e3c c9ef 813e

running_mean f4 [4]
0.50804734 0.4430574 0.35604772 -0.16732979
00000000: 640f 023f 6bd8 e23e e34b b63e 8058 2bbe

running_var f4 [4]
0.8992506 0.27170366 0.94473094 0.5645632
00000000: 4a35 663f be1c 8b3e e3d9 713f 3787 103f

weight f4 [4, 12, 1, 1]
-0.7401828 1.250983 -0.44865018 -0.8376483 0.23054716 -0.108583815 0.00086458126 0.5756785
-0.26949835 -0.29465768 0.12808144 -0.997219 0.22758748 -0.40024376 -1.3477852 -0.23506857
-0.83034074 -0.022424173 0.37688312 0.7260605 -0.2236066 0.8641515 1.1908343 -0.42292637
1.00569 0.4422422 0.6547994 0.3191997 0.31368738 0.79114217 -0.3280321 -0.92431974
0.9311444 1.030394 1.1606871 -1.1656997 1.2210015 -1.1310363 -0.3950864 -0.52376884
-0.85440505 -0.67301226 0.5296355 -0.39493942 -1.6038623 0.1451262 -0.41985393 -0.08277242
00000000: 9f7c 3dbf 3620 a03f 7ab5 e5be 1e70 56bf
00000010: 8e14 6c3e 3161 debd 11a5 623a ab5f 133f
00000020: b0fb 89be 5fdd 96be c827 033e bf49 7fbf
00000030: b10c 693e c0ec ccbe 3a84 acbf d1b5 70be
00000040: 3691 54bf e6b2 b7bc d3f6 c03e 1adf 393f
00000050: 21f9 64be 0839 5d3f 426d 983f ce89 d8be
00000060: 73ba 803f 926d e23e efa0 273f 256e a33e
00000070: a29b a03e 4b88 4a3f d3f3 a7be 38a0 6cbf
00000080: 7b5f 6e3f f3e3 833f 6591 943f a635 95bf
00000090: c749 9c3f ccc5 90bf c448 cabe b715 06bf
000000a0: 4aba 5abf 884a 2cbf 3196 073f 8035 cabe
000000b0: 5c4b cdbf f69b 143e 18f7 d6be 9684 a9bd

weight f4 [4]
1.045717 0.9284237 1.0162978 1.003907
00000000: 0eda 853f 2dad 6d3f 0c16 823f 0680 803f

bias f4 [4]
0.03503562 -0.044242166 0.016054122 0.020186782
00000000: 8381 0f3d 4637 35bd ef83 833c c05e a53c

running_mean f4 [4]
-0.379003 0.26567245 1.6057764 -1.5917943
00000000: ae0c c2be 3806 883e 158a cd3f eabf cbbf

running_var f4 [4]
2.137563 2.4185479 5.299591 2.1321201
00000000: d5cd 0840 7dc9 1a40 4096 a940 a874 0840

weight f4 [4, 12, 1, 1]
-0.3090026 0.4644983 -0.8190612 -0.18912134 1.3217498 -0.7890062 -0.29766253 -0.43028694
0.19142452 -0.4899976 0.3228174 -0.68079203 -0.15696321 -1.2629476 -0.1987435 -0.558674
-0.3585286 0.15915044 0.43567893 -0.6120328 -0.054588787 0.08687083 -0.5451733 -0.79551035
0.66477525 1.0161053 0.27209562 0.04242677 -0.6793846 -0.4563827 0.32149842 -0.62325233
-0.3596312 0.8984928 0.7370525 -0.64959246 1.6702824 -0.21114612 -0.61580694 -0.20117995
2.2813137 1.4145195 0.036582775 1.671627 -0.4493122 0.27671868 -0.17675975 -1.637823
00000000: 9735 9ebe b9d2 ed3e ffad 51bf 06a9 41be
00000010: 192f a93f 4ffc 49bf 3967 98be 924e dcbe
00000020: ca04 443e f7e0 fabe 5248 a53e 6348 2ebf
00000030: f7ba 20be 44a8 a1bf 6b83 4bbe 4205 0fbf
00000040: 1091 b7be 55f8 223e 4f11 df3e 2eae 1cbf
00000050: 7e98 5fbd 55e9 b13d 7a90 0bbf 91a6 4bbf
00000060: b62e 2a3f bd0f 823f 1e50 8b3e b1c7 2d3d
00000070: 26ec 2dbf feaa e9be 719b a43e 778d 1fbf
00000080: 9521 b8be a003 663f 79af 3c3f b14b 26bf
00000090: d0cb d53f b036 58be 86a5 1dbf 1e02 4ebe
000000a0: 0b01 1240 fa0e b53f d2d7 153d e0f7 d53f
000000b0: 400c e6be 12ae 8d3e 8200 35be 2fa4 d1bf

weight f4 [4]
1.1094846 1.0018957 0.9652473 0.89534825
00000000: 9703 8e3f 1e3e 803f 721a 773f 8b35 653f

bias f4 [4]
0.1308067 0.02125333 0.11315285 -0.041149713
00000000: 31f2 053e 771b ae3c aebc e73d 9a8c 28bd

running_mean f4 [4]
-0.8840206 -1.5863609 0.608416 1.5781802
00000000: 2d4f 62bf e00d cbbf 27c1 1b3f cf01 ca3f

running_var f4 [4]
0.7419425 1.3792173 1.7579366 4.296618
00000000: f2ef 3d3f 318a b03f 1104 e13f e57d 8940

weight f4 [4, 12, 1, 1]
-1.3667715 -0.37916055 0.66383404 -0.77734625 0.5779228 -0.20180827 0.98382705 0.6052308
0.75304276 1.0495406 -1.1727544 -0.1208214 0.24851285 0.24156347 0.37480572 -0.35376573
-0.8006635 -0.035840716 -0.30810076 1.29528 0.5156789 -0.36659712 0.3152414 0.1418194
0.5239369 -0.6739739 -0.5045667 -0.6848596 0.8600775 -0.17335515 0.38594627 0.8017532
0.61421156 -0.25388452 -0.0862437 0.19324714 1.0266025 1.0983086 0.7261748 -0.971328
0.726159 0.19172674 -0.55031055 -0.18832521 0.29249898 0.23452246 0.647177 0.34917673
00000000: 5ef2 aebf 5521 c2be 07f1 293f 2a00 47bf
00000010: c0f2 133f d4a6 4ebe 17dc 7b3f 68f0 1a3f
00000020: 69c7 403f 5957 863f d11c 96bf 3671 f7bd
00000030: 277a 7e3e 6a5c 773e 89e6 bf3e c820 b5be
00000040: 48f8 4cbf b7cd 12bd 62bf 9dbe bccb a53f
00000050: 8803 043f 9eb2 bbbe 5267 a13e 1b39 113e
00000060: bb20 063f 8e89 2cbf 492b 01bf f552 2fbf
00000070: 0a2e 5c3f 0384 31be c09a c53e b33f 4d3f
00000080: f83c 1d3f 27fd 81be 89a0 b0bd 94e2 453e
00000090: b667 833f 6095 8c3f 97e6 393f f4a8 78bf
000000a0: 8ee5 393f 0454 443e 27e1 0cbf 53d8 40be
000000b0: 6dc2 953e a826 703e 64ad 253f 4bc7 b23e

weight f4 [4]
0.99867666 0.93330634 0.9536474 1.0917959
00000000: 46a9 7f3f 2aed 6e3f 3c22 743f f8bf 8b3f

bias f4 [4]
0.11010976 0.015025132 0.025426747 0.13859792
00000000: 3a81 e13d f92b 763c c14b d03c 9dec 0d3e

running_mean f4 [4]
-0.0077961218 0.8028232 0.24251482 1.3297689
00000000: 9c76 ffbb d285 4d3f ce55 783e de35 aa3f

running_var f4 [4]
4.809902 1.1737794 1.1117915 3.0694935
00000000: b8ea 9940 673e 963f 2f4f 8e3f 9572 4440

weight f4 [4, 12, 1, 1]
0.47222695 0.118949525 1.5602379 0.23368703 1.1499305 -0.4910316 0.04247711 0.8728066
-0.8853533 -0.0063483403 -0.349884 -1.0869763 -0.7875011 0.5222674 -0.41569003 -0.28014258
-0.18046796 -0.2404568 -0.8465604 -0.43565014 1.42197 -0.47121808 0.32493088 0.3125546
-0.36844844 -0.46155074 0.49649256 -1.4358183 1.0343245 0.43450555 -1.7891521 1.4329915
0.24985223 -1.2119427 0.3056928 0.45888072 -0.40418792 -0.61709064 -0.6620138 0.13988651
-0.7977965 1.1297638 -0.06595591 -0.2117478 -0.067606546 -0.3599413 -0.38973004 -0.33130452
00000000: bbc7 f13e cf9b f33d e0b5 c73f a74b 6f3e
00000010: ec30 933f 7e68 fbbe 7afc 2d3d 4170 5f3f
00000020: 84a6 62bf bd05 d0bb ff23 b3be 0a22 8bbf
00000030: ac99 49bf 51b3 053f 53d5 d4be d96e 8fbe
00000040: 98cc 38be 4f3a 76be 2fb8 58bf 890d dfbe
00000050: 1d03 b63f 7f43 f1be 575d a63e 2807 a03e
00000060: 46a5 bcbe 6150 ecbe 4634 fe3e e5c8 b7bf
00000070: bf64 843f 8377 de3e f002 e5bf 446c b73f
00000080: 43d9 7f3e f020 9bbf c483 9c3e 6af2 ea3e
00000090: b8f1 cebe a7f9 1dbf bd79 29bf 693e 0f3e
000000a0: 643c 4cbf 1a9c 903f e413 87bd 6ad4 58be
000000b0: 4d75 8abd 3a4a b8be b28a c7be bfa0 a9be

weight f4 [4]
1.3990066 1.4494717 1.0532129 1.465485
00000000: a612 b33f 4a88 b93f aecf 863f 0395 bb3f

bias f4 [4]
0.13058193 -4.5678447e-05 0.0023574533 0.29887122
00000000: 45b7 053e dc96 3fb8 817f 1a3b a605 993e

running_mean f4 [4]
0.47167492 -0.39781344 -0.3592063 -0.8180393
00000000: 607f f13e 34ae cbbe e3e9 b7be 066b 51bf

running_var f4 [4]
1.8680193 0.8115916 4.38677 1.1058617
00000000: 421b ef3f 78c4 4f3f 6b60 8c40 e08c 8d3f

weight f4 [10, 12]
-0.18086776 -0.019245293 -0.0661608 -0.118871704 0.5120132 0.5102354 0.35061097 -0.09055355
0.36513567 -0.40278238 0.20148967 -0.409051 -0.06419073 -0.12964772 0.13316423 -0.07106788
-0.15948828 -0.20770311 -0.18960516 -0.14200962 0.75918734 0.22620393 0.13121438 -0.85834944
0.0016950511 0.006181053 -0.1556315 0.16946162 0.22866856 0.25564232 0.22222191 0.23021366
-0.4280344 -0.037578985 -0.31880578 0.46545744 0.19198093 0.19699502 0.219581 -0.1690217
-0.15640968 -0.15190808 -0.17095895 0.050541613 -0.23704912 -0.10770729 0.06492851 0.38040698
0.098993555 -0.06150078 -0.12909998 0.2928183 0.006285497 0.027199324 0.08861352 0.17410843
-0.5871701 0.10882705 -0.39064357 0.56031007 0.10746871 0.16743124 0.15446186 -0.055027913
-0.1776297 -0.15016277 -0.14792606 -0.029842036 -0.2855901 -0.2460864 0.09760916 0.530918
-0.0015402102 -0.12623411 -0.14087592 0.002729356 -0.3000833 -0.2829058 -0.21815348 0.10890139
-0.71258706 0.87214124 -0.21124804 0.18787742 -0.047683172 -0.07105201 -0.050271127 0.06695016
-0.23677815 -0.21645689 -0.23345956 -0.02453469 -0.087851845 0.054087345 0.06581596 0.33372408
-0.015096471 0.030483713 0.040381387 -0.023167178 0.41255006 0.36557546 0.44671872 -0.14059354
0.5442562 -0.54314506 0.16914245 -0.5975105 -0.060172305 -0.022930672 -0.0032323336 -0.14646722
-0.099586464 -0.11485949 -0.16491006 -0.1214327 0.6669579 0.06339409 0.20894793 -0.57661027
00000000: 6635 39be 4ea8 9dbc 507f 87bd 0273 f3bd
00000010: 4c13 033f ca9e 023f 4883 b33e 2474 b9bd
00000020: 10f3 ba3e 7e39 cebe 4f53 4e3e 226f d1be
00000030: 6e76 83bd 5fc2 04be 345c 083e 098c 91bd
00000040: e550 23be 20b0 54be db27 42be f86a 11be
00000050: 1a5a 423f 01a2 673e 105d 063e cabc 5bbf
00000060: 7a2c de3a 6e8a ca3b dd5d 1fbe 5987 2d3e
00000070: 1728 6a3e 8de3 823e 248e 633e 21bd 6b3e
00000080: 5327 dbbe 6cec 19bd 833a a3be 7050 ee3e
00000090: a696 443e 10b9 493e d7d9 603e 0614 2dbe
000000a0: dc29 20be cb8d 1bbe dd0f 2fbe b904 4f3d
000000b0: 01bd 72be a495 dcbd 3df9 843d b4c4 c23e
000000c0: 22bd ca3d 3ee8 7bbd c932 04be 48ec 953e
000000d0: 92f6 cd3b 1ed1 de3c 017b b53d 7b49 323e
000000e0: c850 16bf b7e0 de3d 6f02 c8be 7b70 0f3f
000000f0: 8e18 dc3d 1873 2b3e 402b 1e3e f364 61bd
00000100: 8fe4 35be 45c4 19be ee79 17be 4977 f4bc
00000110: de38 92be 13fe 7bbe 50e7 c73d 3eea 073f
00000120: e1e0 c9ba 8443 01be c741 10be ffde 323b
00000130: 85a4 99be 07d9 90be a063 5fbe b107 df3d
00000140: 1b6c 36bf a644 5f3f 6851 58be f062 403e
00000150: 6e4f 43bd b783 91bd 19e9 4dbd 2a1d 893d
00000160: f975 72be e0a6 5dbe 0610 6fbe f9fc c8bc
00000170: abeb b3bd b18a 5d3d 85ca 863d e2dd aa3e
00000180: 3057 77bc fbb8 f93c f466 253d 18c9 bdbc
00000190: c339 d33e b52c bb3e 51b8 e43e c1f7 0fbe
000001a0: 6054 0b3f 8e0b 0bbf ae33 2d3e 73f6 18bf
000001b0: 3c77 76bd 1bd9 bbbc 8fd5 53bb 81fb 15be
000001c0: fdf3 cbbd 743b ebbd 2fde 28be b5b1 f8bd
000001d0: c1bd 2a3f c3d4 813d 72f6 553e bb9c 13bf

bias f4 [10]
-0.04998726 -0.21500741 0.18002886 0.12301515 0.200224 0.12126825 -0.14749977 -0.12451741
0.19511694 -0.2826426
00000000: 71bf 4cbd e72a 5cbe 7c59 383e 5eef fb3d
00000010: 8507 4d3e 7d5b f83d 2e0a 17be fc02 ffbd
00000020: bccc 473e 88b6 90be
